dheera_v0.1.0/checkpoints/dheera_dqn.pt (torch, 72098 bytes, 16 tensors)

net.0.weight f4 [64, 16]
0	0x3ddf592c	0.1090568
1	0xbe16ee9a	-0.14739457
2	0x3cd10ca0	0.025518715
3	0xbddb0a0c	-0.10695276
4	0xbbd12640	-0.0063827336
5	0xbcd304f0	-0.02575919
6	0xbda02648	-0.078198016
7	0x3cb80910	0.022465259
8	0xbe4e744a	-0.20161548
9	0xbe04b156	-0.12958273
10	0x3d090468	0.033451468
11	0x3e3e6404	0.1859284
12	0xbe24bf3a	-0.16088572
13	0x3e540cba	0.2070798
14	0x3def1d68	0.11675531
15	0x3d92ec14	0.071739346
16	0x3e48d05c	0.19610733
17	0x3d3bcd00	0.0458498
18	0xbce8a2b0	-0.028397888
19	0xbcead9d0	-0.028668314
20	0xbe68b6ae	-0.22725937
21	0x3d658080	0.05603075
22	0x3b91c400	0.004448414
23	0xbdecb8f0	-0.115587115
24	0xbcdc4b60	-0.02689141
25	0x3d6cc118	0.057801336
26	0xbc054760	-0.008134693
27	0xbd355c80	-0.044277668
28	0xbd80a62c	-0.06281695
29	0xbc852130	-0.016251177
30	0xbe6490ea	-0.22320905
31	0x3e3fb17a	0.18720046
32	0x3d7832b0	0.060595214
33	0x3daf7bf8	0.08568567
34	0xbdff0174	-0.12451449
35	0x3e2ae532	0.16688994
36	0x3dee72b4	0.11642972
37	0xbe70209c	-0.2344994
38	0xbd40aa70	-0.047037542
39	0xbcebca30	-0.028782934
40	0x3e40c46c	0.18824929
41	0xbda2d26c	-0.07950291
42	0x3e6bd436	0.23030171
43	0x3cad60c0	0.021164298
44	0x3e7a29ae	0.24429962
45	0x3dda4f0c	0.10659608
46	0xbe39d7ba	-0.181487
47	0x3dd76354	0.10516992
48	0x3da3a9fc	0.07991406
49	0x3e603d9e	0.21898505
50	0xbbd2ddc0	-0.006435126
51	0xbd80ed98	-0.062953174
52	0x3d80c310	0.06287205
53	0x3e11038a	0.14161506
54	0xbd45c3c8	-0.048282415
55	0xbe0df5f2	-0.13863352
56	0xbe0784ba	-0.13234225
57	0x3e75d860	0.24008322
58	0x3d545e40	0.051847696
59	0xbe38bda8	-0.18041098
60	0xbe1c7f3e	-0.15282914
61	0xbd88b97c	-0.06676003
62	0x3e6cb7b0	0.23116946
63	0xbd9d1240	-0.076694965
64	0xbbe04f00	-0.006845355
65	0x3e4d13ea	0.20027128
66	0xbd0fd090	-0.03511101
67	0x3e57e2f0	0.21082664
68	0xbe246d38	-0.16057289
69	0x3df59480	0.11991215
70	0x3cf2a500	0.029619694
71	0xbe3b3cc0	-0.18284893
72	0x3dc12024	0.094299585
73	0xbe249c38	-0.16075218
74	0x3e4d4c6e	0.20048687
75	0xbe4ac776	-0.19802651
76	0xbe36caf8	-0.17850864
77	0xbdcb9d78	-0.09942144
78	0x3e610664	0.21975094
79	0xbdd3e7c4	-0.1034694
80	0x3e23190c	0.15927523
81	0x3e1d87ec	0.15383881
82	0xbd825830	-0.06364477
83	0xbdfdc0e0	-0.123903036
84	0xbcd24f50	-0.025672585
85	0xbe656b2e	-0.22404167
86	0xbe4e39aa	-0.20139185
87	0x3dfc55f8	0.12321085
88	0x3df0007c	0.117188424
89	0xbe4cafd6	-0.19988951
90	0x3e0af94e	0.13571665
91	0x3dc41744	0.0957475
92	0x3d8c1864	0.0684059
93	0x3e3106d2	0.17287758
94	0xbe3e3124	-0.18573433
95	0x3db138e0	0.08653426
96	0xbe7c1144	-0.24615961
97	0xbe66c506	-0.22536096
98	0xbdf61b20	-0.120168924
99	0xbd5dba90	-0.054132998
100	0xbe3f42d0	-0.1867783
101	0xbd6183c8	-0.055057317
102	0xbc238320	-0.009979993
103	0xbd6d72f8	-0.05797097
104	0xbcb5f6b0	-0.022212356
105	0x3dfa4cc8	0.12221676
106	0x3e5b78a6	0.21432742
107	0x3e09d13c	0.13458723
108	0xbe5e1c8e	-0.2169058
109	0x3e2af83e	0.1669626
110	0xbd49d410	-0.049274504
111	0x3e2fa242	0.1715174
112	0x3d919800	0.0710907
113	0x3e0f62fa	0.140026
114	0xbe0e3cb6	-0.13890347
115	0xbd6821e8	-0.05667296
116	0x3db3595c	0.08757278
117	0x3e7e8ab4	0.24857599
118	0x3e4078fa	0.18796149
119	0x3e60df6a	0.21960226
120	0x3e0529d8	0.13004243
121	0x3e6db96a	0.23215261
122	0x3d31ce98	0.043409914
123	0xbe508608	-0.20363629
124	0xbdb5ec0c	-0.08882913
125	0x3e00bd38	0.12572181
126	0x3e568e04	0.20952612
127	0x3dc9f264	0.098606855
128	0x3e1befe6	0.15228233
129	0x3b87c0c0	0.0041428506
130	0x3d92c248	0.071659625
131	0x3e64bb5e	0.223371
132	0xbe1b1430	-0.1514442
133	0xbdc165e0	-0.09443259
134	0xbdf6b664	-0.12046507
135	0x3e1d3556	0.15352377
136	0x3d663358	0.05620131
137	0x3e5503ca	0.20802227
138	0x3da9c688	0.0828982
139	0xbe614c96	-0.22001871
140	0x3c6c9fc0	0.014442384
141	0x3e0231ae	0.12714264
142	0x3e5c3d70	0.21507812
143	0xbcd5bb60	-0.026090324
144	0xbe4da28e	-0.20081541
145	0xbd7b3160	-0.061326385
146	0x3da2e8a0	0.07954526
147	0x3c5a4400	0.0133218765
148	0xbe22e5ba	-0.15907946
149	0x3e753838	0.23947227
150	0xbe273d78	-0.16332042
151	0x3d897bb0	0.06713045
152	0xbe359cae	-0.1773555
153	0xbe4be134	-0.19910127
154	0x3dbe18cc	0.092820734
155	0x3dffd1f8	0.1249122
156	0x3d1a21f0	0.03763002
157	0xbe165fa2	-0.14684919
158	0xbd40f158	-0.047105163
159	0x3e4cfd8e	0.20018598
160	0x3e22da5e	0.15903613
161	0xbdad5ff4	-0.08465567
162	0xbe6a65d2	-0.22890404
163	0xbca4b160	-0.02010411
164	0x3c348160	0.0110171735
165	0xbe3aa8fe	-0.18228528
166	0x3a9a4a00	0.0011771321
167	0x3dac8278	0.084233224
168	0xbd0ebcd0	-0.034848034
169	0x3e0676c6	0.13131246
170	0x3e4c472a	0.19949022
171	0xbd8333dc	-0.06406376
172	0x3e633bb0	0.22190738
173	0xbe6e213e	-0.23254868
174	0xbd3ba2a0	-0.04580939
175	0xbe072df6	-0.13201126
176	0x3e5ad3d8	0.21369874
177	0xbd8feaec	-0.0702723
178	0xbcc72af0	-0.024312466
179	0x3e51b200	0.20478058
180	0x3e46ea36	0.19425282
181	0xbdf4062c	-0.1191524
182	0xbe7abd68	-0.24486315
183	0xbd323b90	-0.043513834
184	0xbda4b2cc	-0.08041915
185	0xbdc852bc	-0.09781405
186	0xbe541d78	-0.20714366
187	0x3e6d877c	0.23196214
188	0x3e2b225c	0.16712326
189	0x3e073d44	0.13206965
190	0x3dc205fc	0.09473798
191	0xbe414974	-0.18875676
192	0xbb98a280	-0.0046580434
193	0x3e149158	0.14508569
194	0x3e2e3650	0.17012906
195	0x3e421188	0.18952
196	0xbe1316e0	-0.14364195
197	0x3ddc6d54	0.1076304
198	0xbe108e16	-0.14116701
199	0x3d98286c	0.07429585
200	0x3d604880	0.05475664
201	0xbe172d4e	-0.14763376
202	0xbdfa9adc	-0.12236568
203	0x3d8d71a8	0.06906444
204	0xbe7cca88	-0.24686635
205	0x3d0aed10	0.033917487
206	0xbd69ee28	-0.05711189
207	0x3e3be11a	0.18347588
208	0xbe49b3aa	-0.19697443
209	0x3e3a8050	0.1821301
210	0x3cf9a0a0	0.0304721
211	0xbd455850	-0.048179924
212	0x3d8bb280	0.068211555
213	0xbd2050d0	-0.03913957
214	0x3e31507c	0.17315859
215	0x3da4f340	0.08054209
216	0x3e458cca	0.19291988
217	0xbe79235e	-0.24329898
218	0x3d97615c	0.07391617
219	0xbb37dc00	-0.0028054714
220	0xbe3f34e2	-0.18672517
221	0x3e3f86cc	0.18703765
222	0xbda505a4	-0.080577165
223	0x3cb189d0	0.02167216
224	0x3ddd08e8	0.10792714
225	0xbc5a61e0	-0.013328999
226	0x3d9dea80	0.07710743
227	0xbcef39d0	-0.029202372
228	0xbe5dcf02	-0.21660998
229	0x3e6ce0f6	0.23132691
230	0x3e3a0ef4	0.18169767
231	0xbd561d78	-0.052274197
232	0xbdc6a08c	-0.09698591
233	0xbdaf83bc	-0.08570048
234	0x3e25557c	0.16145891
235	0xbd56f8a0	-0.0524832
236	0xbe5a36fe	-0.2131004
237	0xbde72a18	-0.112873256
238	0x3d3d6f08	0.046248466
239	0x3e04753e	0.1293535
240	0x3e6beff2	0.2304075
241	0x3d70d820	0.058799863
242	0xbddf5348	-0.109045565
243	0xbdb55b74	-0.08855334
244	0xbd96ba2c	-0.07359728
245	0xbe7e0792	-0.24807575
246	0xbd0c5ec0	-0.03427005
247	0x3d99c520	0.07508302
248	0xbd14a228	-0.036287457
249	0xbc8d6350	-0.01725927
250	0xbe45933e	-0.1929445
251	0x3e231dc4	0.15929323
252	0x3df2ec80	0.11861515
253	0xbe5d701e	-0.216248
254	0xbe31b050	-0.17352414
255	0xbcb18720	-0.021670878

net.0.bias f4 [64]
0	0xbe739c26	-0.23790035
1	0x389da000	7.516146e-05
2	0xbd0f7870	-0.035026968
3	0x3e74d676	0.23909935
4	0xbe13ca54	-0.14432651
5	0x3e2f18ae	0.17099258
6	0x3d7258a8	0.05916658
7	0xbe540bd6	-0.2070764
8	0xbc34a9c0	-0.0110268
9	0x3e3ddc30	0.18541026
10	0x3e5e68b4	0.21719629
11	0x3ccf2060	0.025283992
12	0xbe7c67aa	-0.2464892
13	0x3e37fa18	0.17966497
14	0x3de0d764	0.109785825
15	0x3e69787a	0.22799864
16	0xbe7e45e2	-0.24831346
17	0x3d468548	0.04846695
18	0x3e79554a	0.24348941
19	0xbe71c83e	-0.23611543
20	0xbe73cc14	-0.23808318
21	0x3de975dc	0.11399433
22	0xbe6db820	-0.2321477
23	0xbd5a41f0	-0.05328554
24	0x3db8bffc	0.09020993
25	0xbb939080	-0.0045033097
26	0x3e726156	0.23669943
27	0x3e190954	0.14944965
28	0x3d95c5e0	0.07313132
29	0x3d36bd18	0.044613928
30	0x3d34c130	0.04412955
31	0xbe6f449c	-0.23366016
32	0x3e7e4aa4	0.2483316
33	0x3c7d2c20	0.015452415
34	0xbde79b28	-0.113088906
35	0xbe312bee	-0.17301914
36	0x3e0197f8	0.12655628
37	0xbdf7dd2c	-0.12102732
38	0x3e4955cc	0.19661635
39	0xbd00b108	-0.03141883
40	0xbe749208	-0.23883832
41	0x3df41690	0.11918366
42	0x3d57e178	0.052705258
43	0xbc809d40	-0.015699983
44	0xbdb8e6dc	-0.09028408
45	0x3dc1318c	0.094332784
46	0x3dbea584	0.09308913
47	0xbd4946a0	-0.04913962
48	0xbd80637c	-0.06268975
49	0x3e3b7986	0.18308076
50	0xbe74bdd0	-0.23900533
51	0x3e231e7a	0.15929595
52	0xbce5aa80	-0.028035402
53	0xbe2a1796	-0.1661056
54	0xbe70e370	-0.2352426
55	0x3daaa044	0.083313495
56	0xbdd31ca0	-0.10308194
57	0xbe60238c	-0.2188856
58	0xbe34d130	-0.17657924
59	0xbd324f78	-0.04353282
60	0x3e15f968	0.14645922
61	0x3e53eb02	0.20695117
62	0x3da43014	0.08016983
63	0xbe5709de	-0.20999858

net.2.weight f4 [64, 64]
0	0xbd0c94e0	-0.034321666
1	0xbd58ee8c	-0.05296187
2	0x3dd65760	0.10465884
3	0xbdeed9ba	-0.11662622
4	0xbdefb8ea	-0.117051914
5	0xbd0c0118	-0.03418073
6	0xbdb5d4bc	-0.088784665
7	0xbcae1508	-0.021250263
8	0xbcf5a810	-0.029987365
9	0x3c103de0	0.008803815
10	0x3de6a53c	0.11261985
11	0x3d3acbd8	0.045604557
12	0x3c602d90	0.013682738
13	0x3df7b834	0.12095681
14	0xbdc44b9a	-0.09584732
15	0x3d950ba4	0.07277611
16	0x3a696200	0.0008902848
17	0xbdeafc76	-0.11473934
18	0x3dc73b84	0.097281486
19	0x3d91e340	0.071234226
20	0xbd167898	-0.0367361
21	0xbc23d610	-0.009999767
22	0xbdc695ba	-0.09696527
23	0xbdb77050	-0.08956969
24	0x3dc70f16	0.09719674
25	0x3dbf948e	0.093545064
26	0x3cd13700	0.025538921
27	0xbde05d1c	-0.10955259
28	0x3dc775f0	0.09739292
29	0xbba95400	-0.0051674843
30	0xbdeec2c6	-0.11658244
31	0x3d1e3f48	0.03863457
32	0xbdd04f16	-0.101713344
33	0xbd80b632	-0.06284751
34	0xbd143f40	-0.036193132
35	0x3dc6a304	0.096990615
36	0xbb5d0540	-0.0033725053
37	0x3db55048	0.08853203
38	0xbdbe221a	-0.09283848
39	0x3c0a92b0	0.008457825
40	0xbd6ac334	-0.057315066
41	0x3bf80940	0.007569462
42	0x3df35432	0.11881293
43	0xbd5a46d0	-0.05329019
44	0xbdbc0176	-0.09179966
45	0xbce97740	-0.028499246
46	0xbdd2646c	-0.1027306
47	0xbbbc6dc0	-0.005750388
48	0x3d9ea34c	0.0774599
49	0xbd5b14a0	-0.053486466
50	0xbdf9b702	-0.12193109
51	0x3deae594	0.1146957
52	0xbdc097f2	-0.09403981
53	0x3c413860	0.011793226
54	0x3c84ca68	0.016209796
55	0xbd1062e8	-0.035250574
56	0xbdf981ba	-0.121829465
57	0x3d0f2388	0.034945995
58	0xbda15c78	-0.07878965
59	0xbdba5eaa	-0.09100087
60	0x3ca8bb60	0.02059716
61	0xbd335b98	-0.043788522
62	0x3d864246	0.065556094
63	0xbdaf6896	-0.0856487
64	0x3dd53f00	0.10412407
65	0x3cf9bb08	0.030484691
66	0xbdcba656	-0.099438354
67	0xbda64cfa	-0.08120151
68	0x3cb19a40	0.021679997
69	0xbd1cd1c4	-0.038285986
70	0x3c021600	0.0079398155
71	0xbdddcba0	-0.10829854
72	0x3d8bda12	0.06828703
73	0xbd020944	-0.031747118
74	0xbc15e680	-0.009149194
75	0xbd998e44	-0.07497838
76	0xbd596740	-0.053076982
77	0xbd480268	-0.04883042
78	0x3d4a3e5c	0.049375877
79	0x3d35f730	0.04442519
80	0xbdf6da0e	-0.120533094
81	0x3d8f94ae	0.0701078
82	0x3d1b155c	0.037862167
83	0x3c848998	0.016178891
84	0xbd52c3ac	-0.05145614
85	0x3d92961a	0.07157536
86	0xbd73e714	-0.059546545
87	0x3cc46e70	0.023978442
88	0xbcdb5268	-0.026772693
89	0xbd117fd4	-0.035522297
90	0xbdbfb472	-0.09360589
91	0xbc3ab070	-0.011394605
92	0xbd15a0d0	-0.036530316
93	0xbdd920ba	-0.10601945
94	0x3df41eae	0.11919914
95	0xbb43b080	-0.002985984
96	0xbdca5f9c	-0.09881517
97	0x3d893c70	0.06700981
98	0xbd987d7a	-0.07445808
99	0xbddc877a	-0.107680276
100	0x3d35ddf0	0.04440111
101	0xbaa2fc80	-0.001243487
102	0xbdb76676	-0.0895509
103	0x3d530794	0.0515209
104	0xbd0a64c0	-0.03378749
105	0x3b37f400	0.002806902
106	0xbdd71746	-0.10502486
107	0x3dae4d0e	0.08510791
108	0xbc87ac00	-0.016561508
109	0xbd425fdc	-0.0474547
110	0xbd888954	-0.06666818
111	0xbc829bc0	-0.015943408
112	0xbceb3c60	-0.028715312
113	0xbd8766ea	-0.06611426
114	0x3c0d80a0	0.008636624
115	0x3d23e974	0.04001756
116	0x3da5cb90	0.08095467
117	0xbdd24486	-0.10266976
118	0xbdec687c	-0.11543366
119	0x3de408ac	0.111344665
120	0xbd2674bc	-0.04063867
121	0xbd3c9f98	-0.046050638
122	0xbdabf126	-0.08395605
123	0x3d8f744e	0.07004605
124	0xbd421834	-0.047386363
125	0x3de5b4e6	0.11216144
126	0x3d81d3d8	0.06339234
127	0xbd8f34de	-0.069925055
128	0xbd54e668	-0.051977545
129	0xbb262580	-0.0025351942
130	0xbd757634	-0.05992718
131	0x3d8f39ec	0.069934696
132	0x3d8147fa	0.063125566
133	0xbdad2dd8	-0.084560096
134	0x3d7c7d68	0.061643034
135	0x3de46ac0	0.111531734
136	0xbd444120	-0.04791367
137	0x3ccbd2f8	0.024880871
138	0x3d9bb906	0.0760365
139	0x3df39db4	0.11895314
140	0x3dffc2ec	0.1248835
141	0x3c990c50	0.018682629
142	0x3d8a3402	0.06748201
143	0x3dac8ad8	0.0842492
144	0xbc8cce98	-0.017188355
145	0x3cbdc9f0	0.02316758
146	0xbc962b28	-0.018331125
147	0x3d383070	0.04496807
148	0xbcddb8e0	-0.027065694
149	0x3c955498	0.018228814
150	0x3d799690	0.060934603
151	0xbceb4648	-0.028720036
152	0x3d8f4cf8	0.069971025
153	0xbd9511a6	-0.07278757
154	0x3d86ebf6	0.06587975
155	0x3a6ddb00	0.0009073466
156	0xbd4ea410	-0.05044943
157	0xbba1f640	-0.0049426854
158	0xbd66c420	-0.056339383
159	0x3dd7ec18	0.10543078
160	0x3dbc4780	0.09193325
161	0xbb91a860	-0.0044451207
162	0xbc458aa0	-0.012056977
163	0x3d08af84	0.03337051
164	0xbd052048	-0.03250149
165	0x3d3a5000	0.04548645
166	0xbd0dc8ec	-0.034615442
167	0x3ddd0a64	0.107929975
168	0x3da741f0	0.081668735
169	0x3d1ef2f0	0.038805902
170	0xbd9ce23a	-0.07660337
171	0x3d5259e8	0.051355273
172	0xbdd907d4	-0.10597196
173	0x3d34c520	0.044133306
174	0x3d2017ec	0.039085314
175	0x3daaf06a	0.083466366
176	0xbc9aee00	-0.018912315
177	0x3dcb3a6c	0.099232525
178	0x3df58ef8	0.1199016
179	0x3cd80b18	0.026372477
180	0xbcd4c390	-0.025972158
181	0xbd607e28	-0.054807812
182	0x3dd7ef8c	0.10543737
183	0xbd0d18a8	-0.034447342
184	0x3d9f7e48	0.07787758
185	0xbb3f6dc0	-0.0029209703
186	0xbc44adb0	-0.012004301
187	0x3de69cf2	0.11260404
188	0x3c3c20e0	0.011482447
189	0x3d998eda	0.0749795
190	0xbd85bf08	-0.06530577
191	0xbd31710c	-0.0433207
192	0xbbbdce00	-0.0057923794
193	0x3dcb2058	0.099182785
194	0x3dc9d2ba	0.09854646
195	0xbd883048	-0.06649834
196	0x3d3d8208	0.046266586
197	0x3de5c542	0.112192646
198	0x3c8632f0	0.01638171
199	0x3c9fee98	0.01952295
200	0xbdfcdd60	-0.123469114
201	0xbdf2cf84	-0.11855987
202	0x3dff38a4	0.12461975
203	0xbd85e30c	-0.065374464
204	0xbd3f904c	-0.04676847
205	0x3dd5c68a	0.10438259
206	0xbd3c58e8	-0.045983225
207	0x3ca932c8	0.020654097
208	0x36fc0000	7.5101852e-06
209	0x3bc65420	0.006052509
210	0xbdb4341c	-0.087990016
211	0xbd072110	-0.032990515
212	0xbd8b5fd6	-0.06805389
213	0xbb098cc0	-0.0020988435
214	0x3dbedc8a	0.09319408
215	0x3c244120	0.010025293
216	0x3d9f1ea6	0.077695176
217	0xbc0f6a80	-0.008753419
218	0xbc4f6890	-0.012659207
219	0x3d65424c	0.05597143
220	0xbdb83c14	-0.08995834
221	0xbd27eb3c	-0.04099582
222	0xbcd5c810	-0.026096374
223	0x3d4dcf54	0.05024655
224	0xbbfdf640	-0.0077503026
225	0xbc1ac340	-0.009445965
226	0xbd95b458	-0.073097885
227	0x3cefb050	0.029258877
228	0x3c4502b0	0.0120245665
229	0xbdb6a8fa	-0.089189485
230	0x3df06c46	0.117394015
231	0xbdd6c2d8	-0.10486382
232	0x3ca1c248	0.01974596
233	0xbd874c08	-0.06606299
234	0xbd82cb08	-0.063863814
235	0xbd51f198	-0.051255792
236	0x3df1a82a	0.11799653
237	0xbd607f7c	-0.05480908
238	0x3da4e1e6	0.08050899
239	0x3c4b0f50	0.0123937875
240	0x3ce40748	0.027835503
241	0x3d270370	0.040774763
242	0xbd3facb0	-0.046795547
243	0x3d156320	0.036471486
244	0xbcc76308	-0.024339214
245	0xbdd2f3b2	-0.103003874
246	0x3da2a154	0.07940927
247	0xbd9c8470	-0.07642448
248	0x3cd9eda8	0.026602581
249	0xbb8210a0	-0.003969267
250	0xbd340964	-0.043954268
251	0xbde956b6	-0.11393492
252	0xbdf22d4c	-0.11825046
253	0xbd89d772	-0.06730546
254	0xbd3f4760	-0.046698928
255	0x3dfdeaf8	0.12398332

net.2.bias f4 [64]
0	0x3d4a8d1c	0.04945098
1	0xbce25c40	-0.027631879
2	0x3dee6e62	0.116421476
3	0x3db7b8fe	0.08970831
4	0xbdc2b782	-0.095076576
5	0x3df32dc6	0.11873965
6	0x3de9436a	0.11389811
7	0xbcdc6fa8	-0.02690871
8	0x3de2f90a	0.11082657
9	0xbd6b1acc	-0.057398602
10	0xbdbba7b8	-0.09162849
11	0x3d86544c	0.06559047
12	0x3d92d260	0.07169032
13	0x3b9a9880	0.0047178864
14	0xbdb2ba04	-0.08726886
15	0xbcba0c60	-0.022710979
16	0x3dbbe8ec	0.09175286
17	0xbdd97296	-0.10617559
18	0x3d9120ae	0.07086311
19	0x3c0f5ef0	0.008750662
20	0xbc9aea78	-0.018910632
21	0x3d39c080	0.045349598
22	0x3d95ae0e	0.07308589
23	0x3d2a94e8	0.041645914
24	0x3d7a3250	0.061083138
25	0x3d9e7516	0.07737176
26	0x3d09f06c	0.03367655
27	0xbd4fe910	-0.050759375
28	0x3df4d844	0.11955312
29	0x3da871fe	0.08224867
30	0xbdb4a0b0	-0.08819711
31	0xbde1ceb2	-0.11025752
32	0xbdef44a8	-0.11683017
33	0xbb742200	-0.003725171
34	0x3d38463c	0.044988856
35	0xbd883818	-0.06651324
36	0x3de63222	0.11240031
37	0xbd205ef4	-0.039153054
38	0xbca99d38	-0.02070485
39	0xbdc97644	-0.098370105
40	0x3d817dfe	0.06322859
41	0xbcdcdae8	-0.026959851
42	0x3dcc1d86	0.09966569
43	0xbcc02080	-0.023452997
44	0x3de2f530	0.11081922
45	0x3bf78860	0.007554099
46	0xbd2a0368	-0.041507155
47	0x3bf023c0	0.0073284805
48	0x3dfcd632	0.12345542
49	0xbd44a108	-0.048005134
50	0xbd1c56b0	-0.03816861
51	0xbd795af8	-0.06087777
52	0x3c8752a0	0.01651889
53	0x3d436dd8	0.047712177
54	0x3d8a485e	0.06752084
55	0xbd9fbad8	-0.077993095
56	0xbb8d4d20	-0.0043121725
57	0x3df2fb3c	0.118643254
58	0xbc28acd0	-0.010295108
59	0xbdb51546	-0.08841948
60	0xbda13366	-0.078711316
61	0xbd60d76c	-0.054892942
62	0xbbc4bd00	-0.006003976
63	0xbd2167f0	-0.039405763

net.4.weight f4 [6, 64]
0	0xbcea2d70	-0.02858612
1	0x3d58d5d0	0.052938282
2	0xbd829f0a	-0.063779905
3	0xbde8a5b2	-0.11359729
4	0xbdd99e56	-0.10625903
5	0xbd635b14	-0.05550678
6	0xbcfc5708	-0.030803218
7	0xbd4a81b4	-0.0494401
8	0xbb032780	-0.0020012558
9	0xbd813b42	-0.06310131
10	0xbd9c45ba	-0.07630487
11	0x3d173c24	0.03692259
12	0xbdee571a	-0.11637707
13	0xbde50994	-0.111834675
14	0xbca25ec8	-0.019820586
15	0x3dd5373e	0.10410927
16	0xbdaaa56c	-0.08332333
17	0xbdedb148	-0.11606079
18	0xbdbcede4	-0.092250615
19	0xbd257d1c	-0.040402517
20	0xbdfda6ee	-0.12385355
21	0x3d2aeae8	0.04172793
22	0xbd62ebb4	-0.055400565
23	0xbc5fbd40	-0.013655961
24	0x3cf679b0	0.030087322
25	0xbcf537f8	-0.029933915
26	0x3d0d4154	0.03448613
27	0xbdb32970	-0.08748138
28	0x3c874718	0.016513392
29	0xbd445808	-0.047935516
30	0xbd5e5a44	-0.054285303
31	0xbdd3321c	-0.10312292
32	0xbb173300	-0.002307117
33	0x3c5dc050	0.01353462
34	0x3dff67d6	0.12470977
35	0xbd89a832	-0.06721534
36	0xbda7f370	-0.08200729
37	0x3d8f4b5a	0.06996794
38	0x3c7974a0	0.0152255595
39	0xbd983e5a	-0.074337676
40	0xbdb9cc38	-0.09072155
41	0x3d8234fc	0.06357762
42	0x3d09e290	0.033663332
43	0x3d373450	0.044727623
44	0xbab6e880	-0.0013954788
45	0xbc2f3110	-0.01069285
46	0x3c890968	0.016728118
47	0xbdf83c4a	-0.12120874
48	0x3d124198	0.035707086
49	0x3dcf6970	0.101275325
50	0x3ddf0fc0	0.10891676
51	0x3d9195f2	0.07108678
52	0xbd7c10fc	-0.061539635
53	0xbda18330	-0.0788635
54	0x3dfdd538	0.12394184
55	0x3d3f8cc4	0.046765104
56	0x3d17e1bc	0.03708051
57	0x3da73db0	0.08166063
58	0x3d87e78a	0.066359594
59	0x3d8e10e6	0.06936817
60	0xbdf0737a	-0.117407754
61	0xbd77da74	-0.060511068
62	0x3dec7eb6	0.11547606
63	0xbdece728	-0.11567527
64	0x3d8b31c8	0.067966044
65	0xbd753e74	-0.059874013
66	0xbdd9d46a	-0.10636218
67	0xbde2943a	-0.11063428
68	0xbd9dcac8	-0.07704693
69	0xbd3dc4b8	-0.046330184
70	0xbd1eaf50	-0.03874141
71	0x3dae268a	0.085034445
72	0x3da5c49e	0.080941424
73	0xbdd10b2e	-0.102072105
74	0xbceb5588	-0.028727308
75	0x3b4f21c0	0.003160581
76	0x3d69e69c	0.057104692
77	0xbd24a3a4	-0.040195122
78	0xbb97b8c0	-0.004630178
79	0xbc6ef8f0	-0.0145857185
80	0x3d96844a	0.07349451
81	0x3d1e0298	0.038576692
82	0x3df07e7e	0.117428765
83	0x3dc03286	0.093846366
84	0xbdd1677c	-0.10224816
85	0x3d97942c	0.074013084
86	0xbd598b0c	-0.05311112
87	0x3d19bd78	0.037534207
88	0xbced1780	-0.02894187
89	0x3de99ec0	0.11407232
90	0xbd065e90	-0.032805026
91	0xbd5d4dcc	-0.05402927
92	0x3d8e5900	0.06950569
93	0xbc6005b0	-0.013673231
94	0xbd0d7d4c	-0.03454332
95	0xbdd3ee74	-0.10348216
96	0x3d0d46f8	0.03449151
97	0xbd35396c	-0.044244215
98	0xbd6d80e0	-0.057984233
99	0x3d8b2a3c	0.06795165
100	0x3cebcff8	0.02878569
101	0xbdc98f6e	-0.0984181
102	0xba028600	-0.0004979074
103	0xbbd06680	-0.006359875
104	0x3de5cd3e	0.112207875
105	0xbd14c8f4	-0.036324456
106	0x3d8fe31c	0.070257396
107	0x3ceb8a70	0.028752536
108	0x3c241080	0.0100136995
109	0x3db5d7b2	0.08879031
110	0x3d86e44a	0.065865114
111	0x3c222f00	0.009898901
112	0x3c83bad0	0.01608029
113	0xbdb975ca	-0.090556696
114	0xbda692c4	-0.08133462
115	0xbbf22de0	-0.0073907226
116	0xbd264aac	-0.040598556
117	0xbd9c9554	-0.076456696
118	0x3d2dbbec	0.042415544
119	0x3c4f14f0	0.012639269
120	0x3d9ed036	0.07754557
121	0xbdfdbf28	-0.12389976
122	0x3da9df56	0.08294551
123	0xbd9f4904	-0.077775985
124	0xbdb5964e	-0.08866559
125	0x3d7e0804	0.062019363
126	0xbd6737bc	-0.056449637
127	0xbde95748	-0.11393601
128	0xbd3377f8	-0.043815583
129	0x3da4693c	0.08027884
130	0x3dde6a00	0.10860062
131	0x3d6f694c	0.05845003
132	0xbdba5466	-0.09098129
133	0x3cf7a4e0	0.030229986
134	0x3d5226bc	0.05130647
135	0x3d154278	0.036440343
136	0x3de4c43c	0.11170241
137	0x3dab8210	0.08374417
138	0x3d4a0954	0.049325302
139	0xbc1b03b0	-0.009461328
140	0x3d4aacec	0.049481317
141	0xbdb11c32	-0.08647956
142	0xbdf7c1a4	-0.12097481
143	0x3d16fe5c	0.03686367
144	0x3d9c7848	0.07640129
145	0x3d337b50	0.04381877
146	0x3de29eee	0.1106547
147	0xbc0e1570	-0.008672103
148	0xbdd0b7fc	-0.10191342
149	0xbd9c69aa	-0.07637341
150	0x3d113da0	0.03545916
151	0xbde0997c	-0.10966775
152	0x3c9fb820	0.019496977
153	0x3c9a7390	0.018853933
154	0x3d2b9c0c	0.041896865
155	0xbd17be08	-0.037046462
156	0xbcdfd640	-0.027323842
157	0xbdc67d96	-0.09691922
158	0xbde4cd5e	-0.11171983
159	0xbd03306c	-0.0320286
160	0x3d1ddff0	0.03854364
161	0x3d4a247c	0.0493512
162	0xbdb5dc94	-0.088799626
163	0x3d210c04	0.0393181
164	0x3dd985bc	0.10621211
165	0x3cfb42e8	0.030671552
166	0xbdf7ae3e	-0.12093781
167	0xbcbd59f8	-0.02311419
168	0xbd993ed6	-0.07482688
169	0x3db7b442	0.08969928
170	0xbc09edf0	-0.008418545
171	0xbd0add74	-0.0339026
172	0x3d5baac4	0.05362965
173	0x3cb31158	0.021858856
174	0xbd984430	-0.07434881
175	0xbc29d8e0	-0.010366648
176	0xba1c9e00	-0.00059744716
177	0xbdc04554	-0.09388223
178	0x3b2a2440	0.0025961548
179	0xbd43dab4	-0.047815993
180	0x3d9d428c	0.076787084
181	0xbbca4680	-0.006172955
182	0x3cf2dda0	0.029646695
183	0x3da618a8	0.081101716
184	0xbcce9f80	-0.02522254
185	0x3cc52fb8	0.024070606
186	0xbdb88b06	-0.090108916
187	0xbc92cfe8	-0.017921403
188	0xbdc8b2a4	-0.09799698
189	0xbd972038	-0.07379192
190	0xbcad5108	-0.021156803
191	0xbd5f4bd8	-0.05451569
192	0x3db7a6ce	0.08967362
193	0x3d57f38c	0.0527225
194	0xbdee88a4	-0.11647156
195	0xbda848e4	-0.08217028
196	0x3d5161ec	0.051118776
197	0xbd8a3b38	-0.06749576
198	0x3be1b040	0.0068874657
199	0xbc188810	-0.009309784
200	0xbd0a51c8	-0.0337694
201	0xbd140408	-0.036136657
202	0x3dac14bc	0.08402392
203	0x3dfcfbec	0.12352738
204	0x3df8f630	0.121563315
205	0xbda94af8	-0.08266252
206	0xbd788254	-0.060671166
207	0xbdf12364	-0.11774328
208	0x3c32d6b0	0.010915443
209	0x3d67c1a0	0.05658114
210	0xbdb526f0	-0.08845317
211	0xbdf70844	-0.120621234
212	0xbd8518a2	-0.06498839
213	0xbdc27726	-0.09495382
214	0xbd403bb0	-0.046931922
215	0xbdd5a312	-0.10431494
216	0xbddf0a82	-0.10890676
217	0xbd6fcc2c	-0.058544323
218	0x3dc532fc	0.09628865
219	0xbcd9f878	-0.026607737
220	0x3d4a19f0	0.049341142
221	0x3d93a9fe	0.07210158
222	0x3dbe345e	0.09287332
223	0xbd81c5e2	-0.06336571
224	0x3d0f014c	0.034913346
225	0x3c901a70	0.017590731
226	0xbdf343a8	-0.11878139
227	0xbc864440	-0.016389966
228	0xbb883040	-0.0041561425
229	0x3dfaf9ec	0.122547
230	0x3d084954	0.033273056
231	0xbd150a30	-0.03638667
232	0xbdca53ee	-0.098792896
233	0xbdb037a4	-0.086043626
234	0x3a608a00	0.00085654855
235	0xbc494680	-0.012284875
236	0x3dfb6c20	0.122764826
237	0x3bd38980	0.0064556003
238	0x3cd47510	0.025934726
239	0xbca75ec0	-0.020430923
240	0x3dcef8ea	0.1010607
241	0xbc3fdc50	-0.011710241
242	0xbd885e08	-0.0665856
243	0x3cf56488	0.029955164
244	0x3dda180a	0.10649116
245	0xbd841e7e	-0.064511284
246	0x3c1f1430	0.009709403
247	0xbda82c4e	-0.082115754
248	0xbc2aa9a0	-0.010416418
249	0x3d9fac70	0.07796562
250	0xbc248560	-0.010041565
251	0x3d8ad136	0.06778185
252	0xbd50de30	-0.050993145
253	0x3cc53f40	0.024078012
254	0x3def4b78	0.116843164
255	0x3db39806	0.087692305

net.4.bias f4 [6]
0	0xbdaefc1c	-0.0854418
1	0x3ddd4372	0.1080388
2	0xbd2beb28	-0.04197231
3	0xbddb0d8e	-0.10695945
4	0x3da35df2	0.07976903
5	0xbd447b64	-0.047969237

net.0.weight f4 [64, 16]
0	0x3ddf592c	0.1090568
1	0xbe16ee9a	-0.14739457
2	0x3cd10ca0	0.025518715
3	0xbddb0a0c	-0.10695276
4	0xbbd12640	-0.0063827336
5	0xbcd304f0	-0.02575919
6	0xbda02648	-0.078198016
7	0x3cb80910	0.022465259
8	0xbe4e744a	-0.20161548
9	0xbe04b156	-0.12958273
10	0x3d090468	0.033451468
11	0x3e3e6404	0.1859284
12	0xbe24bf3a	-0.16088572
13	0x3e540cba	0.2070798
14	0x3def1d68	0.11675531
15	0x3d92ec14	0.071739346
16	0x3e48d05c	0.19610733
17	0x3d3bcd00	0.0458498
18	0xbce8a2b0	-0.028397888
19	0xbcead9d0	-0.028668314
20	0xbe68b6ae	-0.22725937
21	0x3d658080	0.05603075
22	0x3b91c400	0.004448414
23	0xbdecb8f0	-0.115587115
24	0xbcdc4b60	-0.02689141
25	0x3d6cc118	0.057801336
26	0xbc054760	-0.008134693
27	0xbd355c80	-0.044277668
28	0xbd80a62c	-0.06281695
29	0xbc852130	-0.016251177
30	0xbe6490ea	-0.22320905
31	0x3e3fb17a	0.18720046
32	0x3d7832b0	0.060595214
33	0x3daf7bf8	0.08568567
34	0xbdff0174	-0.12451449
35	0x3e2ae532	0.16688994
36	0x3dee72b4	0.11642972
37	0xbe70209c	-0.2344994
38	0xbd40aa70	-0.047037542
39	0xbcebca30	-0.028782934
40	0x3e40c46c	0.18824929
41	0xbda2d26c	-0.07950291
42	0x3e6bd436	0.23030171
43	0x3cad60c0	0.021164298
44	0x3e7a29ae	0.24429962
45	0x3dda4f0c	0.10659608
46	0xbe39d7ba	-0.181487
47	0x3dd76354	0.10516992
48	0x3da3a9fc	0.07991406
49	0x3e603d9e	0.21898505
50	0xbbd2ddc0	-0.006435126
51	0xbd80ed98	-0.062953174
52	0x3d80c310	0.06287205
53	0x3e11038a	0.14161506
54	0xbd45c3c8	-0.048282415
55	0xbe0df5f2	-0.13863352
56	0xbe0784ba	-0.13234225
57	0x3e75d860	0.24008322
58	0x3d545e40	0.051847696
59	0xbe38bda8	-0.18041098
60	0xbe1c7f3e	-0.15282914
61	0xbd88b97c	-0.06676003
62	0x3e6cb7b0	0.23116946
63	0xbd9d1240	-0.076694965
64	0xbbe04f00	-0.006845355
65	0x3e4d13ea	0.20027128
66	0xbd0fd090	-0.03511101
67	0x3e57e2f0	0.21082664
68	0xbe246d38	-0.16057289
69	0x3df59480	0.11991215
70	0x3cf2a500	0.029619694
71	0xbe3b3cc0	-0.18284893
72	0x3dc12024	0.094299585
73	0xbe249c38	-0.16075218
74	0x3e4d4c6e	0.20048687
75	0xbe4ac776	-0.19802651
76	0xbe36caf8	-0.17850864
77	0xbdcb9d78	-0.09942144
78	0x3e610664	0.21975094
79	0xbdd3e7c4	-0.1034694
80	0x3e23190c	0.15927523
81	0x3e1d87ec	0.15383881
82	0xbd825830	-0.06364477
83	0xbdfdc0e0	-0.123903036
84	0xbcd24f50	-0.025672585
85	0xbe656b2e	-0.22404167
86	0xbe4e39aa	-0.20139185
87	0x3dfc55f8	0.12321085
88	0x3df0007c	0.117188424
89	0xbe4cafd6	-0.19988951
90	0x3e0af94e	0.13571665
91	0x3dc41744	0.0957475
92	0x3d8c1864	0.0684059
93	0x3e3106d2	0.17287758
94	0xbe3e3124	-0.18573433
95	0x3db138e0	0.08653426
96	0xbe7c1144	-0.24615961
97	0xbe66c506	-0.22536096
98	0xbdf61b20	-0.120168924
99	0xbd5dba90	-0.054132998
100	0xbe3f42d0	-0.1867783
101	0xbd6183c8	-0.055057317
102	0xbc238320	-0.009979993
103	0xbd6d72f8	-0.05797097
104	0xbcb5f6b0	-0.022212356
105	0x3dfa4cc8	0.12221676
106	0x3e5b78a6	0.21432742
107	0x3e09d13c	0.13458723
108	0xbe5e1c8e	-0.2169058
109	0x3e2af83e	0.1669626
110	0xbd49d410	-0.049274504
111	0x3e2fa242	0.1715174
112	0x3d919800	0.0710907
113	0x3e0f62fa	0.140026
114	0xbe0e3cb6	-0.13890347
115	0xbd6821e8	-0.05667296
116	0x3db3595c	0.08757278
117	0x3e7e8ab4	0.24857599
118	0x3e4078fa	0.18796149
119	0x3e60df6a	0.21960226
120	0x3e0529d8	0.13004243
121	0x3e6db96a	0.23215261
122	0x3d31ce98	0.043409914
123	0xbe508608	-0.20363629
124	0xbdb5ec0c	-0.08882913
125	0x3e00bd38	0.12572181
126	0x3e568e04	0.20952612
127	0x3dc9f264	0.098606855
128	0x3e1befe6	0.15228233
129	0x3b87c0c0	0.0041428506
130	0x3d92c248	0.071659625
131	0x3e64bb5e	0.223371
132	0xbe1b1430	-0.1514442
133	0xbdc165e0	-0.09443259
134	0xbdf6b664	-0.12046507
135	0x3e1d3556	0.15352377
136	0x3d663358	0.05620131
137	0x3e5503ca	0.20802227
138	0x3da9c688	0.0828982
139	0xbe614c96	-0.22001871
140	0x3c6c9fc0	0.014442384
141	0x3e0231ae	0.12714264
142	0x3e5c3d70	0.21507812
143	0xbcd5bb60	-0.026090324
144	0xbe4da28e	-0.20081541
145	0xbd7b3160	-0.061326385
146	0x3da2e8a0	0.07954526
147	0x3c5a4400	0.0133218765
148	0xbe22e5ba	-0.15907946
149	0x3e753838	0.23947227
150	0xbe273d78	-0.16332042
151	0x3d897bb0	0.06713045
152	0xbe359cae	-0.1773555
153	0xbe4be134	-0.19910127
154	0x3dbe18cc	0.092820734
155	0x3dffd1f8	0.1249122
156	0x3d1a21f0	0.03763002
157	0xbe165fa2	-0.14684919
158	0xbd40f158	-0.047105163
159	0x3e4cfd8e	0.20018598
160	0x3e22da5e	0.15903613
161	0xbdad5ff4	-0.08465567
162	0xbe6a65d2	-0.22890404
163	0xbca4b160	-0.02010411
164	0x3c348160	0.0110171735
165	0xbe3aa8fe	-0.18228528
166	0x3a9a4a00	0.0011771321
167	0x3dac8278	0.084233224
168	0xbd0ebcd0	-0.034848034
169	0x3e0676c6	0.13131246
170	0x3e4c472a	0.19949022
171	0xbd8333dc	-0.06406376
172	0x3e633bb0	0.22190738
173	0xbe6e213e	-0.23254868
174	0xbd3ba2a0	-0.04580939
175	0xbe072df6	-0.13201126
176	0x3e5ad3d8	0.21369874
177	0xbd8feaec	-0.0702723
178	0xbcc72af0	-0.024312466
179	0x3e51b200	0.20478058
180	0x3e46ea36	0.19425282
181	0xbdf4062c	-0.1191524
182	0xbe7abd68	-0.24486315
183	0xbd323b90	-0.043513834
184	0xbda4b2cc	-0.08041915
185	0xbdc852bc	-0.09781405
186	0xbe541d78	-0.20714366
187	0x3e6d877c	0.23196214
188	0x3e2b225c	0.16712326
189	0x3e073d44	0.13206965
190	0x3dc205fc	0.09473798
191	0xbe414974	-0.18875676
192	0xbb98a280	-0.0046580434
193	0x3e149158	0.14508569
194	0x3e2e3650	0.17012906
195	0x3e421188	0.18952
196	0xbe1316e0	-0.14364195
197	0x3ddc6d54	0.1076304
198	0xbe108e16	-0.14116701
199	0x3d98286c	0.07429585
200	0x3d604880	0.05475664
201	0xbe172d4e	-0.14763376
202	0xbdfa9adc	-0.12236568
203	0x3d8d71a8	0.06906444
204	0xbe7cca88	-0.24686635
205	0x3d0aed10	0.033917487
206	0xbd69ee28	-0.05711189
207	0x3e3be11a	0.18347588
208	0xbe49b3aa	-0.19697443
209	0x3e3a8050	0.1821301
210	0x3cf9a0a0	0.0304721
211	0xbd455850	-0.048179924
212	0x3d8bb280	0.068211555
213	0xbd2050d0	-0.03913957
214	0x3e31507c	0.17315859
215	0x3da4f340	0.08054209
216	0x3e458cca	0.19291988
217	0xbe79235e	-0.24329898
218	0x3d97615c	0.07391617
219	0xbb37dc00	-0.0028054714
220	0xbe3f34e2	-0.18672517
221	0x3e3f86cc	0.18703765
222	0xbda505a4	-0.080577165
223	0x3cb189d0	0.02167216
224	0x3ddd08e8	0.10792714
225	0xbc5a61e0	-0.013328999
226	0x3d9dea80	0.07710743
227	0xbcef39d0	-0.029202372
228	0xbe5dcf02	-0.21660998
229	0x3e6ce0f6	0.23132691
230	0x3e3a0ef4	0.18169767
231	0xbd561d78	-0.052274197
232	0xbdc6a08c	-0.09698591
233	0xbdaf83bc	-0.08570048
234	0x3e25557c	0.16145891
235	0xbd56f8a0	-0.0524832
236	0xbe5a36fe	-0.2131004
237	0xbde72a18	-0.112873256
238	0x3d3d6f08	0.046248466
239	0x3e04753e	0.1293535
240	0x3e6beff2	0.2304075
241	0x3d70d820	0.058799863
242	0xbddf5348	-0.109045565
243	0xbdb55b74	-0.08855334
244	0xbd96ba2c	-0.07359728
245	0xbe7e0792	-0.24807575
246	0xbd0c5ec0	-0.03427005
247	0x3d99c520	0.07508302
248	0xbd14a228	-0.036287457
249	0xbc8d6350	-0.01725927
250	0xbe45933e	-0.1929445
251	0x3e231dc4	0.15929323
252	0x3df2ec80	0.11861515
253	0xbe5d701e	-0.216248
254	0xbe31b050	-0.17352414
255	0xbcb18720	-0.021670878

net.0.bias f4 [64]
0	0xbe739c26	-0.23790035
1	0x389da000	7.516146e-05
2	0xbd0f7870	-0.035026968
3	0x3e74d676	0.23909935
4	0xbe13ca54	-0.14432651
5	0x3e2f18ae	0.17099258
6	0x3d7258a8	0.05916658
7	0xbe540bd6	-0.2070764
8	0xbc34a9c0	-0.0110268
9	0x3e3ddc30	0.18541026
10	0x3e5e68b4	0.21719629
11	0x3ccf2060	0.025283992
12	0xbe7c67aa	-0.2464892
13	0x3e37fa18	0.17966497
14	0x3de0d764	0.109785825
15	0x3e69787a	0.22799864
16	0xbe7e45e2	-0.24831346
17	0x3d468548	0.04846695
18	0x3e79554a	0.24348941
19	0xbe71c83e	-0.23611543
20	0xbe73cc14	-0.23808318
21	0x3de975dc	0.11399433
22	0xbe6db820	-0.2321477
23	0xbd5a41f0	-0.05328554
24	0x3db8bffc	0.09020993
25	0xbb939080	-0.0045033097
26	0x3e726156	0.23669943
27	0x3e190954	0.14944965
28	0x3d95c5e0	0.07313132
29	0x3d36bd18	0.044613928
30	0x3d34c130	0.04412955
31	0xbe6f449c	-0.23366016
32	0x3e7e4aa4	0.2483316
33	0x3c7d2c20	0.015452415
34	0xbde79b28	-0.113088906
35	0xbe312bee	-0.17301914
36	0x3e0197f8	0.12655628
37	0xbdf7dd2c	-0.12102732
38	0x3e4955cc	0.19661635
39	0xbd00b108	-0.03141883
40	0xbe749208	-0.23883832
41	0x3df41690	0.11918366
42	0x3d57e178	0.052705258
43	0xbc809d40	-0.015699983
44	0xbdb8e6dc	-0.09028408
45	0x3dc1318c	0.094332784
46	0x3dbea584	0.09308913
47	0xbd4946a0	-0.04913962
48	0xbd80637c	-0.06268975
49	0x3e3b7986	0.18308076
50	0xbe74bdd0	-0.23900533
51	0x3e231e7a	0.15929595
52	0xbce5aa80	-0.028035402
53	0xbe2a1796	-0.1661056
54	0xbe70e370	-0.2352426
55	0x3daaa044	0.083313495
56	0xbdd31ca0	-0.10308194
57	0xbe60238c	-0.2188856
58	0xbe34d130	-0.17657924
59	0xbd324f78	-0.04353282
60	0x3e15f968	0.14645922
61	0x3e53eb02	0.20695117
62	0x3da43014	0.08016983
63	0xbe5709de	-0.20999858

net.2.weight f4 [64, 64]
0	0xbd0c94e0	-0.034321666
1	0xbd58ee8c	-0.05296187
2	0x3dd65760	0.10465884
3	0xbdeed9ba	-0.11662622
4	0xbdefb8ea	-0.117051914
5	0xbd0c0118	-0.03418073
6	0xbdb5d4bc	-0.088784665
7	0xbcae1508	-0.021250263
8	0xbcf5a810	-0.029987365
9	0x3c103de0	0.008803815
10	0x3de6a53c	0.11261985
11	0x3d3acbd8	0.045604557
12	0x3c602d90	0.013682738
13	0x3df7b834	0.12095681
14	0xbdc44b9a	-0.09584732
15	0x3d950ba4	0.07277611
16	0x3a696200	0.0008902848
17	0xbdeafc76	-0.11473934
18	0x3dc73b84	0.097281486
19	0x3d91e340	0.071234226
20	0xbd167898	-0.0367361
21	0xbc23d610	-0.009999767
22	0xbdc695ba	-0.09696527
23	0xbdb77050	-0.08956969
24	0x3dc70f16	0.09719674
25	0x3dbf948e	0.093545064
26	0x3cd13700	0.025538921
27	0xbde05d1c	-0.10955259
28	0x3dc775f0	0.09739292
29	0xbba95400	-0.0051674843
30	0xbdeec2c6	-0.11658244
31	0x3d1e3f48	0.03863457
32	0xbdd04f16	-0.101713344
33	0xbd80b632	-0.06284751
34	0xbd143f40	-0.036193132
35	0x3dc6a304	0.096990615
36	0xbb5d0540	-0.0033725053
37	0x3db55048	0.08853203
38	0xbdbe221a	-0.09283848
39	0x3c0a92b0	0.008457825
40	0xbd6ac334	-0.057315066
41	0x3bf80940	0.007569462
42	0x3df35432	0.11881293
43	0xbd5a46d0	-0.05329019
44	0xbdbc0176	-0.09179966
45	0xbce97740	-0.028499246
46	0xbdd2646c	-0.1027306
47	0xbbbc6dc0	-0.005750388
48	0x3d9ea34c	0.0774599
49	0xbd5b14a0	-0.053486466
50	0xbdf9b702	-0.12193109
51	0x3deae594	0.1146957
52	0xbdc097f2	-0.09403981
53	0x3c413860	0.011793226
54	0x3c84ca68	0.016209796
55	0xbd1062e8	-0.035250574
56	0xbdf981ba	-0.121829465
57	0x3d0f2388	0.034945995
58	0xbda15c78	-0.07878965
59	0xbdba5eaa	-0.09100087
60	0x3ca8bb60	0.02059716
61	0xbd335b98	-0.043788522
62	0x3d864246	0.065556094
63	0xbdaf6896	-0.0856487
64	0x3dd53f00	0.10412407
65	0x3cf9bb08	0.030484691
66	0xbdcba656	-0.099438354
67	0xbda64cfa	-0.08120151
68	0x3cb19a40	0.021679997
69	0xbd1cd1c4	-0.038285986
70	0x3c021600	0.0079398155
71	0xbdddcba0	-0.10829854
72	0x3d8bda12	0.06828703
73	0xbd020944	-0.031747118
74	0xbc15e680	-0.009149194
75	0xbd998e44	-0.07497838
76	0xbd596740	-0.053076982
77	0xbd480268	-0.04883042
78	0x3d4a3e5c	0.049375877
79	0x3d35f730	0.04442519
80	0xbdf6da0e	-0.120533094
81	0x3d8f94ae	0.0701078
82	0x3d1b155c	0.037862167
83	0x3c848998	0.016178891
84	0xbd52c3ac	-0.05145614
85	0x3d92961a	0.07157536
86	0xbd73e714	-0.059546545
87	0x3cc46e70	0.023978442
88	0xbcdb5268	-0.026772693
89	0xbd117fd4	-0.035522297
90	0xbdbfb472	-0.09360589
91	0xbc3ab070	-0.011394605
92	0xbd15a0d0	-0.036530316
93	0xbdd920ba	-0.10601945
94	0x3df41eae	0.11919914
95	0xbb43b080	-0.002985984
96	0xbdca5f9c	-0.09881517
97	0x3d893c70	0.06700981
98	0xbd987d7a	-0.07445808
99	0xbddc877a	-0.107680276
100	0x3d35ddf0	0.04440111
101	0xbaa2fc80	-0.001243487
102	0xbdb76676	-0.0895509
103	0x3d530794	0.0515209
104	0xbd0a64c0	-0.03378749
105	0x3b37f400	0.002806902
106	0xbdd71746	-0.10502486
107	0x3dae4d0e	0.08510791
108	0xbc87ac00	-0.016561508
109	0xbd425fdc	-0.0474547
110	0xbd888954	-0.06666818
111	0xbc829bc0	-0.015943408
112	0xbceb3c60	-0.028715312
113	0xbd8766ea	-0.06611426
114	0x3c0d80a0	0.008636624
115	0x3d23e974	0.04001756
116	0x3da5cb90	0.08095467
117	0xbdd24486	-0.10266976
118	0xbdec687c	-0.11543366
119	0x3de408ac	0.111344665
120	0xbd2674bc	-0.04063867
121	0xbd3c9f98	-0.046050638
122	0xbdabf126	-0.08395605
123	0x3d8f744e	0.07004605
124	0xbd421834	-0.047386363
125	0x3de5b4e6	0.11216144
126	0x3d81d3d8	0.06339234
127	0xbd8f34de	-0.069925055
128	0xbd54e668	-0.051977545
129	0xbb262580	-0.0025351942
130	0xbd757634	-0.05992718
131	0x3d8f39ec	0.069934696
132	0x3d8147fa	0.063125566
133	0xbdad2dd8	-0.084560096
134	0x3d7c7d68	0.061643034
135	0x3de46ac0	0.111531734
136	0xbd444120	-0.04791367
137	0x3ccbd2f8	0.024880871
138	0x3d9bb906	0.0760365
139	0x3df39db4	0.11895314
140	0x3dffc2ec	0.1248835
141	0x3c990c50	0.018682629
142	0x3d8a3402	0.06748201
143	0x3dac8ad8	0.0842492
144	0xbc8cce98	-0.017188355
145	0x3cbdc9f0	0.02316758
146	0xbc962b28	-0.018331125
147	0x3d383070	0.04496807
148	0xbcddb8e0	-0.027065694
149	0x3c955498	0.018228814
150	0x3d799690	0.060934603
151	0xbceb4648	-0.028720036
152	0x3d8f4cf8	0.069971025
153	0xbd9511a6	-0.07278757
154	0x3d86ebf6	0.06587975
155	0x3a6ddb00	0.0009073466
156	0xbd4ea410	-0.05044943
157	0xbba1f640	-0.0049426854
158	0xbd66c420	-0.056339383
159	0x3dd7ec18	0.10543078
160	0x3dbc4780	0.09193325
161	0xbb91a860	-0.0044451207
162	0xbc458aa0	-0.012056977
163	0x3d08af84	0.03337051
164	0xbd052048	-0.03250149
165	0x3d3a5000	0.04548645
166	0xbd0dc8ec	-0.034615442
167	0x3ddd0a64	0.107929975
168	0x3da741f0	0.081668735
169	0x3d1ef2f0	0.038805902
170	0xbd9ce23a	-0.07660337
171	0x3d5259e8	0.051355273
172	0xbdd907d4	-0.10597196
173	0x3d34c520	0.044133306
174	0x3d2017ec	0.039085314
175	0x3daaf06a	0.083466366
176	0xbc9aee00	-0.018912315
177	0x3dcb3a6c	0.099232525
178	0x3df58ef8	0.1199016
179	0x3cd80b18	0.026372477
180	0xbcd4c390	-0.025972158
181	0xbd607e28	-0.054807812
182	0x3dd7ef8c	0.10543737
183	0xbd0d18a8	-0.034447342
184	0x3d9f7e48	0.07787758
185	0xbb3f6dc0	-0.0029209703
186	0xbc44adb0	-0.012004301
187	0x3de69cf2	0.11260404
188	0x3c3c20e0	0.011482447
189	0x3d998eda	0.0749795
190	0xbd85bf08	-0.06530577
191	0xbd31710c	-0.0433207
192	0xbbbdce00	-0.0057923794
193	0x3dcb2058	0.099182785
194	0x3dc9d2ba	0.09854646
195	0xbd883048	-0.06649834
196	0x3d3d8208	0.046266586
197	0x3de5c542	0.112192646
198	0x3c8632f0	0.01638171
199	0x3c9fee98	0.01952295
200	0xbdfcdd60	-0.123469114
201	0xbdf2cf84	-0.11855987
202	0x3dff38a4	0.12461975
203	0xbd85e30c	-0.065374464
204	0xbd3f904c	-0.04676847
205	0x3dd5c68a	0.10438259
206	0xbd3c58e8	-0.045983225
207	0x3ca932c8	0.020654097
208	0x36fc0000	7.5101852e-06
209	0x3bc65420	0.006052509
210	0xbdb4341c	-0.087990016
211	0xbd072110	-0.032990515
212	0xbd8b5fd6	-0.06805389
213	0xbb098cc0	-0.0020988435
214	0x3dbedc8a	0.09319408
215	0x3c244120	0.010025293
216	0x3d9f1ea6	0.077695176
217	0xbc0f6a80	-0.008753419
218	0xbc4f6890	-0.012659207
219	0x3d65424c	0.05597143
220	0xbdb83c14	-0.08995834
221	0xbd27eb3c	-0.04099582
222	0xbcd5c810	-0.026096374
223	0x3d4dcf54	0.05024655
224	0xbbfdf640	-0.0077503026
225	0xbc1ac340	-0.009445965
226	0xbd95b458	-0.073097885
227	0x3cefb050	0.029258877
228	0x3c4502b0	0.0120245665
229	0xbdb6a8fa	-0.089189485
230	0x3df06c46	0.117394015
231	0xbdd6c2d8	-0.10486382
232	0x3ca1c248	0.01974596
233	0xbd874c08	-0.06606299
234	0xbd82cb08	-0.063863814
235	0xbd51f198	-0.051255792
236	0x3df1a82a	0.11799653
237	0xbd607f7c	-0.05480908
238	0x3da4e1e6	0.08050899
239	0x3c4b0f50	0.0123937875
240	0x3ce40748	0.027835503
241	0x3d270370	0.040774763
242	0xbd3facb0	-0.046795547
243	0x3d156320	0.036471486
244	0xbcc76308	-0.024339214
245	0xbdd2f3b2	-0.103003874
246	0x3da2a154	0.07940927
247	0xbd9c8470	-0.07642448
248	0x3cd9eda8	0.026602581
249	0xbb8210a0	-0.003969267
250	0xbd340964	-0.043954268
251	0xbde956b6	-0.11393492
252	0xbdf22d4c	-0.11825046
253	0xbd89d772	-0.06730546
254	0xbd3f4760	-0.046698928
255	0x3dfdeaf8	0.12398332

net.2.bias f4 [64]
0	0x3d4a8d1c	0.04945098
1	0xbce25c40	-0.027631879
2	0x3dee6e62	0.116421476
3	0x3db7b8fe	0.08970831
4	0xbdc2b782	-0.095076576
5	0x3df32dc6	0.11873965
6	0x3de9436a	0.11389811
7	0xbcdc6fa8	-0.02690871
8	0x3de2f90a	0.11082657
9	0xbd6b1acc	-0.057398602
10	0xbdbba7b8	-0.09162849
11	0x3d86544c	0.06559047
12	0x3d92d260	0.07169032
13	0x3b9a9880	0.0047178864
14	0xbdb2ba04	-0.08726886
15	0xbcba0c60	-0.022710979
16	0x3dbbe8ec	0.09175286
17	0xbdd97296	-0.10617559
18	0x3d9120ae	0.07086311
19	0x3c0f5ef0	0.008750662
20	0xbc9aea78	-0.018910632
21	0x3d39c080	0.045349598
22	0x3d95ae0e	0.07308589
23	0x3d2a94e8	0.041645914
24	0x3d7a3250	0.061083138
25	0x3d9e7516	0.07737176
26	0x3d09f06c	0.03367655
27	0xbd4fe910	-0.050759375
28	0x3df4d844	0.11955312
29	0x3da871fe	0.08224867
30	0xbdb4a0b0	-0.08819711
31	0xbde1ceb2	-0.11025752
32	0xbdef44a8	-0.11683017
33	0xbb742200	-0.003725171
34	0x3d38463c	0.044988856
35	0xbd883818	-0.06651324
36	0x3de63222	0.11240031
37	0xbd205ef4	-0.039153054
38	0xbca99d38	-0.02070485
39	0xbdc97644	-0.098370105
40	0x3d817dfe	0.06322859
41	0xbcdcdae8	-0.026959851
42	0x3dcc1d86	0.09966569
43	0xbcc02080	-0.023452997
44	0x3de2f530	0.11081922
45	0x3bf78860	0.007554099
46	0xbd2a0368	-0.041507155
47	0x3bf023c0	0.0073284805
48	0x3dfcd632	0.12345542
49	0xbd44a108	-0.048005134
50	0xbd1c56b0	-0.03816861
51	0xbd795af8	-0.06087777
52	0x3c8752a0	0.01651889
53	0x3d436dd8	0.047712177
54	0x3d8a485e	0.06752084
55	0xbd9fbad8	-0.077993095
56	0xbb8d4d20	-0.0043121725
57	0x3df2fb3c	0.118643254
58	0xbc28acd0	-0.010295108
59	0xbdb51546	-0.08841948
60	0xbda13366	-0.078711316
61	0xbd60d76c	-0.054892942
62	0xbbc4bd00	-0.006003976
63	0xbd2167f0	-0.039405763

net.4.weight f4 [6, 64]
0	0xbcea2d70	-0.02858612
1	0x3d58d5d0	0.052938282
2	0xbd829f0a	-0.063779905
3	0xbde8a5b2	-0.11359729
4	0xbdd99e56	-0.10625903
5	0xbd635b14	-0.05550678
6	0xbcfc5708	-0.030803218
7	0xbd4a81b4	-0.0494401
8	0xbb032780	-0.0020012558
9	0xbd813b42	-0.06310131
10	0xbd9c45ba	-0.07630487
11	0x3d173c24	0.03692259
12	0xbdee571a	-0.11637707
13	0xbde50994	-0.111834675
14	0xbca25ec8	-0.019820586
15	0x3dd5373e	0.10410927
16	0xbdaaa56c	-0.08332333
17	0xbdedb148	-0.11606079
18	0xbdbcede4	-0.092250615
19	0xbd257d1c	-0.040402517
20	0xbdfda6ee	-0.12385355
21	0x3d2aeae8	0.04172793
22	0xbd62ebb4	-0.055400565
23	0xbc5fbd40	-0.013655961
24	0x3cf679b0	0.030087322
25	0xbcf537f8	-0.029933915
26	0x3d0d4154	0.03448613
27	0xbdb32970	-0.08748138
28	0x3c874718	0.016513392
29	0xbd445808	-0.047935516
30	0xbd5e5a44	-0.054285303
31	0xbdd3321c	-0.10312292
32	0xbb173300	-0.002307117
33	0x3c5dc050	0.01353462
34	0x3dff67d6	0.12470977
35	0xbd89a832	-0.06721534
36	0xbda7f370	-0.08200729
37	0x3d8f4b5a	0.06996794
38	0x3c7974a0	0.0152255595
39	0xbd983e5a	-0.074337676
40	0xbdb9cc38	-0.09072155
41	0x3d8234fc	0.06357762
42	0x3d09e290	0.033663332
43	0x3d373450	0.044727623
44	0xbab6e880	-0.0013954788
45	0xbc2f3110	-0.01069285
46	0x3c890968	0.016728118
47	0xbdf83c4a	-0.12120874
48	0x3d124198	0.035707086
49	0x3dcf6970	0.101275325
50	0x3ddf0fc0	0.10891676
51	0x3d9195f2	0.07108678
52	0xbd7c10fc	-0.061539635
53	0xbda18330	-0.0788635
54	0x3dfdd538	0.12394184
55	0x3d3f8cc4	0.046765104
56	0x3d17e1bc	0.03708051
57	0x3da73db0	0.08166063
58	0x3d87e78a	0.066359594
59	0x3d8e10e6	0.06936817
60	0xbdf0737a	-0.117407754
61	0xbd77da74	-0.060511068
62	0x3dec7eb6	0.11547606
63	0xbdece728	-0.11567527
64	0x3d8b31c8	0.067966044
65	0xbd753e74	-0.059874013
66	0xbdd9d46a	-0.10636218
67	0xbde2943a	-0.11063428
68	0xbd9dcac8	-0.07704693
69	0xbd3dc4b8	-0.046330184
70	0xbd1eaf50	-0.03874141
71	0x3dae268a	0.085034445
72	0x3da5c49e	0.080941424
73	0xbdd10b2e	-0.102072105
74	0xbceb5588	-0.028727308
75	0x3b4f21c0	0.003160581
76	0x3d69e69c	0.057104692
77	0xbd24a3a4	-0.040195122
78	0xbb97b8c0	-0.004630178
79	0xbc6ef8f0	-0.0145857185
80	0x3d96844a	0.07349451
81	0x3d1e0298	0.038576692
82	0x3df07e7e	0.117428765
83	0x3dc03286	0.093846366
84	0xbdd1677c	-0.10224816
85	0x3d97942c	0.074013084
86	0xbd598b0c	-0.05311112
87	0x3d19bd78	0.037534207
88	0xbced1780	-0.02894187
89	0x3de99ec0	0.11407232
90	0xbd065e90	-0.032805026
91	0xbd5d4dcc	-0.05402927
92	0x3d8e5900	0.06950569
93	0xbc6005b0	-0.013673231
94	0xbd0d7d4c	-0.03454332
95	0xbdd3ee74	-0.10348216
96	0x3d0d46f8	0.03449151
97	0xbd35396c	-0.044244215
98	0xbd6d80e0	-0.057984233
99	0x3d8b2a3c	0.06795165
100	0x3cebcff8	0.02878569
101	0xbdc98f6e	-0.0984181
102	0xba028600	-0.0004979074
103	0xbbd06680	-0.006359875
104	0x3de5cd3e	0.112207875
105	0xbd14c8f4	-0.036324456
106	0x3d8fe31c	0.070257396
107	0x3ceb8a70	0.028752536
108	0x3c241080	0.0100136995
109	0x3db5d7b2	0.08879031
110	0x3d86e44a	0.065865114
111	0x3c222f00	0.009898901
112	0x3c83bad0	0.01608029
113	0xbdb975ca	-0.090556696
114	0xbda692c4	-0.08133462
115	0xbbf22de0	-0.0073907226
116	0xbd264aac	-0.040598556
117	0xbd9c9554	-0.076456696
118	0x3d2dbbec	0.042415544
119	0x3c4f14f0	0.012639269
120	0x3d9ed036	0.07754557
121	0xbdfdbf28	-0.12389976
122	0x3da9df56	0.08294551
123	0xbd9f4904	-0.077775985
124	0xbdb5964e	-0.08866559
125	0x3d7e0804	0.062019363
126	0xbd6737bc	-0.056449637
127	0xbde95748	-0.11393601
128	0xbd3377f8	-0.043815583
129	0x3da4693c	0.08027884
130	0x3dde6a00	0.10860062
131	0x3d6f694c	0.05845003
132	0xbdba5466	-0.09098129
133	0x3cf7a4e0	0.030229986
134	0x3d5226bc	0.05130647
135	0x3d154278	0.036440343
136	0x3de4c43c	0.11170241
137	0x3dab8210	0.08374417
138	0x3d4a0954	0.049325302
139	0xbc1b03b0	-0.009461328
140	0x3d4aacec	0.049481317
141	0xbdb11c32	-0.08647956
142	0xbdf7c1a4	-0.12097481
143	0x3d16fe5c	0.03686367
144	0x3d9c7848	0.07640129
145	0x3d337b50	0.04381877
146	0x3de29eee	0.1106547
147	0xbc0e1570	-0.008672103
148	0xbdd0b7fc	-0.10191342
149	0xbd9c69aa	-0.07637341
150	0x3d113da0	0.03545916
151	0xbde0997c	-0.10966775
152	0x3c9fb820	0.019496977
153	0x3c9a7390	0.018853933
154	0x3d2b9c0c	0.041896865
155	0xbd17be08	-0.037046462
156	0xbcdfd640	-0.027323842
157	0xbdc67d96	-0.09691922
158	0xbde4cd5e	-0.11171983
159	0xbd03306c	-0.0320286
160	0x3d1ddff0	0.03854364
161	0x3d4a247c	0.0493512
162	0xbdb5dc94	-0.088799626
163	0x3d210c04	0.0393181
164	0x3dd985bc	0.10621211
165	0x3cfb42e8	0.030671552
166	0xbdf7ae3e	-0.12093781
167	0xbcbd59f8	-0.02311419
168	0xbd993ed6	-0.07482688
169	0x3db7b442	0.08969928
170	0xbc09edf0	-0.008418545
171	0xbd0add74	-0.0339026
172	0x3d5baac4	0.05362965
173	0x3cb31158	0.021858856
174	0xbd984430	-0.07434881
175	0xbc29d8e0	-0.010366648
176	0xba1c9e00	-0.00059744716
177	0xbdc04554	-0.09388223
178	0x3b2a2440	0.0025961548
179	0xbd43dab4	-0.047815993
180	0x3d9d428c	0.076787084
181	0xbbca4680	-0.006172955
182	0x3cf2dda0	0.029646695
183	0x3da618a8	0.081101716
184	0xbcce9f80	-0.02522254
185	0x3cc52fb8	0.024070606
186	0xbdb88b06	-0.090108916
187	0xbc92cfe8	-0.017921403
188	0xbdc8b2a4	-0.09799698
189	0xbd972038	-0.07379192
190	0xbcad5108	-0.021156803
191	0xbd5f4bd8	-0.05451569
192	0x3db7a6ce	0.08967362
193	0x3d57f38c	0.0527225
194	0xbdee88a4	-0.11647156
195	0xbda848e4	-0.08217028
196	0x3d5161ec	0.051118776
197	0xbd8a3b38	-0.06749576
198	0x3be1b040	0.0068874657
199	0xbc188810	-0.009309784
200	0xbd0a51c8	-0.0337694
201	0xbd140408	-0.036136657
202	0x3dac14bc	0.08402392
203	0x3dfcfbec	0.12352738
204	0x3df8f630	0.121563315
205	0xbda94af8	-0.08266252
206	0xbd788254	-0.060671166
207	0xbdf12364	-0.11774328
208	0x3c32d6b0	0.010915443
209	0x3d67c1a0	0.05658114
210	0xbdb526f0	-0.08845317
211	0xbdf70844	-0.120621234
212	0xbd8518a2	-0.06498839
213	0xbdc27726	-0.09495382
214	0xbd403bb0	-0.046931922
215	0xbdd5a312	-0.10431494
216	0xbddf0a82	-0.10890676
217	0xbd6fcc2c	-0.058544323
218	0x3dc532fc	0.09628865
219	0xbcd9f878	-0.026607737
220	0x3d4a19f0	0.049341142
221	0x3d93a9fe	0.07210158
222	0x3dbe345e	0.09287332
223	0xbd81c5e2	-0.06336571
224	0x3d0f014c	0.034913346
225	0x3c901a70	0.017590731
226	0xbdf343a8	-0.11878139
227	0xbc864440	-0.016389966
228	0xbb883040	-0.0041561425
229	0x3dfaf9ec	0.122547
230	0x3d084954	0.033273056
231	0xbd150a30	-0.03638667
232	0xbdca53ee	-0.098792896
233	0xbdb037a4	-0.086043626
234	0x3a608a00	0.00085654855
235	0xbc494680	-0.012284875
236	0x3dfb6c20	0.122764826
237	0x3bd38980	0.0064556003
238	0x3cd47510	0.025934726
239	0xbca75ec0	-0.020430923
240	0x3dcef8ea	0.1010607
241	0xbc3fdc50	-0.011710241
242	0xbd885e08	-0.0665856
243	0x3cf56488	0.029955164
244	0x3dda180a	0.10649116
245	0xbd841e7e	-0.064511284
246	0x3c1f1430	0.009709403
247	0xbda82c4e	-0.082115754
248	0xbc2aa9a0	-0.010416418
249	0x3d9fac70	0.07796562
250	0xbc248560	-0.010041565
251	0x3d8ad136	0.06778185
252	0xbd50de30	-0.050993145
253	0x3cc53f40	0.024078012
254	0x3def4b78	0.116843164
255	0x3db39806	0.087692305

net.4.bias f4 [6]
0	0xbdaefc1c	-0.0854418
1	0x3ddd4372	0.1080388
2	0xbd2beb28	-0.04197231
3	0xbddb0d8e	-0.10695945
4	0x3da35df2	0.07976903
5	0xbd447b64	-0.047969237
