dheera_v0.3.1/dheera_v3.1/checkpoints/dheera_20251224_062428_curiosity.pt (torch, 269954 bytes, 12 tensors)

0.weight f4 [128, 64]
00000000: d0f7 ea3c 84af 223d 3eaa f73d 26ac cabd
00000010: c069 6ebd eed3 f63d 70f9 e33c 0469 13bd
00000020: e861 b53c 1e2c edbd 2c98 f8bd 6a9f d2bd
00000030: 0042 e63b 30c3 c53d 00d9 2ebb 80b9 4b3c
00000040: 6c25 c63d d0e6 ed3c 7ef0 93bd da8d 9abd
00000050: 8e6e adbd 303b 20bc 98d5 b6bc e0b5 fcbd
00000060: 705a 9a3c a0c9 d93d 4051 d4bd 9c77 073d
00000070: 5458 61bd 0c0b 493d 40d9 e63b f0ea 6fbc
00000080: 7a10 eb3d 7078 b6bc cc6f 2ebd 7aa6 913d
00000090: 0663 ae3d 00fb 60ba e683 dbbd 5aae a2bd
000000a0: ecf7 333d c877 943c 3efb a5bd 8c34 483d
000000b0: 106b 183c 32b7 e8bd 987a 69bd c0c7 3abd
000000c0: c453 14bd 9055 133d ce2e b2bd f0f2 ccbc
000000d0: 18b6 b8bc 64f7 f2bd 2c89 f9bd 9029 c9bd
000000e0: 105e 213c a21b a73d a891 8bbd 101b 2dbd
000000f0: 2ece b9bd c239 8d3d 5048 4abd 305c 643c
00000100: d6ea c23d 7456 3ebd c0b6 703c 5251 e83d
00000110: 88e8 143d 4093 fcbb dcea 12bd 1c6f 77bd
00000120: 1cf8 10bd a818 ad3d a416 2f3d 521f a7bd
00000130: 1c81 ea3d 020a 923d dc43 3f3d 0eb5 a33d
00000140: 5a86 c9bd c23a e03d ceef cabd d05c 473d
00000150: f8e2 ca3c 805b 28bb d892 bdbd f4a6 4abd
00000160: 785b aabc f452 01bd d25d d03d 7600 c0bd
00000170: f0a2 203c 1898 0d3d 4067 babd 38c9 b33d
00000180: 5ea7 9cbd de36 edbd c272 babd 5ac6 e0bd
00000190: fa81 de3d 6c3d 6abd 78f4 c6bd 68b3 c83c
000001a0: c037 2e3d f0ce 0abc 88a4 233d 303b 023d
000001b0: e013 82bd 0061 ad3c 1c3c 15bd 80f0 033c
000001c0: 9a4f 86bd 9011 f33d f861 ea3d 8abc ca3d
000001d0: 208b 80bb 4859 2abd 98d7 9d3c 7823 133d
000001e0: b6c7 bc3d 1895 74bd 403e 9fbc f21d e3bd
000001f0: 08dc eb3c 4c54 243d 7866 fa3d d891 9cbc
00000200: 606d c5bd 06a2 c5bd 64af f6bd e63b fa3d
00000210: 1cb4 f6bd 08e9 e23d bad7 fa3d cc52 5bbd
00000220: 48ea cdbd 0cde 3abd 7c85 05bd dc52 e0bd
00000230: dc27 2b3d 8029 3d3d 2494 403d 00f2 a0bb
00000240: 528a bcbd 8089 65bb 00de e2bb dc79 b6bd
00000250: 0876 193d 8c85 083d 1676 d53d 7082 b2bd
00000260: 703a fa3c 927a e5bd b4e6 75bd 5e47 cc3d
00000270: 327f 923d 9ecd b03d c8a8 873c 6c17 a8bd
00000280: 58d7 7cbd 80d8 943c 60dd d9bb e01d 5e3c
00000290: 78f5 803c 5880 643d 4c4e a2bd fa1a c2bd
000002a0: 5a65 e23d f831 7bbd b0cd e6bc e2cc ba3d
000002b0: 1049 243c ec77 9b3d b03d 433d 4c52 c03d
000002c0: 1856 af3d b42b cabd e806 c33c 8803 c7bc
000002d0: 3a8f d23d bc3d b13d 4afd 9dbd d800 c33c
000002e0: 346f a93d a87c d53c f8af 1f3d cae7 ddbd
000002f0: 76c2 e9bd 5895 4abd 0809 64bd 803f 4fbd
00000300: f0ab 153c 3820 02bd 7a21 aebd cc3f 6e3d
00000310: c021 6c3c e8da c23d 58a6 3c3d 4cb4 6fbd
00000320: 6c36 86bd 5281 b1bd cec4 f33d 1855 3e3d
00000330: 68b3 babc 3c49 553d e058 bf3b 66a2 d93d
00000340: 0058 d83d c812 993c 7e7a 9bbd c2d9 a8bd
00000350: 446b da3d 4885 f53c d01e b13d 805e 95bc
00000360: 32d9 f6bd 6c61 213d e6a3 fb3d 4021 803d
00000370: 5a78 8b3d 968b 8cbd b6ef de3d f052 ecbc
00000380: 988e 8e3c 5005 c93c e0b8 b7bc 9631 c2bd
00000390: 886e 45bd f8d3 d23d 28a6 b13c e0d8 e03b
000003a0: c04e 9fbd 1033 0d3d 7467 88bd 2842 533d
000003b0: 1891 fb3d 7688 eb3d a05f c5bc e8d2 7a3d
000003c0: a26a e43d 80e2 bfbb 24fa 7bbd 1083 74bd
000003d0: c48d cebd 2cb0 b5bd 008a d93b 80f1 debc
000003e0: 1891 543d 981f 1abd b6cf 923d 6ac9 c2bd
000003f0: 7868 b93c 9008 8d3d 08bf 8dbc ea04 e2bd
0.02868262 0.039718166 0.12093018 -0.09896116 -0.05820632 0.12052141 0.027828902 -0.035988823
0.022141412 -0.1158068 -0.121383995 -0.10284312 0.007026911 0.0965637 -0.0026679635 0.012434363
0.096751064 0.029040724 -0.072236046 -0.07546587 -0.08468352 -0.009779736 -0.022318646 -0.123393774
0.018841952 0.1063416 -0.1036706 0.033073053 -0.055015877 0.0490828 0.007044941 -0.014643416
0.11477752 -0.022274226 -0.042587087 0.07111831 0.08514981 -0.0008582324 -0.10718517 -0.07943411
0.04393761 0.018123522 -0.08104561 0.048878238 0.009302869 -0.11363067 -0.05700168 -0.045600653
-0.036212698 0.03597027 -0.087003335 -0.025018185 -0.022547767 -0.11863592 -0.121843666 -0.098223805
0.009849086 0.081595674 -0.06814891 -0.042262137 -0.09072529 0.06895782 -0.04938537 0.013937995
0.09517448 -0.046469167 0.0146920085 0.113436356 0.03635457 -0.0077079833 -0.03586851 -0.060408697
-0.035392866 0.084519684 0.0427462 -0.08160271 0.11450407 0.07130815 0.046695575 0.07993518
-0.09840079 0.10948707 -0.0990902 0.048672497 0.02476643 -0.0025689304 -0.09256524 -0.049475625
-0.020795569 -0.03157325 0.10174145 -0.09375088 0.009804472 0.034568876 -0.091017246 0.08778614
-0.0764911 -0.11582731 -0.091039196 -0.109753326 0.10864635 -0.057187483 -0.097145975 0.02449961
0.042533636 -0.008472189 0.03995183 0.031794727 -0.06351447 0.021164417 -0.036434278 0.008052945
-0.065581515 0.11868584 0.11444467 0.09899242 -0.003922835 -0.04158905 0.019267842 0.035922498
0.09217779 -0.0597125 -0.019438863 -0.11089696 0.028791443 0.040119454 0.122265756 -0.019112512
-0.09640002 -0.09650044 -0.12045172 0.12218456 -0.12046072 0.110796034 0.12248178 -0.053545758
-0.10054451 -0.045621917 -0.032598004 -0.10953304 0.04178606 0.046182156 0.047016278 -0.004911661
-0.0920607 -0.0035024583 -0.006923437 -0.089099616 0.03746608 0.033330485 0.10422914 -0.08716285
0.030545443 -0.11205019 -0.06003447 0.0997455 0.07153167 0.08632968 0.016559973 -0.08207592
-0.061728805 0.018169641 -0.0066487044 0.013556927 0.015742049 0.05578646 -0.0792509 -0.094778016
0.110544875 -0.06132695 -0.028174251 0.091211095 0.010027185 0.07591233 0.04766625 0.09390697
0.08561343 -0.09871617 0.023807004 -0.024293676 0.102812245 0.08654353 -0.07714327 0.023804113
0.082731634 0.026060417 0.038986176 -0.10835226 -0.114140436 -0.04945883 -0.055672675 -0.050597668
0.009135231 -0.031769007 -0.08502479 0.05816631 0.0144123435 0.09514409 0.046057075 -0.058521554
-0.06553349 -0.08667244 0.11902772 0.04646787 -0.022790626 0.052071795 0.005839452 0.10626678
0.1056366 0.018685713 -0.07591723 -0.08244659 0.106649905 0.02997078 0.08648455 -0.018233538
-0.120531455 0.03939955 0.122871205 0.06256342 0.068100646 -0.068625614 0.10885565 -0.028848141
0.017401978 0.024538666 -0.022427022 -0.09482114 -0.048201114 0.10294336 0.021685675 0.006861791
-0.07778692 0.034472525 -0.06660357 0.051576763 0.12283534 0.11500637 -0.02409345 0.061236292
0.11153151 -0.0058558583 -0.06151785 -0.059695303 -0.100856334 -0.08871493 0.0066387653 -0.027214766
0.051896185 -0.037627786 0.07168524 -0.09511073 0.022632822 0.06886399 -0.017303005 -0.110360935

0.bias f4 [128]
00000000: 28a1 f6bc 5849 f8bd 608b fdbb 001e cf3c
00000010: a0fc 2fbd f8c4 dd3c e0f4 003c 7a0e ff3d
00000020: 2075 653c d0c3 6fbc 28ce 16bd 0824 de3d
00000030: 865f 83bd 20de f2bd 86b1 c93d d087 d2bc
00000040: 3a42 a73d 3cc7 d83d 20e5 4abc b4e8 9b3d
00000050: 68f6 9a3c 0609 debd 7236 aabd 4421 443d
00000060: ea9c b43d 203b 7c3c 423f 88bd 6eea d8bd
00000070: 003d d5bb 28c0 afbd 60bd d4bd b6f8 dd3d
00000080: ae00 dabd 1456 b43d 6e20 91bd 3278 e23d
00000090: 70e1 cabc 74d8 8dbd fa4a 853d 3093 8f3c
000000a0: a8c7 7cbd 307a 6a3c d044 303c 58e8 eb3c
000000b0: e496 c73d e835 33bd fc63 543d 748d 97bd
000000c0: 9042 733c 6091 fa3d d8f8 dabd 7cfb 27bd
000000d0: e669 c2bd 00b6 8c3b 5aaa a83d d2e4 e63d
000000e0: 241d 983d 5c9f dabd b0be 383d f0de 0abc
000000f0: 3a3d 923d 9c3f 5d3d a827 18bd 5833 81bc
00000100: c8d8 b8bc 106e 00bc 00d2 acbb ac3e 07bd
00000110: f047 e4bd f483 38bd 26bf 943d d413 37bd
00000120: 2a52 8f3d 40b1 f53d 92c8 e63d 52f1 f5bd
00000130: 2098 e6bd c2bd d8bd 6e71 a93d c0f1 e13b
00000140: 5235 b0bd b0cf e53c 7e95 f6bd 103f d4bc
00000150: 88ae d9bd cc2e ddbd 56b8 8b3d 4a8a ad3d
00000160: a097 a5bb f88b b13d a87e d7bd 2ab5 803d
00000170: 60e3 0cbc 7c92 80bd b05c df3c 1060 6f3c
00000180: bcff 4fbd 8821 a23d 4e91 db3d e843 d83d
00000190: 78b2 aabd 06c7 c3bd a4fe dcbd 84ed a13d
000001a0: d6a4 e4bd d0c8 56bc 8092 b03c 148e cdbd
000001b0: b4f6 5e3d d824 b23c b81c 43bd fa22 bebd
000001c0: 54ff 5dbd 3043 dcbc 2462 a33d e692 fdbd
000001d0: c0a1 fd3b 00c0 bbba f0ec 743d 2e51 d23d
000001e0: 7ade 863d 9c83 d0bd 30b9 e63d 08ac 4c3d
000001f0: c08a a5bd 5670 a03d d015 c73c fea8 dbbd
-0.030106142 -0.12123364 -0.007737562 0.02528286 -0.04296553 0.027071461 0.007870883 0.12453933
0.014004976 -0.014634088 -0.0368177 0.10846716 -0.06414704 -0.11858773 0.09848313 -0.025699526
0.081669286 0.10584876 -0.012383729 0.07612744 0.018916324 -0.10841565 -0.08311166 0.047883287
0.088189915 0.015394956 -0.066526905 -0.10591589 -0.006507516 -0.08581573 -0.10387683 0.108384535
-0.10644661 0.088054806 -0.070862636 0.11058082 -0.0247657 -0.06926051 0.06508441 0.01752624
-0.061713845 0.014311358 0.010758594 0.028797314 0.09745577 -0.04375258 0.051853165 -0.07400027
0.014847413 0.12234759 -0.106919944 -0.04101132 -0.09492855 0.004294157 0.08235617 0.11274113
0.07427433 -0.10674927 0.04510373 -0.008476004 0.07140584 0.05401574 -0.037147194 -0.015771553
-0.022564307 -0.007838741 -0.0052740574 -0.033018753 -0.111465335 -0.045047715 0.07263021 -0.044696644
0.069980934 0.119966984 0.112687245 -0.12008919 -0.11259484 -0.105830684 0.08273588 0.006895274
-0.0860392 0.028053135 -0.12040232 -0.025908977 -0.10628992 -0.107999414 0.06822269 0.08473642
-0.0050534755 0.08669275 -0.10522205 0.06284554 -0.008599132 -0.0627794 0.027265877 0.014610305
-0.050780997 0.07916552 0.10721074 0.10559827 -0.083348215 -0.09559445 -0.10790756 0.07906631
-0.111642525 -0.013109401 0.021554232 -0.10036865 0.054434493 0.021746084 -0.04763481 -0.09284015
-0.054198578 -0.026887506 0.07977703 -0.12381534 0.0077402294 -0.0014324188 0.059796274 0.1026939
0.06585403 -0.101813525 0.112657905 0.04996875 -0.08083105 0.078339264 0.024302393 -0.10725592

2.weight f4 [128, 128]
00000000: 2576 8c3d ea84 0f3d 285f d93c 8289 7c3d
00000010: 604c 153b 6897 65bc 004d 34ba 9b90 9c3d
00000020: fd53 b0bd 38f2 a93c 6014 253c 6177 953d
00000030: 760d 5a3d 1825 0abd 4697 7f3d 28d0 013c
00000040: 343c 0bbd 9334 8abd f438 813c 00d3 4fbd
00000050: 0046 57bd 85ef ac3d fc37 c03c 73f6 61bd
00000060: 0599 a83d c289 463d f20b 83bd 8ab8 80bd
00000070: a8ed cd3c 1b1a a43d f55a 9cbd c612 7ebd
00000080: ed04 913d 6273 81bd ccfd 7cbd 5ace a8bd
00000090: b657 66bd c03c 84bb 12d3 3b3d 8ae7 483d
000000a0: da78 663d da94 a1bd a099 6dbb 707e 9d3b
000000b0: b725 01bd 454a 8a3d 77e5 9b3d 5941 4dbd
000000c0: 98b7 a9bd 079f 8fbd b368 08bd 05d6 8c3d
000000d0: 60f2 2d3b 6641 0d3d 43c0 b23d 9714 b23d
000000e0: a651 783d 9fe6 9d3d f39a 3abd 2456 92bc
000000f0: b093 b8bb 4ae0 e3bc 144f f6bc 881d e73c
00000100: 3646 273d 982d 443c b4b5 a93c 6135 acbd
00000110: 9f1f 813d 38ae df3c b083 923c 1eb9 eebc
00000120: 2477 7cbd 48c0 c43c 2ab9 0c3d c093 febb
00000130: 5047 5ebc 4207 8fbd 593f 9d3d 8224 003d
00000140: 0e5d 5d3d 8663 77bd 4071 9cbd 10ec 213c
00000150: ced6 2dbd b05f dbbb 7631 b1bd 9037 9cbd
00000160: 9028 03bc 6e4d 513d 72ad 363d e97c 863d
00000170: ffc4 20bd 58c3 b7bc 1e84 97bd 6e85 7c3d
00000180: 4036 1d3b 6cb2 bcbc ce46 a9bd 061f 09bd
00000190: 94a2 b0bd c039 a83a 7b5c a43d d02c 993b
000001a0: ac82 9ebc 8790 56bd 1076 e0bc 74fa f83c
000001b0: d8d6 0fbc 44ee 103d a43c ea3c e038 50bb
000001c0: c801 d03c 6a1e 623d 40a4 273b 3215 703d
000001d0: 241a a4bc 200d ce3b f083 9c3c 2026 3e3c
000001e0: 2fdd a33d 3c71 97bc 59a2 863d 7a86 243d
000001f0: 1013 a2bb 7c15 10bd 0c3c 103d d964 a8bd
00000200: 808e e43a a8ac 94bc 50b6 ed3c 70ea 0bbc
00000210: 91d7 9a3d fa79 163d 78f3 3e3c c5e2 943d
00000220: 0ff9 63bd 1388 35bd b0d0 b9bb b4da 963c
00000230: 971f 8e3d 02fe 41bd 3c9c b93c d650 193d
00000240: 8300 ab3d b069 ca3c 8c21 c03c 7960 b33d
00000250: 440d 60bd 16d1 52bd 0072 ac39 b257 3fbd
00000260: 72e0 6d3d fb16 4ebd 005c eabc b04b b33b
00000270: 0cf1 a9bc b81f a73c 4d5f a83d ca62 633d
00000280: d57b aa3d 0f5b a83d 0a7e 233d 454e 823d
00000290: 2b6c a53d 6a10 773d 8105 8f3d 17c1 77bd
000002a0: 9408 873c c0df 83ba b8c9 7dbc 36be 5dbd
000002b0: 4a1a 71bd dfbf 983d fc13 0bbd e0d1 793b
000002c0: e60c 783d 10e2 c43b aac2 303d c02f f4bb
000002d0: d129 953d 1fd9 883d 80f5 fc3c 00e8 ea3c
000002e0: da38 9abd 18ff 1e3c 69b3 5ebd 00bb a13c
000002f0: d2ab a1bd 601e 92bb 1f40 a63d 1043 d33b
00000300: 0060 d83a 32c9 173d 3e08 463d 00dd 02bb
00000310: a02e 6fbb 3646 203d 22e0 473d bb30 b33d
00000320: 5be6 963d a03c 46bc 044a 92bd b4db f23c
00000330: 7e85 fbbc 38ac d8bc 4ca7 bebc b067 db3b
00000340: f494 3ebd 091d 5dbd 3a27 debc 2d19 9f3d
00000350: d584 55bd 236f 803d 90e8 9dbc d715 b13d
00000360: 0015 89bc ca39 9dbd 2a22 17bd 3662 a2bd
00000370: b822 39bc ba56 90bd 92ee 07bd 0e17 1b3d
00000380: 055f aa3d f661 243d 5af1 743d 0052 52bb
00000390: 305f 823b 41ba a63d 34da 8bbd 2d38 8e3d
000003a0: f4bb 883c e720 8abd 05f2 8e3d f839 56bc
000003b0: 00e7 0b3a de1f 753d 8823 353c 6c49 54bd
000003c0: 4444 da3c 87e5 ab3d 0c8c 8bbc 286d 0abc
000003d0: 56a4 81bd a3f1 12bd 8a3e 1f3d 9465 8bbd
000003e0: be83 35bd 36df aabd f52c 853d 07ec 823d
000003f0: c389 a23d 865f 503d ca15 2cbd 8a48 553d
0.06858472 0.035038866 0.026534632 0.061654575 0.0022781119 -0.014013149 -0.0006877929 0.07644769
-0.086097695 0.020745382 0.010075659 0.0729816 0.053235494 -0.03372678 0.062400125 0.0079231635
-0.03399296 -0.06748309 0.015774228 -0.050738335 -0.05255699 0.08444122 0.023464195 -0.055166673
0.08232311 0.04847122 -0.06398763 -0.06285198 0.025137737 0.08012792 -0.07634536 -0.062029622
0.07081018 -0.06320836 -0.061765477 -0.082424834 -0.05623599 -0.0040355623 0.04585559 0.049048938
0.056267597 -0.07889719 -0.0036254898 0.0048063323 -0.03153011 0.06752447 0.07612126 -0.05011115
-0.08286971 -0.07012754 -0.033302974 0.068767585 0.0026542172 0.034486197 0.08728077 0.086953335
0.06062474 0.07710003 -0.045557927 -0.01786334 -0.00563284 -0.02781691 -0.030067004 0.028212324
0.040838443 0.011973761 0.020716526 -0.08408619 0.06304859 0.027304754 0.01788506 -0.029141005
-0.06163706 0.024017468 0.034356274 -0.007769078 -0.013566807 -0.06983806 0.07678098 0.031284817
0.054043822 -0.060397647 -0.07638788 0.009882942 -0.04244118 -0.0066947564 -0.08652012 -0.07627785
-0.008005276 0.051099233 0.044599004 0.065667935 -0.03925037 -0.022432014 -0.07398246 0.061650686
0.0023988634 -0.023034297 -0.08265458 -0.033476852 -0.08624759 0.0012834594 0.08025452 0.0046745315
-0.019349419 -0.052383926 -0.027400047 0.030392863 -0.00877925 0.035383478 0.028593369 -0.0031772181
0.025391474 0.055204786 0.0025580078 0.058613963 -0.020031996 0.0062881857 0.019105881 0.011605769
0.08001172 -0.018486612 0.06573934 0.04016731 -0.00494612 -0.03517674 0.035213515 -0.0822236
0.0017437488 -0.018148735 0.029017597 -0.008539781 0.07560647 0.03673742 0.011654727 0.07269815
-0.055657443 -0.044319224 -0.0056706294 0.018414833 0.06939619 -0.04736138 0.022657506 0.037430607
0.08349707 0.024708599 0.023453496 0.08758635 -0.05470015 -0.05146893 0.00032891333 -0.046714492
0.058075376 -0.050314885 -0.028608322 0.005471669 -0.020744823 0.020400867 0.08221302 0.055514134
0.083244 0.08220493 0.039915122 0.06362585 0.08077272 0.060318388 0.06983472 -0.06048688
0.016483583 -0.001006119 -0.015489988 -0.054136477 -0.05886296 0.074584715 -0.033954605 0.003811948
0.060559176 0.006008394 0.043154396 -0.0074519813 0.072833665 0.066820376 0.030878782 0.02867508
-0.07530375 0.009704374 -0.054370318 0.019742489 -0.078941 -0.0044591874 0.08117699 0.0064472035
0.0016508102 0.03705711 0.048347704 -0.0019968152 -0.0036496297 0.03912946 0.048797734 0.08749529
0.073681556 -0.012099415 -0.071430236 0.029645778 -0.030703302 -0.026449308 -0.023273133 0.00669571
-0.04652877 -0.05398277 -0.027118314 0.07768474 -0.05212863 0.06271198 -0.019275934 0.08646744
-0.016733646 -0.07677038 -0.036897816 -0.079288885 -0.0112997815 -0.07047792 -0.033186503 0.037863784
0.08318905 0.040132485 0.059800483 -0.0032092333 0.0039786324 0.08140994 -0.06828728 0.069443084
0.016691186 -0.06744557 0.06979755 -0.013075344 0.0005336851 0.059844844 0.011055835 -0.051827833
0.02664388 0.08393388 -0.017034553 -0.008448876 -0.06330173 -0.035874974 0.038878 -0.06806484
-0.044315092 -0.08343355 0.065027155 0.06392675 0.07936432 0.05087235 -0.042012967 0.05207113

2.bias f4 [128]
00000000: f0e3 0ebd 5916 3cbd d05d 8c3c 2da6 ad3d
00000010: 16bc 7a3d 1286 4dbd 821f 0d3d 934f 83bd
00000020: 796c 9dbd 1f5f 2ebd 0edc 753d 4601 3c3d
00000030: 3e54 623d 5003 8a3c 20a3 29bc 6633 473d
00000040: 793a 2abd 12ff 2ebd 4091 c6ba f18f 04bd
00000050: cf05 94bd e4ea a4bd 288a b5bc 291a 2dbd
00000060: e3d8 873d 7b6a a43d a95a 8e3d ab4c b43d
00000070: c04e 2c3c 8064 5ebb 446d 9c3c da17 14bd
00000080: 833b 1dbd 4ffc 9d3d 4203 9bbd 8afc 39bd
00000090: dded 74bd 0d12 a13d 8121 b03d a663 52bd
000000a0: f8e5 ff3c 9f6c 8d3d e0cc 9f3b d00b 95bd
000000b0: 525d 3b3d 2e0b 3a3d 7554 a73d 9f8a 16bd
000000c0: 1d5e 9bbd b271 97bd 7b2f 933d f62a 783d
000000d0: 0af2 3a3d 3251 343d 2460 bf3c bc82 a6bd
000000e0: 6f83 9b3d bc3f c03c eb8a b4bd 400c 57bc
000000f0: 9014 6a3c 8910 68bd 304d c93c 6425 b0bd
00000100: c0c7 d03b c0ff 9dbc 1f94 933d 083f 29bc
00000110: 9404 bc3c 6615 703d b6a4 693d dc69 b63c
00000120: 3294 98bd 3421 87bd 2e2e 1cbd c4b5 903c
00000130: 3eb3 523d 3879 a6bc 8070 a6ba e490 3bbd
00000140: ac18 073d 6d59 a1bd e3e1 74bd 5315 9b3d
00000150: 64f8 9d3c c6bb 3f3d 7460 4ebd 491f ae3d
00000160: 0086 11b9 2493 aabc aff2 8c3d 05a0 7ebd
00000170: cd0d a03d 206d 20bd b7b8 ab3d 6864 10bc
00000180: c638 013d 6cc9 e6bc 94bd dd3c 0029 ef3c
00000190: 29be 833d 8423 23bd 273a 9fbd 32fb 80bd
000001a0: afaf 80bd 18ea 2bbd 86af 653d 16a2 3f3d
000001b0: 3840 5c3c 408e 34bc 5001 fbbc 80b6 df3c
000001c0: 741d 9bbc 38a3 3bbc 6d7b 06bd 186e f23c
000001d0: e37f 833d fcf4 dcbc 490b 8b3d f007 96bc
000001e0: 7cd6 39bd 6088 e6bb 72bf 723d cafb 6c3d
000001f0: 3def a73d 4878 bfbc 6a9d 3abd b829 a7bd
-0.034885347 -0.04591975 0.017134577 0.08478961 0.06121453 -0.050176688 0.034453876 -0.06411662
-0.07686705 -0.042571183 0.060024314 0.045899652 0.05525612 0.016847283 -0.010353833 0.048633
-0.04155967 -0.042723723 -0.0015149489 -0.032363836 -0.072276704 -0.08052614 -0.022160605 -0.042261276
0.06633165 0.08028122 0.06950886 0.08803686 0.010516822 -0.0033934414 0.01909507 -0.03615556
-0.038386833 0.0771414 -0.07568981 -0.045406856 -0.059797157 0.07864771 0.0860014 -0.051364563
0.031237587 0.069054835 0.004876718 -0.07277644 0.045743294 0.045420818 0.08170406 -0.036753293
-0.0758631 -0.073947325 0.071867906 0.060587846 0.045640983 0.044022746 0.023361273 -0.08130404
0.07593428 0.02346789 -0.08815559 -0.013125479 0.014287129 -0.056656394 0.024572939 -0.08600882
0.0063714683 -0.01928699 0.07205986 -0.010329969 0.022951402 0.058614157 0.057041846 0.022267275
-0.07450141 -0.0659813 -0.038129978 0.017664798 0.05144047 -0.020321473 -0.0012698323 -0.045792475
0.032982513 -0.07878385 -0.059785735 0.07572427 0.019283481 0.046809934 -0.050384954 0.08502061
-0.00013878196 -0.020822115 0.06882226 -0.062164325 0.07815132 -0.03916657 0.08384841 -0.008813001
0.031548284 -0.028172217 0.027067937 0.029194355 0.064327545 -0.039828792 -0.077747636 -0.06297912
-0.06283509 -0.041971296 0.056075595 0.046785437 0.013443045 -0.011020243 -0.030640274 0.027308702
-0.018934943 -0.011452489 -0.03283255 0.029593512 0.06420877 -0.026972286 0.06789262 -0.018314332
-0.045370564 -0.0070353 0.059264608 0.057857312 0.08199928 -0.023372784 -0.045560278 -0.08162254

4.weight f4 [64, 128]
00000000: fef1 90bd 8c86 9cbd 66f7 163d dc20 853c
00000010: 3263 22bd c7b9 aebd 9aaf 2dbd 1111 03bd
00000020: f0d3 30bd 264a 7f3d 7cb7 0b3d c006 41bc
00000030: c891 92bd 6fec ae3d dae5 613d dc15 97bc
00000040: c08d 0f3c a8e3 01bc dc35 31bd b2f4 19bd
00000050: d98b 8fbd 2e22 4d3d 46d7 6fbd fe84 4ebd
00000060: 0950 ae3d 008d 0dbd aa28 343d ba36 f1bc
00000070: 80f1 44ba 84cd cf3c 20cd 983b 26b1 733d
00000080: f68f 203d 48db 85bd fb25 14bd 9e8c dcbc
00000090: c0f4 f03b f05e 843b 169b 7d3d ea98 463d
000000a0: cfdd 9f3d 90e1 79bc 95a3 a03d ba2f 5a3d
000000b0: f681 b0bd 9db5 9d3d 972f 30bd cbfa 983d
000000c0: 3062 5b3c c39c 36bd 3bd5 56bd 4671 703d
000000d0: 8e7e 6a3d 8e06 043d 34b6 aebd 70f5 b2bd
000000e0: f86f 7dbc 007d 8a39 2a25 423d 599b 32bd
000000f0: 235d 16bd b09a b23b a947 aa3d 80c9 7dba
00000100: db0f a3bd 80f5 b83c 3861 81bd 892b adbd
00000110: c6c1 763d 804e cdba 3005 213c a068 303b
00000120: 255e 5dbd 5e86 3d3d e0ef 53bc 846e c3bc
00000130: 4091 a3bd 7a19 123d c8cd 6f3c 35ca 68bd
00000140: 9016 31bc f792 7fbd 8930 9ebd a25f 7f3d
00000150: cbd1 b33d 1c34 79bd 0657 9ebd 0685 90bd
00000160: 0cc7 be3c 9c37 dcbc c4c0 92bc 10bd 823c
00000170: 0c74 cfbc c0eb deba bead 153d 7d0d 07bd
00000180: 19a2 9a3d fc54 a83c 9ee0 6ebd 6f75 aa3d
00000190: 2038 143d e1f5 b03d 1ea4 aebd 96e6 533d
000001a0: 6e13 f7bc 3a2a 72bd cff8 21bd 7334 b13d
000001b0: 88c6 7d3c 0f77 5dbd 73a0 8b3d 60e3 61bb
000001c0: 7431 c13c b3fc 01bd 652b 9c3d c6d7 1f3d
000001d0: ec2d db3c 8344 943d 5b37 9f3d f64d 103d
000001e0: 0016 183b 6f3f 5cbd 0291 7e3d 203a cfbb
000001f0: a064 103d beb5 6c3d b866 5dbd 3a25 613d
00000200: 6f78 9a3d e087 54bc a09b 513c f843 95bd
00000210: 25da 94bd 989e b0bc 5090 e33b d24d 463d
00000220: 3655 b1bd 00ac 12bc ee34 643d 585a ea3c
00000230: 88be f13c 0808 0dbc c890 0bbc 6a69 1ebd
00000240: 2786 35bd 8097 3dbb 48f6 9abd 6069 fe3c
00000250: c022 ff3a 4923 833d 6755 8b3d 5075 0abc
00000260: 18c6 093c 44a7 61bd 2a74 e3bc 50ea 56bc
00000270: 04ae 9c3c 53ab a2bd 8045 a8bb 4020 04bb
00000280: d248 373d 9628 1f3d 4e06 a6bd 8260 583d
00000290: 24e8 8fbd 020f b4bd eda6 a73d c643 4e3d
000002a0: c1a9 983d 191f 7bbd 008a f5ba 5d6c 9f3d
000002b0: 161f 783d 9a72 4e3d ee18 81bd 54e2 afbc
000002c0: b0dc ff3c 00a0 663b cfa8 46bd c574 2fbd
000002d0: b0de b0bb f53a 9b3d 900d 2bbc a8ff 8ebd
000002e0: 7b67 44bd b12a 00bd 80d5 083c 1080 883b
000002f0: 803a 03bc 88a1 a0bc 5b31 b13d 968a 4b3d
00000300: d9bc a2bd 58b5 13bc 24a0 a83c e54a 823d
00000310: 9e8a 5d3d 241d 91bc 82dc 433d 464d 89bd
00000320: 14fe eb3c 5b13 33bd e271 0ebd 2944 5fbd
00000330: 83ef 853d a8e1 583c a3a6 9e3d 48eb 6bbc
00000340: 8104 803d 40b1 74bc f09f 57bd f373 a83d
00000350: 0272 7c3d 2bdc ab3d 06c8 713d 7188 953d
00000360: 407c 86bb 5021 abbc 5157 983d e4e7 7cbd
00000370: 4fa2 8bbd b0ab 763c 161c 193d a0a2 4a3b
00000380: 422c 42bd 0774 49bd 49d8 0bbd aad7 5a3d
00000390: a2c6 3d3d 972f 8e3d a80d 4cbc 17fa 8d3d
000003a0: b751 90bd 80a2 8dbb e04f 43bd ce0c 37bd
000003b0: 6ede 9dbd ec93 b0bc 0563 63bd ace3 8f3c
000003c0: e06d 9fbb 6406 c4bc 8704 59bd f727 85bd
000003d0: e9a8 48bd 70a0 f93c 38f9 01bd 580a 8a3c
000003e0: b93a a0bd 3aa1 7f3d 8040 eb3c b515 a9bd
000003f0: e58b 55bd 6a59 9cbd e858 36bc 6e55 793d
-0.07077406 -0.0764285 0.03685703 0.01625102 -0.03964538 -0.08531528 -0.042403795 -0.031998698
-0.04317087 0.062326573 0.03411053 -0.0117813945 -0.07156712 0.0854119 0.055150844 -0.01844304
0.008761823 -0.007927813 -0.043264255 -0.037586875 -0.07009096 0.050081424 -0.05855491 -0.0504198
0.08511359 -0.034558296 0.043984093 -0.029445041 -0.0007512793 0.025366552 0.0046631247 0.059495114
0.03919979 -0.06535965 -0.036169033 -0.02692252 0.007353395 0.0040396377 0.06191548 0.048485674
0.078059785 -0.015251532 0.07843701 0.05326817 -0.08618538 0.077006556 -0.043014135 0.0746971
0.013390109 -0.044583093 -0.052449446 0.058701776 0.0572496 0.032232814 -0.08530846 -0.0873822
-0.01546859 0.00026414543 0.047398724 -0.043605182 -0.036709916 0.005450569 0.08314449 -0.000968121
-0.079620086 0.022578001 -0.06317371 -0.08455569 0.06024339 -0.0015663654 0.009827897 0.002691783
-0.05404486 0.04627072 -0.012935609 -0.023856409 -0.079866886 0.035668828 0.014636464 -0.056833465
-0.010808602 -0.062396016 -0.07724101 0.062347062 0.08780249 -0.06084071 -0.07731442 -0.07056622
0.023288272 -0.026881985 -0.017914183 0.015959293 -0.02532389 -0.0017007515 0.036542647 -0.032971848
0.07550449 0.020548336 -0.05831968 0.0832318 0.036186337 0.08640648 -0.085273966 0.051733576
-0.030160632 -0.0591223 -0.039543923 0.08652582 0.015489228 -0.05406862 0.06817713 -0.0034467801
0.023583151 -0.031735133 0.07625464 0.039024137 0.026755296 0.0723963 0.0777423 0.0352306
0.0023206472 -0.053771432 0.06215001 -0.0063240677 0.035252213 0.05779051 -0.05405304 0.054967143
0.07542502 -0.012971848 0.012793452 -0.07288355 -0.0726817 -0.021559998 0.0069446936 0.04841406
-0.08658831 -0.008952141 0.05571454 0.028607532 0.029509798 -0.008607872 -0.008518405 -0.03867475
-0.04431739 -0.0028929412 -0.07566506 0.031056106 0.0019465312 0.064032145 0.068033986 -0.008450821
0.008409046 -0.055091158 -0.027765352 -0.013117388 0.019125946 -0.07942834 -0.005135238 -0.0020160824
0.04474718 0.038857065 -0.08106671 0.052826412 -0.07026699 -0.08791925 0.081861354 0.050357603
0.07454253 -0.061308954 -0.0018733144 0.077843405 0.06057652 0.05040226 -0.06303583 -0.021470226
0.031233162 0.0035190582 -0.048500832 -0.04283597 -0.00539764 0.075796045 -0.010440245 -0.06982356
-0.04795025 -0.031290714 0.008351684 0.004165657 -0.008009553 -0.019608274 0.08651992 0.049692713
-0.07946176 -0.009015404 0.020584174 0.06361941 0.054087274 -0.01771409 0.047817715 -0.06704192
0.028807677 -0.04371963 -0.034776576 -0.054508362 0.06539824 0.013237394 0.07746627 -0.014399357
0.06250859 -0.014934838 -0.052642763 0.082252406 0.061632164 0.08391603 0.059028648 0.07301415
-0.004104167 -0.020889908 0.07438529 -0.061744586 -0.06818067 0.015055582 0.0373803 0.0030919686
-0.04740549 -0.049182918 -0.034141812 0.05342833 0.04633201 0.06942671 -0.012454428 0.069324665
-0.07046836 -0.00432235 -0.047683597 -0.044689946 -0.07708441 -0.02155491 -0.055514354 0.017564617
-0.004865393 -0.023928829 -0.052982833 -0.06501763 -0.04898921 0.03047201 -0.031731814 0.016850635
-0.078237005 0.062409617 0.02871728 -0.082560934 -0.052135367 -0.07634242 -0.011129595 0.060872488

4.bias f4 [64]
00000000: 0040 49bd e057 52bc a8a0 1bbc 0314 873d
00000010: 9abb 7b3d 118b 59bd a19d a63d 7410 873c
00000020: 2d20 3bbd 6410 993c c698 793d 0088 58bc
00000030: 8822 563c 5c02 5cbd 1063 d3bc 30b5 95bb
00000040: d03e 213c 5aad ecbc 3008 753c 007f a7bc
00000050: 140d fdbc edb4 823d c8e2 123c 5a14 213d
00000060: 9c9d d8bc 3cb4 26bd ab39 973d 9b07 983d
00000070: 22e5 263d f956 37bd 5079 123c b863 e83c
00000080: e616 a9bd d01b 5dbc f12e abbd 68bf 833c
00000090: cc49 96bd 20ce 7abd f037 3fbc 6f76 923d
000000a0: e02e 08bc b0f2 cc3c 02a2 b2bd ba9d 8abd
000000b0: a547 ae3d e62b 063d 783b 25bc 003a dbb9
000000c0: 64b5 8ebd fea3 1abd 9076 a93b 22b6 673d
000000d0: 743e e73c 96f7 253d 8430 f63c 2e3f 063d
000000e0: 5154 8abd 3af6 3a3d dc5c 12bd b12e a5bd
000000f0: 5ae6 343d bb5e 8ebd e465 6bbd 5612 263d
-0.0491333 -0.012838334 -0.009498753 0.06595614 0.061458208 -0.05311114 0.08135534 0.016487338
-0.045684982 0.018684573 0.06093671 -0.013216019 0.013069756 -0.053713188 -0.025804073 -0.0045687184
0.009841636 -0.028891254 0.014955565 -0.0204463 -0.030890025 0.06382165 0.008965202 0.03932605
-0.026442342 -0.04069923 0.07384046 0.07423326 0.04074586 -0.044760678 0.008940056 0.028367862
-0.08256321 -0.013495401 -0.08358563 0.01608248 -0.073382944 -0.061231732 -0.011671051 0.07151496
-0.008311957 0.025018066 -0.08722307 -0.06768365 0.08509759 0.03275671 -0.010084979 -0.00041814148
-0.06968191 -0.03775405 0.0051716045 0.05657018 0.028228022 0.04051932 0.03005243 0.032775097
-0.06754363 0.045644976 -0.03573309 -0.08065546 0.044164993 -0.06951662 -0.057470217 0.04054483

0.weight f4 [128, 64]
00000000: 6004 3d3d 75ff dd3d 971c b0bd 10db c7bb
00000010: a886 753d a36a 033e 1857 c43c 1ba1 7dbb
00000020: 1754 ee3d 65c4 7d3e c6de 263e a9d1 87be
00000030: 4961 41be 37b7 bebc b7c8 21be feda 49bd
00000040: 4a45 943d 5229 ecbd 39f2 143e 326b eb3c
00000050: 5000 08be e2ed ac3c 1d1f 75bd 7e48 ba39
00000060: 8621 ce3d 9a7d d23d 711a 12be b7a2 1d3e
00000070: 5090 9dbd 4762 50be 4e69 a9bb 6fb4 44bd
00000080: b40d 57be f919 7abd affe 6fbd db7a 0cbe
00000090: 332e 923d 3a4e 7ebd 3ac0 57bd 1f15 ce3d
000000a0: 6e78 0f3e 265e 60bd f323 693d 1abc a93d
000000b0: 8cd7 623e a1f5 973e cfdf ffbc 10dc 7fbe
000000c0: d0d9 173d fcd2 083e 638d fc3d 655d 49be
000000d0: 0a50 a0bd b734 903d 97ff 22be 8568 2bbd
000000e0: 126f dabd e4d4 c43d a80e e73d eff7 69bd
000000f0: 8282 c23d 8d60 ebbd 540d c13d d7dc 9dbd
00000100: 9555 5c3e 3af9 b63d 26f3 7a3e 6690 dabd
00000110: a7db 2e3c e4ea 36bd 6ba0 373b 5afb 8d3d
00000120: 1416 84bb db3a 00bb 47d3 10be 1490 cb3d
00000130: 2850 0bbe 0c00 923d 0d6c c23b 1fb2 e9bd
00000140: 18f2 48be c350 08bc 626a 2abd 0a40 b8bd
00000150: a525 e63d 5f3e 77be 1e14 153e ade2 2bbe
00000160: 6fcd c1bd 514d aebc 4998 c1bd d0d4 383e
00000170: 201b 873e 017b 23be e8df 0f3e 4c9a 943d
00000180: 0fe3 0dbe f024 24be 4564 0f3e 0d7c 18bc
00000190: 9f3e 203e fcb3 1c3d b2ec 06bd d754 d73d
000001a0: d209 c3bc 8033 e5bc fe29 d73d 058e e3bd
000001b0: 8094 a43c 4f87 2abe bd8d 96b9 f8dc f0bd
000001c0: 6c8b f73b dcbc cb3d c94c 0b3d 88a1 d63d
000001d0: c0fc 913c 2bc5 b93d 4987 4b3c 4e0d ce3d
000001e0: a4bf 5a3d 3bf1 8d3c 08bb 3dbb 2cdb a13c
000001f0: d8bf 553e 1c49 74be 56ab 39be f074 893c
00000200: fbf7 f8bd 93cf 873e c151 1d3e f57d c7bd
00000210: 8c40 0dbe 4c26 dc3d 54f9 b93d f1f3 e9b8
00000220: 01ce 67bd ff7e 9fbe 3e9f 57bc 8b9d e33d
00000230: b6ef 3dbd 97e4 bd3d 03ff ba3d 3207 33be
00000240: cbb3 353d 08d3 2f3e f111 203d 82d6 67be
00000250: e357 60bd 20a8 e13d 4c6a 9b3c 6bf8 133a
00000260: 2e7d b3bd 0e03 b23d 9030 19bd b0ae 35be
00000270: 90d6 71be f78f 80bb fce3 d33d 69dd b2bd
00000280: d1ec 043e 4a7d 053d 9064 233e d9e1 70bd
00000290: 8c0c 4a3e bcd9 613e 12cf ffbc f382 b83c
000002a0: d95d f43b 7408 b43c 85b1 10be 0db8 d7bc
000002b0: c215 50bd 32a6 0bbe 743c 813c e055 8c3d
000002c0: 7c4b 603e b2f8 71bc db50 01be 83ce 2ebc
000002d0: de19 093e 6f7f 0a3e 9abf 5ebe 9b33 8cbd
000002e0: a3cd e93d d2b9 3f3d 58f7 523e cc71 913c
000002f0: fa83 bfbd e190 14be fff2 903b 4178 98be
00000300: d69d 1f3e 884d 843c 6fd1 ad3d 349c a4bd
00000310: 51c8 4bbc c1ac ddbd 510d 93be 2699 913d
00000320: 5513 d33d c8ca ea3d c70e 223d f0ef fabd
00000330: a832 24be bbc0 60bd 11ea f1bd 38b8 983e
00000340: b430 cfbd d527 1b3e 3ada c2bc 8a51 bd3d
00000350: 7d40 463d 3e76 dd3d fb36 79be e463 663d
00000360: 7605 92bc e80e 9a3d 4767 ddbc 2782 be3d
00000370: 83e7 343d 0dad 9ebd f66b 67be 6576 9f3d
00000380: 305f 283e 2da0 613e a512 2b3d 50b1 223e
00000390: 6dc0 e03c ff20 eebc 4fb9 d4bd 2301 c5bd
000003a0: 7dfd 99bd 9472 703e 2fe6 aebd 2fa6 89bd
000003b0: 2b09 8ebd 432c 24be cb75 f7bd 219b 83bd
000003c0: ace2 003e 74ef db3c 108b 2f3d d64b 0b3e
000003d0: 91f1 313d a9be b6bc 7d48 b93d bf95 1fbe
000003e0: 1f18 40be 039b cabd 32f5 9b3c 39a2 e6bd
000003f0: 93b4 2bbe 769e a4bd 6fe2 1ebd 3ab5 403d
0.04614675 0.1083974 -0.08599203 -0.0060991123 0.05994287 0.12833647 0.02396731 -0.0038700763
0.116371326 0.2478195 0.16295919 -0.26527146 -0.18884768 -0.023280723 -0.15799223 -0.049281113
0.07239778 -0.11531319 0.14545526 0.028737638 -0.13281369 0.021109525 -0.059844125 0.00035530695
0.10064988 0.10277863 -0.14267899 0.15394102 -0.07693541 -0.2034999 -0.005170024 -0.048023637
-0.21001321 -0.061059926 -0.058592495 -0.1371874 0.07137718 -0.06208632 -0.052673556 0.10062622
0.14010784 -0.054777287 0.05691905 0.08287831 0.22152537 0.29679587 -0.03123465 -0.24986291
0.037072957 0.13361734 0.12331655 -0.19664533 -0.07827766 0.070413046 -0.15917812 -0.041847724
-0.10665716 0.09610918 0.11282092 -0.057121214 0.09497549 -0.11493025 0.0942637 -0.077081375
0.21517022 0.08934255 0.24506816 -0.10672073 0.010672486 -0.044657603 0.00280192 0.06932707
-0.004030952 -0.001956633 -0.14143096 0.0993959 -0.13604796 0.07128915 0.005933291 -0.11410927
-0.19623601 -0.008320036 -0.04160536 -0.089965895 0.11237649 -0.24144886 0.14558455 -0.16785689
-0.094630115 -0.021277102 -0.09452874 0.18049932 0.26387882 -0.15964891 0.14050257 0.07255992
-0.13856147 -0.16029716 0.14003094 -0.00930692 0.15648888 0.038257584 -0.032940574 0.10514229
-0.023808394 -0.027978659 0.10506056 -0.111110725 0.020090342 -0.16653179 -0.00028715833 -0.117608964
0.007554462 0.099481314 0.034008775 0.104800284 0.017820716 0.0907081 0.012422391 0.100611314
0.05340542 0.017326942 -0.002895059 0.01975783 0.20873964 -0.23856014 -0.18131766 0.016779393
-0.121566735 0.26525554 0.15363218 -0.09740821 -0.13794154 0.10749492 0.09080759 -0.000111557434
-0.056592945 -0.31151578 -0.013160525 0.11114033 -0.046371184 0.09272116 0.09130671 -0.17483214
0.044360917 0.17170346 0.03907961 -0.22640422 -0.054771315 0.110183954 0.018971585 0.0005644622
-0.087641105 0.08691989 -0.03739983 -0.17742419 -0.23617005 -0.003923412 0.10346219 -0.08733637
0.12980963 0.032590188 0.1595633 -0.058809135 0.19731349 0.22055715 -0.031226669 0.022523379
0.0074574766 0.021976687 -0.14130218 -0.02633288 -0.050802 -0.13637617 0.015775897 0.06852317
0.21903795 -0.014768766 -0.126285 -0.010669353 0.13388774 0.13525175 -0.21752778 -0.068457805
0.11416175 0.04680807 0.20602167 0.017754458 -0.093513444 -0.14508392 0.0044234986 -0.29779246
0.15587553 0.016150251 0.08487212 -0.08037606 -0.012437896 -0.10823966 -0.28721097 0.07109289
0.10306422 0.11464459 0.039564874 -0.12252796 -0.16034949 -0.054871302 -0.11812223 0.29828048
-0.10116711 0.15151913 -0.0237857 0.09244068 0.048401345 0.108135685 -0.2433738 0.056247607
-0.01782487 0.075223744 -0.027026786 0.09302168 0.0441661 -0.077478506 -0.22599778 0.07786254
0.16442561 0.22033758 0.041765828 0.15887952 0.027435506 -0.029068468 -0.10386907 -0.096193574
-0.07519052 0.23481208 -0.08539998 -0.0672115 -0.069353424 -0.1603251 -0.12083014 -0.06426073
0.12586468 0.026847579 0.04285723 0.13603148 0.043443266 -0.02230771 0.09047029 -0.15584467
-0.18759201 -0.098928474 0.019037817 -0.1126141 -0.16768102 -0.080380365 -0.038790163 0.04704783

0.bias f4 [128]
00000000: 0000 0000 0000 0000 0000 0000 0000 0000
00000010: 0000 0000 0000 0000 0000 0000 0000 0000
00000020: 0000 0000 0000 0000 0000 0000 0000 0000
00000030: 0000 0000 0000 0000 0000 0000 0000 0000
00000040: 0000 0000 0000 0000 0000 0000 0000 0000
00000050: 0000 0000 0000 0000 0000 0000 0000 0000
00000060: 0000 0000 0000 0000 0000 0000 0000 0000
00000070: 0000 0000 0000 0000 0000 0000 0000 0000
00000080: 0000 0000 0000 0000 0000 0000 0000 0000
00000090: 0000 0000 0000 0000 0000 0000 0000 0000
000000a0: 0000 0000 0000 0000 0000 0000 0000 0000
000000b0: 0000 0000 0000 0000 0000 0000 0000 0000
000000c0: 0000 0000 0000 0000 0000 0000 0000 0000
000000d0: 0000 0000 0000 0000 0000 0000 0000 0000
000000e0: 0000 0000 0000 0000 0000 0000 0000 0000
000000f0: 0000 0000 0000 0000 0000 0000 0000 0000
00000100: 0000 0000 0000 0000 0000 0000 0000 0000
00000110: 0000 0000 0000 0000 0000 0000 0000 0000
00000120: 0000 0000 0000 0000 0000 0000 0000 0000
00000130: 0000 0000 0000 0000 0000 0000 0000 0000
00000140: 0000 0000 0000 0000 0000 0000 0000 0000
00000150: 0000 0000 0000 0000 0000 0000 0000 0000
00000160: 0000 0000 0000 0000 0000 0000 0000 0000
00000170: 0000 0000 0000 0000 0000 0000 0000 0000
00000180: 0000 0000 0000 0000 0000 0000 0000 0000
00000190: 0000 0000 0000 0000 0000 0000 0000 0000
000001a0: 0000 0000 0000 0000 0000 0000 0000 0000
000001b0: 0000 0000 0000 0000 0000 0000 0000 0000
000001c0: 0000 0000 0000 0000 0000 0000 0000 0000
000001d0: 0000 0000 0000 0000 0000 0000 0000 0000
000001e0: 0000 0000 0000 0000 0000 0000 0000 0000
000001f0: 0000 0000 0000 0000 0000 0000 0000 0000
0.0 0.0 0.0 0.0 0.0 0.0 0.0 0.0
0.0 0.0 0.0 0.0 0.0 0.0 0.0 0.0
0.0 0.0 0.0 0.0 0.0 0.0 0.0 0.0
0.0 0.0 0.0 0.0 0.0 0.0 0.0 0.0
0.0 0.0 0.0 0.0 0.0 0.0 0.0 0.0
0.0 0.0 0.0 0.0 0.0 0.0 0.0 0.0
0.0 0.0 0.0 0.0 0.0 0.0 0.0 0.0
0.0 0.0 0.0 0.0 0.0 0.0 0.0 0.0
0.0 0.0 0.0 0.0 0.0 0.0 0.0 0.0
0.0 0.0 0.0 0.0 0.0 0.0 0.0 0.0
0.0 0.0 0.0 0.0 0.0 0.0 0.0 0.0
0.0 0.0 0.0 0.0 0.0 0.0 0.0 0.0
0.0 0.0 0.0 0.0 0.0 0.0 0.0 0.0
0.0 0.0 0.0 0.0 0.0 0.0 0.0 0.0
0.0 0.0 0.0 0.0 0.0 0.0 0.0 0.0
0.0 0.0 0.0 0.0 0.0 0.0 0.0 0.0

2.weight f4 [128, 128]
00000000: cb5d e5bc 4997 963b 190e 9e3d 3b84 1abc
00000010: 9301 b6bd 2629 733d 96b8 fdbd b4da fb3a
00000020: a01d c9bd 7a38 953d f35e 683d 0edc de3b
00000030: eca0 c53d 3d3c 4cbc 2f50 33bd 23da 3d3e
00000040: aed7 563e 16bd 8bbd ed4b 823e ca6e 473d
00000050: f97e 83bc 6d1b ebbd 66a2 f7bc 271c a83d
00000060: 906d cebe f440 76bd aaea 55be c725 22be
00000070: 18c8 2abe 7efc 333d ff91 babd f900 513e
00000080: 16ea be3d 2728 873d b6e5 023e 06e9 b0be
00000090: eae1 633e 3caf 553d 1d30 fdbd 0db3 e7bc
000000a0: a883 263d 8aa1 42bd 688d a1bd f269 cebd
000000b0: ab0f 2b3e 0931 85bd a4b0 1bbe 3a8b a33d
000000c0: 27bc 2bbd 5cdd e4bd 498d 623c 899d eebd
000000d0: 93be e93c 732a 703d 8110 b33d 87ef b9bc
000000e0: e205 09be 7ccc 873d 9732 eabd 0b02 9b3d
000000f0: 93bf bebd a0c8 e4bd 9577 0dbe 3790 6f3b
00000100: 146a 7abe e3f0 4b3d 9155 3dbe f43b 343d
00000110: 4f21 293d 4745 ffbd dece 503e 7d77 5b3e
00000120: 34de 9e3e c740 0c3d a15e fe3d 4655 e93d
00000130: e520 c93c 49c6 323e 5d51 103d ccb0 033e
00000140: d8c6 02be d68a e53d 7885 fbbd 41dd 213d
00000150: 24f4 ba3d b757 c73d ccee f7bd 7626 f4bd
00000160: 7db1 a8bc dac6 ed3d 9656 a6bd c994 b43a
00000170: 4d00 3f3e 0994 893b 87c3 673e c4ae 3dbc
00000180: c2a1 12be 43d4 41be 4840 a33d 2f2b bcbc
00000190: 5db0 72be 4ef1 28be 1571 fb3d f527 833d
000001a0: cfb6 73bd 7c97 403d ed13 9e3d 92eb a2bd
000001b0: f65b 37be 9e4c 353e 38a2 12bd b4dc 04be
000001c0: 01f9 843e 27f0 7b3d 5c46 fcba 6c96 17be
000001d0: 8d55 833d 7469 2cbe 11cf ba3d b928 7b3c
000001e0: d2ba 06be 664f 803d 0edd 0bbe 7117 af3d
000001f0: 01de 023c a704 833d 7384 493d 008c 0cbc
00000200: d35b 9e3e de2d 883d 00c8 ec3c efbf dbbc
00000210: 73bb 613d 8420 1b3c 232a 47bd 235a 26bd
00000220: 583c e43d 9ce0 2cbd 2502 3fbe ba9b 013c
00000230: 4e18 72be ca3a 173e 549c fbbc 1973 bc3d
00000240: fd96 1c3c dc41 0fbe bf9c 383e d456 afbd
00000250: 5b22 29be 9288 f83c 235e 483d 0d47 a3bd
00000260: 425d ea3b 1a70 07be 52d9 533e b54f 3f3e
00000270: 97eb be3d 4450 313e f5d0 aabd db2b b2bd
00000280: f24e 8abd f18c 9fbd a0cb 0c3d 2a5b 253e
00000290: eee0 c33c d164 5e3d e389 65be de93 d9bd
000002a0: a13d 46bc d831 0e3e 0b2c 543c cf45 903d
000002b0: d378 20bd 4e41 45be 734c 15bd b700 cd3c
000002c0: aa22 9ebe 277e 1b3e e7b1 27be 1c41 81be
000002d0: c27e 8d3d 3635 d23d f9b4 aa3d acf7 813d
000002e0: 5d34 363d 057c 943e 9129 40be 3cac 8fbd
000002f0: 94e3 373c 135b 1f3e 6f53 aabc 2078 45bd
00000300: ceb6 63bd 2707 6dbd 6f34 40bc 8268 473e
00000310: 28a0 623e 7e71 113d 2945 00be 0301 033d
00000320: 4d5d 383c 26a4 3a3c a195 5cbe 71c2 a03d
00000330: 73fd 403e caab 22bd 7259 7bbe 48b7 cfbd
00000340: 8cb7 70bc d36d a4bd 203b dbbd 7912 183c
00000350: c540 3cbd 3cb0 b73c 082a 003d 69f5 b7bd
00000360: 02dd 5ebe 7d46 b53d d351 74bd b270 bdbd
00000370: 969f 16bd 1e39 89bd 4a69 1e3e 8268 98bb
00000380: 552e b1bc 295b 02be 184d 18be 7fac bd3c
00000390: d517 be3d 8ba1 3dbc 852b ecbd 572e 613d
000003a0: d932 eb3d 2b67 7d3d 6285 9bbd 07f2 943c
000003b0: 4519 9b3d fd74 e23d b406 623c 0a07 3a3d
000003c0: 4eb8 40bd 9475 803e 3a22 c53d 186a 8fbc
000003d0: 1d24 863e 7579 3dbe 08ea a9bd e50d 5f3e
000003e0: 2040 c6bd d089 21bd b22a 903e d964 d03d
000003f0: 1db7 01be 3cf4 8c3e c391 823d f6f7 0abe
-0.027998826 0.0045956713 0.07717533 -0.00943094 -0.08887019 0.059365414 -0.123887226 0.0019214959
-0.09820104 0.07286163 0.056731176 0.006801135 0.09649834 -0.012465534 -0.04377764 0.18540244
0.20980713 -0.06823175 0.25448552 0.04868964 -0.016051756 -0.114798404 -0.030228805 0.08208495
-0.40317965 -0.060120538 -0.20890298 -0.15834723 -0.16677892 0.043941967 -0.09109878 0.20410527
0.09321992 0.06599455 0.1278294 -0.34552783 0.22254148 0.05216907 -0.123626925 -0.02828362
0.0406529 -0.047517337 -0.07888299 -0.10078801 0.16705196 -0.06503493 -0.15204102 0.0798554
-0.041927483 -0.111750335 0.01382763 -0.11651141 0.028533256 0.058634233 0.08743382 -0.022697223
-0.1338115 0.06630799 -0.114354305 0.07568749 -0.09313884 -0.11171079 -0.13815148 0.0036554465
-0.24454528 0.049790274 -0.18489672 0.04400249 0.04129153 -0.124643855 0.20391414 0.214323
0.31028903 0.034241464 0.12420393 0.11393218 0.024551818 0.17458452 0.035233844 0.12860411
-0.12771165 0.112081215 -0.122813165 0.039517645 0.091285974 0.09733527 -0.12106094 -0.11921398
-0.020592446 0.116101936 -0.08121984 0.0013777252 0.18652458 0.0041985554 0.22633182 -0.011577312
-0.14319518 -0.18928628 0.07971245 -0.02296981 -0.2370009 -0.164983 0.12277428 0.064041056
-0.05950051 0.047019467 0.07718644 -0.07955088 -0.17906174 0.17705008 -0.035799235 -0.12974817
0.25971225 0.061508324 -0.0019247043 -0.14803475 0.06412802 -0.16837102 0.09121526 0.015329533
-0.13157204 0.06265144 -0.13658544 0.08549393 0.0079875 0.06397372 0.04919858 -0.0085783005
0.3092943 0.066493735 0.028903961 -0.02682492 0.055110406 0.009468202 -0.04862417 -0.040613305
0.11144322 -0.04220639 -0.18653162 0.007910663 -0.23642084 0.1476852 -0.030714191 0.09201641
0.009557483 -0.13989967 0.18028544 -0.08561483 -0.16517012 0.03033856 0.0489179 -0.07972536
0.0071522305 -0.13226357 0.2068837 0.1868275 0.09322279 0.17315775 -0.08340637 -0.08699771
-0.06753339 -0.07790554 0.03437388 0.16148058 0.023910966 0.054295365 -0.22415881 -0.106239066
-0.012099654 0.13886201 0.012949954 0.07044565 -0.039177727 -0.19263193 -0.03644986 0.025024755
-0.30885822 0.15184842 -0.16376458 -0.25244987 0.06908943 0.102640554 0.08335299 0.06346068
0.04448353 0.2900087 -0.18765856 -0.07015273 0.011223692 0.15562086 -0.020791737 -0.048210263
-0.055594258 -0.05786815 -0.011731251 0.1947346 0.22131407 0.035508625 -0.12526383 0.031983387
0.011252713 0.011391675 -0.21541454 0.07849587 0.18846683 -0.039714612 -0.2454584 -0.1014238
-0.0146921985 -0.0802876 -0.107046366 0.009281748 -0.045960207 0.022422902 0.031290084 -0.08982355
-0.21763995 0.08851335 -0.059648346 -0.092500106 -0.036773287 -0.06700347 0.15469852 -0.00465113
-0.021628538 -0.12730087 -0.14873159 0.023153542 0.09281889 -0.011574159 -0.11531738 0.054975834
0.11484308 0.061865967 -0.075938 0.018181814 0.07573179 0.1105747 0.013795543 0.04541687
-0.047050767 0.25089705 0.09625669 -0.017506644 0.26199427 -0.18503363 -0.08296591 0.21782644
-0.096801996 -0.03943807 0.28157574 0.10175485 -0.12667508 0.27530086 0.06375458 -0.13571152

2.bias f4 [128]
00000000: 0000 0000 0000 0000 0000 0000 0000 0000
00000010: 0000 0000 0000 0000 0000 0000 0000 0000
00000020: 0000 0000 0000 0000 0000 0000 0000 0000
00000030: 0000 0000 0000 0000 0000 0000 0000 0000
00000040: 0000 0000 0000 0000 0000 0000 0000 0000
00000050: 0000 0000 0000 0000 0000 0000 0000 0000
00000060: 0000 0000 0000 0000 0000 0000 0000 0000
00000070: 0000 0000 0000 0000 0000 0000 0000 0000
00000080: 0000 0000 0000 0000 0000 0000 0000 0000
00000090: 0000 0000 0000 0000 0000 0000 0000 0000
000000a0: 0000 0000 0000 0000 0000 0000 0000 0000
000000b0: 0000 0000 0000 0000 0000 0000 0000 0000
000000c0: 0000 0000 0000 0000 0000 0000 0000 0000
000000d0: 0000 0000 0000 0000 0000 0000 0000 0000
000000e0: 0000 0000 0000 0000 0000 0000 0000 0000
000000f0: 0000 0000 0000 0000 0000 0000 0000 0000
00000100: 0000 0000 0000 0000 0000 0000 0000 0000
00000110: 0000 0000 0000 0000 0000 0000 0000 0000
00000120: 0000 0000 0000 0000 0000 0000 0000 0000
00000130: 0000 0000 0000 0000 0000 0000 0000 0000
00000140: 0000 0000 0000 0000 0000 0000 0000 0000
00000150: 0000 0000 0000 0000 0000 0000 0000 0000
00000160: 0000 0000 0000 0000 0000 0000 0000 0000
00000170: 0000 0000 0000 0000 0000 0000 0000 0000
00000180: 0000 0000 0000 0000 0000 0000 0000 0000
00000190: 0000 0000 0000 0000 0000 0000 0000 0000
000001a0: 0000 0000 0000 0000 0000 0000 0000 0000
000001b0: 0000 0000 0000 0000 0000 0000 0000 0000
000001c0: 0000 0000 0000 0000 0000 0000 0000 0000
000001d0: 0000 0000 0000 0000 0000 0000 0000 0000
000001e0: 0000 0000 0000 0000 0000 0000 0000 0000
000001f0: 0000 0000 0000 0000 0000 0000 0000 0000
0.0 0.0 0.0 0.0 0.0 0.0 0.0 0.0
0.0 0.0 0.0 0.0 0.0 0.0 0.0 0.0
0.0 0.0 0.0 0.0 0.0 0.0 0.0 0.0
0.0 0.0 0.0 0.0 0.0 0.0 0.0 0.0
0.0 0.0 0.0 0.0 0.0 0.0 0.0 0.0
0.0 0.0 0.0 0.0 0.0 0.0 0.0 0.0
0.0 0.0 0.0 0.0 0.0 0.0 0.0 0.0
0.0 0.0 0.0 0.0 0.0 0.0 0.0 0.0
0.0 0.0 0.0 0.0 0.0 0.0 0.0 0.0
0.0 0.0 0.0 0.0 0.0 0.0 0.0 0.0
0.0 0.0 0.0 0.0 0.0 0.0 0.0 0.0
0.0 0.0 0.0 0.0 0.0 0.0 0.0 0.0
0.0 0.0 0.0 0.0 0.0 0.0 0.0 0.0
0.0 0.0 0.0 0.0 0.0 0.0 0.0 0.0
0.0 0.0 0.0 0.0 0.0 0.0 0.0 0.0
0.0 0.0 0.0 0.0 0.0 0.0 0.0 0.0

4.weight f4 [64, 128]
00000000: c7a6 443e 85ff d83d 8dc3 8fbd a0d2 423e
00000010: fb7f 8e3c c0aa a63c 0b16 403d cdc2 2f3e
00000020: 05b7 8f3d 500e 07bd 0ba0 a5bb de25 053e
00000030: 23a2 1ebe c0bb 1c3e f319 34bd 5a62 da3c
00000040: 9331 263d 083b c8bc 658d f3bc f842 9d3d
00000050: 803d aa3c 5626 88be 5d4a 163e 532a 85bc
00000060: 3201 7ebe 6906 cd3d 892c 163e ca3e 6e3d
00000070: 0a23 17be b64e 16be bcca 4e3d 4f92 5abd
00000080: 5d1e ccbc cedc 9dbd cea6 383e 94cd c2bc
00000090: ee88 b53d 3319 e53d 18e1 c3bd 0e53 efbd
000000a0: d8f7 40bd 37cb 043d 98b2 383d 568c 8fbd
000000b0: a716 bf3d af82 aabe 1c04 b33d 3dec cbbd
000000c0: 4058 183c 6eb9 9a3d ff1f 62bc f329 25be
000000d0: f744 003e a562 553e d329 13bd 5a9b 9fbd
000000e0: 6443 063b 892a 143d 32d7 47be 46d9 5ebd
000000f0: 909b 4abd 93e4 61bd 2499 573d d931 883e
00000100: d900 40bc d5c8 1d3e a0fa f53c 5d52 2a3e
00000110: 8b22 1f3e dfe1 9dbd 6418 723e 406d aa3b
00000120: c42d e73a 68a6 b83d 945d d2bb 592c 863e
00000130: 84b3 cd3d 7c75 363d 8fa3 ea3d e1e4 78be
00000140: ef78 f8bd 0636 5fbd 4910 ddbd 5b3f 1b3d
00000150: 3608 273d 2709 4b3c 07fb db3d 36af a2be
00000160: f3f0 1c3e b4fc 5ebe 5e25 33be 01d0 16bd
00000170: 8612 75bc d90a ff3c 8d47 703d af0c 9f3c
00000180: 86f4 f73d d185 193d b859 ae3e af92 7abd
00000190: 4b6a 68bd f7a4 103e 59fb 92bd 8220 00bd
000001a0: 9490 863b 06e9 863c 073b 113e 742d 133e
000001b0: 1054 23bd 3410 21be fc08 e93c 17da 67bc
000001c0: 3dc0 8b3b d882 833d f0e3 72be 49f6 f73b
000001d0: 92cf 1a3d 3573 343e ef03 df3d 2b5e 7e3e
000001e0: f6f3 d7bc 3451 8fbd b31d bbbc b8dd 64be
000001f0: c652 5dbe 3201 d13d dfaf 8b3d 5710 47be
00000200: b386 51be cbe8 70bd c30c 36be 4554 cfbd
00000210: f46e c8bd 4f36 973d e44b 603c af05 06be
00000220: bc33 383e 6126 ccbc 22b5 893c a51e 553e
00000230: 7e76 cd3d 0673 e73c 7ca1 84be 4f8b c23d
00000240: 5fba 03be 0098 92bc 0a23 363b d713 56be
00000250: 9825 e8bd 7dbc 0cbd c2dc 58bc b87e 163d
00000260: 7fd8 4a3d ec68 3a3e e6a0 99bd 44a3 79be
00000270: 6d7f 683e 8744 0dbe 9288 e4bd 1757 753e
00000280: a342 e6bd 2c07 923d 9cf4 a2bc dc20 643d
00000290: 61b7 143e feac cb3d 9fda 5c3d 5b1d d8bd
000002a0: 984f 5e3e 3df7 f43c f443 5c3e df62 a4be
000002b0: ec49 55be dd35 02bc d04d 53bb 5c7b 1c3e
000002c0: 255c 203e 3944 c0bd 2a98 8fbe 1c0b 4fbd
000002d0: c247 043e ef0a babd 329f fe3c cd8a 7b3d
000002e0: d238 c8bc a445 f4bd ccf3 6dbd aed6 e83d
000002f0: cff6 35be 9245 07be 7ad2 a93d 9cd7 303e
00000300: d6fd 423e 1891 043e 3bb2 84bd 853a ea3d
00000310: 9397 2c3e d165 25ba baca 84bb 9851 023e
00000320: 0ea8 80be 45bb 673e b6ea 0cbe 4645 6f3d
00000330: 9dae ec3b 7689 713d ba3a ab3d 0231 d5bc
00000340: 2808 26be 9a21 6dbd e91b bebd 9499 c1bc
00000350: e195 9d3d 792f b03d 3265 ae3c 0b8d d23d
00000360: 323f 0a3d 261a 523d 7e95 50bd 9810 9f3d
00000370: 2cc6 813e ecb0 99bd 2314 f83d 224c bc3d
00000380: 54db 2d3b aa1e f23d 6cfc e6bd 6d0c 0c3e
00000390: 093f 523e cdf9 a4bd 7cf5 513d 00cf ca3d
000003a0: 5289 153d dbfb a0bd d91a babd 0fce 053e
000003b0: 2cd5 a4bd 7810 863e c9b3 e63d eb25 92bc
000003c0: c120 c8bc 1f85 7d3e ef9e 353d 1849 ae3d
000003d0: 47f1 1abd 86e3 92bc b302 b63d 503c 89bc
000003e0: a810 733c 27cf 0a3d e680 373e 98d2 a2bd
000003f0: 3d3b b33c 60be eabd 3823 d83d ebd7 7c3d
0.19204246 0.105956115 -0.0701972 0.1902566 0.01739501 0.020345092 0.04689602 0.17164154
0.0701733 -0.032972634 -0.005054479 0.13002726 -0.15491538 0.15305996 -0.04397006 0.026658226
0.04057462 -0.02444221 -0.029730508 0.07678789 0.020781279 -0.26591748 0.14676805 -0.016255533
-0.24805143 0.10010988 0.14665426 0.05816535 -0.1475946 -0.14678463 0.05048631 -0.053362187
-0.024916822 -0.07708131 0.18032381 -0.023779668 0.08864008 0.11186447 -0.095644176 -0.11685763
-0.047111362 0.032420363 0.045092195 -0.07009189 0.093304925 -0.3330283 0.08741018 -0.09957168
0.009298384 0.07554899 -0.013801574 -0.16129284 0.12526308 0.20838411 -0.03592856 -0.07793303
0.0020486945 0.036173377 -0.19515684 -0.054406427 -0.049464762 -0.055149626 0.05263628 0.2660053
-0.011718952 0.15408643 0.030026734 0.16632982 0.15540521 -0.07709097 0.23642117 0.005201012
0.0017637541 0.090161145 -0.006419847 0.2620571 0.100440055 0.044545636 0.114569776 -0.2430606
-0.12132441 -0.05449488 -0.10794122 0.037902217 0.040779315 0.012392319 0.10741239 -0.317743
0.1532629 -0.21776086 -0.17494723 -0.03681946 -0.01495803 0.031133102 0.058661986 0.019415228
0.12107186 0.037481133 0.34052825 -0.061175045 -0.056741994 0.14125429 -0.07176847 -0.031281002
0.0041065905 0.016468536 0.14182673 0.14372808 -0.03987509 -0.15728837 0.028446667 -0.014151118
0.00426486 0.06421441 -0.23719764 0.0075672013 0.03779561 0.17622073 0.10889422 0.2484061
-0.026361447 -0.0699791 -0.02284131 -0.22350204 -0.21613607 0.10205306 0.06820654 -0.19439827
-0.2046154 -0.05881576 -0.17778306 -0.10123495 -0.09786788 0.073834054 0.013689969 -0.13088106
0.17988485 -0.024920644 0.016810004 0.20812471 0.10032366 0.02825309 -0.25904453 0.09499227
-0.12864064 -0.017894745 0.002779188 -0.20906006 -0.113352954 -0.034359444 -0.0132362265 0.036741942
0.049522873 0.18204087 -0.07501392 -0.24378687 0.22704859 -0.13795672 -0.11158861 0.23959003
-0.11243179 0.07130274 -0.01989203 0.0556954 0.14523079 0.09945105 0.05391943 -0.10552474
0.2171005 0.029903049 0.21510297 -0.32106683 -0.2082898 -0.007947412 -0.0032242425 0.15281433
0.1566015 -0.093880124 -0.2804578 -0.050547704 0.12917998 -0.09084117 0.03108177 0.061411668
-0.024441157 -0.119273454 -0.05809383 0.11369072 -0.17769931 -0.13210133 0.08292098 0.17269748
0.19042143 0.12945974 -0.06479307 0.11436943 0.16854696 -0.00063094223 -0.004052487 0.12726438
-0.25128216 0.22630031 -0.1376141 0.058415674 0.007222964 0.058968984 0.083608106 -0.026024345
-0.16214049 -0.057893373 -0.09282667 -0.023632802 0.07694603 0.08602805 0.021288488 0.10280808
0.033751674 0.05129447 -0.050923817 0.07766837 0.25346506 -0.07504448 0.12113216 0.09194209
0.0026528435 0.11822255 -0.112786144 0.13676615 0.20531859 -0.08055458 0.051259503 0.09902763
0.036507912 -0.078605376 -0.09087152 0.13066886 -0.08048472 0.2618444 0.1126476 -0.017840346
-0.02442968 0.24757813 0.044341024 0.08510035 -0.037827756 -0.017930757 0.088872336 -0.016752392
0.014835514 0.033888962 0.17920265 -0.07950324 0.021878833 -0.114620924 0.105535924 0.061729353
