dheera_v0.3.1/dheera_v3.1/checkpoints/dheera_20251212_171354_curiosity.pt (torch, 540046 bytes, 24 tensors)

0.weight f4 [128, 64]
0.100703865 -0.001892624 -0.041775063 -0.09380541 0.046649087 -0.0071159876 0.11965087 0.0072182687
-0.03909003 -0.034903117 0.091593534 -0.07486645 -0.03782098 0.008480083 0.0609278 0.0341548
-0.0068669333 0.019353202 0.0008634567 -0.07064704 -0.08251957 0.06740888 -0.038424823 0.067233115
-0.060071938 -0.0039483737 0.018225186 -0.032407068 0.06659402 0.06720706 -0.056150965 -0.11159003
-0.11564149 -0.05138364 -0.042889584 0.04709875 -0.07777364 0.1054113 -0.015194755 0.07588291
-0.11350379 0.0356602 0.048467916 0.025156915 0.008046315 0.0057957107 -0.11985524 -0.09857648
0.041842908 -0.05939409 0.086861975 0.11432274 0.07609237 0.113573454 -0.0979239 -0.060024742
-0.063660115 0.11890321 0.05304355 0.02821047 -0.017242616 -0.061372288 -0.09944124 -0.11806811
-0.020692607 0.04504821 0.0768236 0.09228009 0.11028702 0.044303298 -0.0048428136 -0.026658056
0.008776745 0.076218605 0.05445576 -0.07092788 0.020644164 -0.013475981 0.06322334 -0.086918995
-0.08354948 -0.054182775 -0.07289576 0.098592006 0.055219773 0.00512469 -0.044142917 -0.06591701
-0.09465993 -0.11734722 0.061683536 -0.012948328 0.11522231 -0.008350458 0.089283936 -0.088540725
0.027957758 -0.013304662 0.049478166 0.041813407 0.115105815 0.11311126 -0.043560263 -0.068809874
-0.035357963 0.10392011 0.08537536 0.037625693 0.055232134 0.078635275 -0.09631209 -0.10020146
-0.015903162 -0.05285172 -0.031062512 -0.08772242 0.012355823 0.063086465 0.046484612 -0.084973924
-0.004707733 0.06425166 -0.008771833 0.0108178295 -0.022079805 -0.057196777 -0.10787454 -0.021571243
-0.0148821445 0.037416946 -0.0020227686 -0.059459955 0.10102272 0.05517729 0.06412381 -0.07801777
0.03398858 -0.024242382 -0.020422358 0.09084486 -0.046658557 0.06825864 0.05418062 0.015971912
0.086182006 0.054799065 0.09051165 0.0054814955 -0.09272558 -0.067296505 -0.060447846 -0.051549766
-0.11728505 0.11758212 -0.08296052 0.098707795 0.0013021701 0.0413102 -0.08994479 0.11232458
-0.04507626 0.067692615 -0.014870392 -0.1250474 0.05576268 0.11087674 -0.08067224 -0.030133737
-0.029205237 -0.0062361397 -0.08358741 0.08045195 -0.09154858 -0.052401423 0.12476501 -0.06885164
0.059488174 -0.11373639 -0.038902573 0.02420894 0.02661459 -0.09810294 -0.11915461 0.1030692
0.08668476 0.045720875 0.10701415 0.018013982 -0.06556879 -0.087861404 0.11003026 -0.035556003
0.012831369 -0.06387169 -0.097447194 0.09924338 -0.008954589 0.038935665 -0.12191982 0.08339962
0.06117095 -0.034457047 0.019862494 0.04304213 -0.11451052 -0.101450756 -0.1247306 -0.01030647
0.083448105 0.07517794 0.08740502 0.09823066 -0.06508179 0.07866007 -0.04977585 0.034302857
0.005594064 0.033423647 0.08094672 -0.017538305 0.008722778 -0.0074161766 -0.045202848 -0.018824568
-0.10348772 0.029349927 0.062180508 0.07612822 0.07865053 -0.04343608 0.05061575 -0.0040665064
-0.045255624 0.10508057 -0.046968672 0.10113198 -0.02195632 -0.04709156 0.07024141 -0.04939039
-0.08778096 0.038713556 0.09410604 -0.06378689 0.020985497 -0.105895795 0.11412594 -0.08550187
0.09108958 -0.06219095 -0.077797405 -0.11166396 0.06486995 0.050147116 -0.040045187 -0.124986626
00000000: d43d ce3d ec11 f8ba 541c 2bbd 0d1d c0bd
00000010: 1d13 3f3d 3b2d e9bb 840b f53d 3a87 ec3b
00000020: de1c 20bd 92f6 0ebd 6495 bb3d 9553 99bd
00000030: 2cea 1abd 0cf0 0a3c 6e8f 793d e7e5 0b3d
00000040: 0304 e1bb 9b8a 9e3c 9959 623a 65af 90bd
00000050: 0500 a9bd ab0d 8a3d 5963 1dbd 84b1 893d
00000060: fe0d 76bd 5c61 81bb fc4c 953c 46bd 04bd
00000070: 7262 883d dba3 893d 8efe 65bd 5089 e4bd
00000080: 72d5 ecbd a777 52bd fdac 2fbd 9eea 403d
00000090: c947 9fbd e1e1 d73d 6cf3 78bc 8068 9b3d
000000a0: ad74 e8bd 6e10 123d 4b86 463d e015 ce3c
000000b0: b1d4 033c f2e9 bd3b aa76 f5bd 77e2 c9bd
000000c0: 7863 2b3d 3847 73bd b1e4 b13d 0a22 ea3d
000000d0: 51d6 9b3d 3399 e83d 538c c8bd 81dc 75bd
000000e0: 3c60 82bd 8783 f33d 3244 593d a519 e73c
000000f0: 6340 8dbc 8261 7bbd d9a7 cbbd b1cd f1bd
00000100: 8b83 a9bc 7984 383d b155 9d3d 58fd bc3d
00000110: 29de e13d 6077 353d 77b0 9ebb ff61 dabc
00000120: 56cc 0f3c 8018 9c3d 010d 5f3d a342 91bd
00000130: f31d a93c 5cca 5cbc 3d7b 813d 9602 b2bd
00000140: fd1b abbd c2ee 5dbd 5f4a 95bd 9bea c93d
00000150: 212e 623d 04ed a73b 34cf 34bd 7fff 86bd
00000160: 11dd c1bd bd53 f0bd e0a7 7c3d 3925 54bc
00000170: adf9 eb3d 5cd0 08bc 7fda b63d d754 b5bd
00000180: ab07 e53c ccfb 59bc 9ea9 4a3d 8944 2b3d
00000190: 99bc eb3d e0a6 e73d 3f6c 32bd 31ec 8cbd
000001a0: 83d3 10bd 11d4 d43d 47d9 ae3d 661d 1a3d
000001b0: 173b 623d 880b a13d 463f c5bd 6c36 cdbd
000001c0: 5947 82bc 0c7b 58bd cf76 febc d0a7 b3bd
000001d0: 1470 4a3c 7a33 813d a666 3e3d cf06 aebd
000001e0: 5443 9abb 6096 833d bcb7 0fbc 443d 313c
000001f0: b5e0 b4bc 2b47 6abd 54ed dcbd 2db6 b0bc
00000200: 3dd4 73bc 8342 193d 6d90 04bb 488c 73bd
00000210: 00e5 ce3d 9501 623d 5853 833d c8c7 9fbd
00000220: 9c37 0b3d f697 c6bc ca4c a7bc df0c ba3d
00000230: 0b1d 3fbd 30cb 8b3d 7fec 5d3d 87d7 823c
00000240: 3180 b03d fc74 603d 2c5e b93d 1e9e b33b
00000250: e9e6 bdbd c0d2 89bd 2998 77bd d925 53bd
00000260: 2533 f0bd e5ce f03d 35e7 a9bd 5027 ca3d
00000270: 94ad aa3a e234 293d f934 b8bd 6e0a e63d
00000280: e2a1 38bd 6da2 8a3d f2a2 73bc 6d0c 00be
00000290: 6867 643d 5813 e33d 7d37 a5bd 07db f6bc
000002a0: d23f efbc 8858 ccbb e02f abbd fec3 a43d
000002b0: d27d bbbd e0a2 56bd cc84 ff3d 1702 8dbd
000002c0: dfa9 733d a0ee e8bd 4e58 1fbd d451 c63c
000002d0: d706 da3c 32ea c8bd 5507 f4bd f215 d33d
000002e0: c887 b13d d045 3b3d 3c2a db3d 0f92 933c
000002f0: ee48 86bd aef0 b3bd 8c57 e13d 2ca3 11bd
00000300: aa3a 523c 29cf 82bd 6592 c7bd 1d40 cb3d
00000310: 45b6 12bc 017b 1f3d 19b1 f9bd 6ccd aa3d
00000320: 648e 7a3d d522 0dbd abb6 a23c f24c 303d
00000330: 7e84 eabd 6ac5 cfbd c272 ffbd 78dc 28bc
00000340: d7e6 aa3d e4f6 993d 6701 b33d 282d c93d
00000350: 9a49 85bd 8818 a13d c3e1 4bbd 2781 0c3d
00000360: 694e b73b 3ce7 083d 65c7 a53d 7eac 8fbc
00000370: fce9 0e3c 6603 f3bb 9f26 39bd fb35 9abc
00000380: 5ff1 d3bd 426f f03c fdb0 7e3d 1de9 9b3d
00000390: 8713 a13d 08ea 31bd 7652 4f3d 5440 85bb
000003a0: f65d 39bd 7b34 d73d 3962 40bd 491e cf3d
000003b0: bedd b3bc 14e3 40bd bada 8f3d 944d 4abd
000003c0: 81c6 b3bd 1b92 1e3d abba c03d b3a2 82bd
000003d0: c7e9 ab3c e5df d8bd dcba e93d 9b1b afbd
000003e0: 2c8d ba3d f0bb 7ebd 3f54 9fbd 13b0 e4bd
000003f0: 89da 843d 1067 4d3d 6c06 24bd fdf8 ffbd

0.bias f4 [128]
0.04353732 -0.10586002 0.052978735 0.07556459 -0.11549348 0.07020007 -0.035654884 0.0488836
-0.07229401 0.0771871 0.093637176 -0.058457665 0.082556106 -0.034673877 -0.0019172515 -0.07889282
-0.011194238 -0.031623416 0.055237163 0.072102346 0.08792616 0.12065491 -0.059411615 -0.027772294
0.11991498 -0.0069443365 -0.041255556 0.108522005 0.061387427 -0.005308452 0.0677305 -0.018779147
-0.11219564 0.0033256689 -0.10317453 -0.06209829 -0.103538595 0.11492031 0.041755892 0.031039001
-0.008116848 -0.05307948 0.10942898 -0.036636658 0.09128363 0.038883604 0.05546111 0.10785838
-0.056116268 -0.044470523 -0.12177244 0.021181075 0.07741348 0.04800348 -0.047215763 -0.04898869
0.0036157756 -0.05879089 -0.100934535 0.01595119 0.07168882 0.059407085 -0.0532482 -0.009252573
0.081570916 -0.12041693 -0.11696461 -0.08760486 -0.01040738 0.10373456 -0.07226517 -0.0797952
0.06779978 0.010060909 0.08741593 -0.03771302 0.021612186 -0.112616636 -0.09784548 -0.025442287
-0.124128744 0.11308549 0.07438665 0.018026834 -0.05641749 0.03470831 0.11079617 -0.10426905
0.10811509 0.06084946 -0.016914258 0.024211006 0.102230124 -0.049682338 -0.1130288 -0.10410183
0.011827092 -0.03686492 -0.11896506 0.0334217 -0.06463831 -0.03144479 -0.09665649 -0.060414623
0.11505124 0.11221726 -0.10675375 -0.09936664 -0.034874585 -0.091714285 0.008389443 0.012227304
-0.0010739162 -0.11957415 -0.07578329 -0.023619456 0.036157712 -0.04987643 0.02965608 -0.0061252583
0.050018486 0.07983675 0.06605113 0.09591104 0.0669147 -0.1109134 0.09570956 -0.026916996
00000000: 3054 323d 23cd d8bd 3b00 593d 9cc1 9a3d
00000010: d887 ecbd 0ec5 8f3d db0a 12bd 2b3a 483d
00000020: e20e 94bd 4514 9e3d d9c4 bf3d 4e71 6fbd
00000030: 2d13 a93d 3206 0ebd 494c fbba 8f92 a1bd
00000040: 0a68 37bc 8e87 01bd 5d40 623d 65aa 933d
00000050: a112 b43d ec19 f73d 9859 73bd b982 e3bc
00000060: fc95 f53d 518d e3bb 96fb 28bd c940 de3d
00000070: 6271 7b3d 86f2 adbb 4ab6 8a3d bad6 99bc
00000080: d4c6 e5bd 77f3 593b 2b4d d3bd c75a 7ebd
00000090: 0b0c d4bd 575b eb3d 3a08 2b3d 8145 fe3c
000000a0: 87fc 04bc de69 59bd 4d1c e03d 5210 16bd
000000b0: e9f2 ba3d 6a44 1f3d 302b 633d dbe4 dc3d
000000c0: 2cda 65bd b926 36bd d463 f9bd ef83 ad3c
000000d0: f58a 9e3d 4c9f 443d 5165 41bd 5da8 48bd
000000e0: a6f6 6c3b b7ce 70bd c4b6 cebd 12ac 823c
000000f0: 97d1 923d d854 733d c91a 5abd 1b98 17bc
00000100: a70e a73d 279d f6bd 248b efbd 2d6a b3bd
00000110: b783 2abc c972 d43d c3ff 93bd aa6b a3bd
00000120: 9cda 8a3d 83d6 243c 2007 b33d f878 1abd
00000130: 0a0c b13c 8da3 e6bd 3663 c8bd 586c d0bc
00000140: 3637 febd 5e99 e73d 0758 983d 03ad 933c
00000150: 0716 67bd 4d2a 0e3d 1ae9 e23d 038b d5bd
00000160: 726b dd3d 493d 793d c58f 8abc 2956 c63c
00000170: 075e d13d b57f 4bbd a57b e7bd 5733 d5bd
00000180: 6bc6 413c acff 16bd f4a3 f3bd 31e5 083d
00000190: 1761 84bd 41cc 00bd d6f3 c5bd 5375 77bd
000001a0: fc9f eb3d 2ad2 e53d b6a1 dabd bd80 cbbd
000001b0: a7d8 0ebd b3d4 bbbd e073 093c 0855 483c
000001c0: a6c2 8cba 4be3 f4bd 4534 9bbd 977d c1bc
000001d0: 1c1a 143d 3a4b 4cbd 4ff1 f23c 64b6 c8bb
000001e0: 2fe0 4c3d 7381 a33d d145 873d 026d c43d
000001f0: 930a 893d 9126 e3bd 6003 c43d 0881 dcbc

2.weight f4 [128, 128]
0.06900831 0.0015727207 0.021758765 0.059436437 0.08684675 -0.034378827 0.011781468 -0.013695301
0.03678897 -0.008382693 -0.052048378 -0.031629324 0.082599126 -0.0041312003 0.027832344 0.049834024
-0.06286453 -0.050304 -0.0430825 0.0006291717 -0.00013598254 -0.042762954 0.03727869 0.04099289
0.045175787 -0.00643256 -0.036628366 -0.0028258325 -0.08732845 0.0005209008 -0.057532817 -0.08178047
-0.019857444 -0.0031755813 -0.059881505 -0.056964714 0.04086753 -0.0692203 0.073500715 0.00092570396
-0.050229266 -0.0017405152 0.01904735 -0.065943524 0.08771031 -0.034948524 -0.06438825 -0.0021031573
0.05406458 0.05086156 -0.047183502 0.009712737 0.066324785 -0.020476473 0.022413723 0.06983781
0.01747898 0.0027507553 0.040026672 -0.03784672 -0.025778908 0.03259789 -0.080545284 0.029807534
0.030485122 0.0429553 0.08650906 0.0757185 -0.055259913 0.015036091 -0.08408488 0.06757808
0.022977315 -0.05453008 0.017522544 -0.022335583 -0.058628235 0.028668135 0.054520123 -0.052081887
0.017783573 0.04773096 0.069237866 -0.063575804 -0.019532142 0.005757101 0.07995065 -0.08559356
0.017676283 0.0686283 0.010596759 -0.036127623 0.023544686 0.06664462 0.0545163 -0.07590136
-0.019453622 -0.02556847 0.049054284 0.08268992 0.02590799 0.07361259 0.05644136 0.084930256
-0.06605239 0.07727749 -0.01822392 -0.017528113 -0.060157575 -0.067434706 -0.07861433 -0.018376403
0.02596758 -0.06560866 -0.046473876 -0.07530106 0.041300472 -0.009434219 0.03401008 -0.081502974
-0.02179809 -0.05632487 -0.07439265 -0.0041913046 0.05202969 -0.0404177 0.03231141 0.05081863
-0.053571705 0.003632647 0.07555376 -0.07820193 0.014511359 0.01137608 -0.08534639 -0.079363905
-0.080979645 0.042313855 -0.019092098 -0.033197086 0.07714801 0.08104353 -0.07898584 -0.029695326
-0.07387555 0.07078856 0.04927703 0.083660275 0.07436916 -0.07162843 0.07693073 0.071788415
-0.030242005 0.047902785 0.055364486 0.085327215 -0.06183191 0.023103418 -0.04827443 0.026426645
0.05307193 0.08239297 0.076858945 -0.06655846 -0.014343884 0.030425018 0.023468941 0.040069073
0.018437756 0.03783361 -0.07762637 -0.057968445 -0.0006503322 -0.010864386 0.0544767 -0.017591963
-0.078120254 0.04864047 -0.018055402 -0.06594058 -0.086881466 0.04393169 0.028753795 0.0109152
0.0068102665 0.07585167 -0.02881506 -0.08532897 0.061010525 0.00694502 -0.012082223 -0.041008506
-0.05345836 -0.033526305 0.08485063 0.02713427 0.052074406 -0.050242685 0.04962522 0.024227597
-0.032079022 0.034378327 0.03452636 -0.07987569 -0.043660462 -0.06890558 -0.05599792 -0.04477652
-0.04858229 -0.04515477 0.0108262235 -0.031681344 0.005256211 0.027960334 -0.056392845 -0.019329509
-0.046841446 0.034814093 0.011383445 -0.078312576 0.04372908 0.028871559 0.023836825 -0.036214154
-0.00483193 -0.047091506 -0.06300734 0.03599234 0.07841202 0.08761922 0.05531497 -0.01841863
-0.043349255 0.015206473 0.07102141 -0.03010855 -0.04044333 0.039680105 -0.008329489 0.0014671925
-0.0074376604 -0.035003327 0.0006150858 -0.055849656 -0.0328013 -0.027235938 0.08349098 -0.02042509
0.079104856 0.014425561 0.08749924 0.04732811 0.07718002 -0.014942029 -0.02661228 0.044324823
00000000: 3b54 8d3d c023 ce3a 703f b23c 9f73 733d
00000010: b5dc b13d d0d0 0cbd 0f07 413c 4162 60bc
00000020: 08b0 163d 9057 09bc ae30 55bd c08d 01bd
00000030: bb29 a93d 055f 87bb a800 e43c c31e 4c3d
00000040: 1ebf 80bd 910b 4ebd 4777 30bd 00ef 243a
00000050: 8996 0eb9 3528 2fbd 8ab1 183d 29e8 273d
00000060: 3f0a 393d 39c8 d2bb a007 16bd 9a31 39bb
00000070: 42d9 b2bd 108d 083a 88a7 6bbd 857c a7bd
00000080: 14ac a2bc 6a1d 50bb 4f46 75bd d553 69bd
00000090: b664 273d 5fc3 8dbd 8b87 963d f1aa 723a
000000a0: 34bd 4dbd 0022 e4ba 3009 9c3c 660d 87bd
000000b0: 77a1 b33d 2f26 0fbd fddd 83bd 20d5 09bb
000000c0: d272 5d3d 3654 503d 7d43 41bd 2c22 1f3c
000000d0: 4ad5 873d 47be a7bc fc9c b73c 2007 8f3d
000000e0: 1430 8f3c 0446 343b 02f3 233d 2a05 1bbd
000000f0: 4a2e d3bc 5d85 053d edf4 a4bd ee2e f43c
00000100: efbb f93c e6f1 2f3d a92b b13d 4d12 9b3d
00000110: 3858 62bd f059 763c b234 acbd 6066 8a3d
00000120: ec3a bc3c ef5a 5fbd 708b 8f3c 1df9 b6bc
00000130: 2924 70bd 70d9 ea3c 7e50 5f3d d153 55bd
00000140: dbae 913c 8a81 433d 95cc 8d3d 0834 82bd
00000150: df01 a0bc 10a6 bc3b 2bbd a33d ad4b afbd
00000160: dacd 903c ff8c 8c3d 079e 2d3c 8ffa 13bd
00000170: c9e0 c03c f97c 883d 7c4c 5f3d 2c72 9bbd
00000180: 345d 9fbc f874 d1bc 25ed 483d 5559 a93d
00000190: fe3c d43c 33c2 963d 0e2f 673d eaef ad3d
000001a0: 7a46 87bd a943 9e3d 554a 95bc 1e97 8fbc
000001b0: ca67 76bd 351b 8abd 8d00 a1bd 1c8a 96bc
000001c0: f6b9 d43c d55d 86bd 645b 3ebd 7137 9abd
000001d0: af2a 293d fc91 1abc 274e 0b3d 08eb a6bd
000001e0: e891 b2bc e8b4 66bd 2c5b 98bd 3657 89bb
000001f0: 161d 553d 088d 25bd f858 043d 3227 503d
00000200: 016e 5bbd b411 6e3b eebb 9a3d 5528 a0bd
00000210: 0dc1 6d3c bd62 3a3c 17ca aebd 8b89 a2bd
00000220: a8d8 a5bd 4b51 2d3d 0867 9cbc abf9 07bd
00000230: c7ff 9d3d 26fa a53d 54c3 a1bd 9d43 f3bc
00000240: 104c 97bd 98f9 903d b6d6 493d 1456 ab3d
00000250: dc4e 983d edb1 92bd dc8d 9d3d ce05 933d
00000260: 15be f7bc b635 443d dfc5 623d 09c0 ae3d
00000270: 7543 7dbd 6143 bd3c 69bb 45bd b17c d83c
00000280: f461 593d a5bd a83d 3968 9d3d cd4f 88bd
00000290: 9c02 6bbc e33d f93c f041 c03c 781f 243d
000002a0: c70a 973c 6af7 1a3d 93fa 9ebd 5270 6dbd
000002b0: 0e7b 2aba 8a00 32bc f622 5f3d 051d 90bc
000002c0: 83fd 9fbd 3b3b 473d ece8 93bc db0b 87bd
000002d0: e9ee b1bd b7f1 333d 148d eb3c abd5 323c
000002e0: a828 df3b 1f58 9b3d 900d ecbc f4c0 aebd
000002f0: 2ce6 793d 0d93 e33b 84f4 45bc 89f8 27bd
00000300: 27f7 5abd e152 09bd 2bc6 ad3d b048 de3c
00000310: f94b 553d 46cb 4dbd d143 4b3d f478 c63c
00000320: 4b65 03bd 4ad0 0c3d 836b 0d3d de95 a3bd
00000330: 50d5 32bd 5e1e 8dbd 135e 65bd 9667 37bd
00000340: 39fe 46bd 35f4 38bd 7960 313c 4cc4 01bd
00000350: 4b3c ac3b 120d e53c 2ffc 66bd eb58 9ebc
00000360: d1dc 3fbd 3999 0e3d a181 3a3c 5862 a0bd
00000370: 441d 333d 0c84 ec3c 7245 c33c 4b55 14bd
00000380: 2b55 9ebb 06e3 40bd fe09 81bd b46c 133d
00000390: 7b96 a03d b571 b33d f391 623d abe2 96bc
000003a0: fd8e 31bd 9224 793c ac73 913d 35a6 f6bc
000003b0: e8a7 25bd 9b87 223d 6978 08bc d04e c03a
000003c0: 9eb7 f3bb a65f 0fbd b63d 213a 9cc2 64bd
000003d0: a85a 06bd e71d dfbc 52fd aa3d 8552 a7bc
000003e0: ba01 a23d 3059 6c3c cd32 b33d 1fdb 413d
000003f0: 8f10 9e3d 69cf 74bc ff01 dabc f28d 353d

2.bias f4 [128]
-0.04794388 -0.08710525 0.002425471 -0.08675723 -0.08464593 0.035503503 0.060240816 -0.013036306
0.004234545 -0.08104778 -0.01434727 0.00952824 0.027093112 0.042034134 0.06854989 -0.02010629
-0.0094886 -0.026722005 0.046777774 -0.045355625 -0.03073046 -0.045379188 0.076604396 0.059239507
-0.021135861 0.055930946 -0.05866433 0.058282986 -0.039950244 -0.00057116174 0.0544432 0.0022282156
-0.07834975 0.05837369 -0.031216424 0.061489634 0.013974503 -0.040289033 0.039730787 0.0045583756
0.065729745 0.021986736 -0.08268615 0.0259061 0.006374922 -0.039631605 0.044775378 -0.079228856
-0.07983788 0.026151683 -0.057045892 -0.015859602 -0.03627141 0.018179879 0.028811783 -0.081668474
0.073548816 -0.041972388 -0.030510254 0.045299754 0.0479291 0.070597224 -0.04028123 -0.037735943
-0.00059501396 -0.04051806 -0.075708345 0.07873337 -0.06080633 0.070085436 -0.03729822 -0.063055724
-8.554203e-05 -0.08864421 0.03370138 -0.08312462 0.0500472 0.012569101 -0.016573166 0.042986523
-0.07546139 0.05998791 0.06207809 -0.06908898 -0.015838515 -0.009845295 -0.05981128 -0.07110938
-0.018731 -0.058626167 -0.026397064 -0.042586237 -0.03584931 -0.07784362 0.058717452 -0.029868744
-0.008639449 -0.006407144 0.0049634753 0.013912099 -0.07688571 0.007364539 -0.008010531 0.08683466
-0.08071378 -0.0071374387 -0.009670138 -0.061881542 0.035765417 -0.06403644 -0.04547503 0.06599094
0.085900374 -0.021673521 -0.059436083 -0.0037710727 0.069426395 -0.014136399 0.05119999 0.009788285
-0.03157095 0.04951593 -0.024953064 -0.0010139615 0.050193027 0.053608518 0.023656555 0.045501392
00000000: cd60 44bd 3d64 b2bd a7f4 1e3b c6ad b1bd
00000010: d85a adbd 1f6c 113d 13bf 763d 3b96 55bc
00000020: f0c1 8a3b 61fc a5bd d010 6bbc 561c 1c3c
00000030: 60f2 dd3c fc2b 2c3d e263 8c3d f2b5 a4bc
00000040: 1376 1bbc 1be8 dabc 0d9a 3f3d d2c6 39bd
00000050: 72be fbbc 87df 39bd c4e2 9c3d 20a5 723d
00000060: 1d25 adbc d917 653d 024a 70bd 24ba 6e3d
00000070: dea2 23bd 04ba 15ba d5ff 5e3d 4107 123b
00000080: d575 a0bd 4019 6f3d 96b9 ffbc 8edc 7b3d
00000090: 50f5 643c 1d06 25bd c0bc 223d 6d5e 953b
000000a0: 519d 863d 871d b43c 5b57 a9bd 0839 d43c
000000b0: b9e4 d03b c054 22bd 6366 373d bd42 a2bd
000000c0: 0b82 a3bd 0e3c d63c f4a8 69bd ffeb 81bc
000000d0: 5491 14bd f8ed 943c b006 ec3c cd41 a7bd
000000e0: c3a0 963d 3deb 2bbd a4f0 f9bc 3c8c 393d
000000f0: 4e51 443d 4795 903d eefd 24bd 0191 1abd
00000100: b6fa 1bba 44f6 25bd fa0c 9bbd f63e a13d
00000110: 0f10 79bd f488 8f3d 05c6 18bd 5c23 81bd
00000120: 0765 b3b8 188b b5bd 750a 0a3d 3e3d aabd
00000130: 4bfe 4c3d a1ee 4d3c 73c4 87bc a312 303d
00000140: 808b 9abd e2b5 753d 9845 7e3d 867e 8dbd
00000150: c6bf 81bc 294e 21bc acfc 74bd cba1 91bd
00000160: c171 99bc fe21 70bd a83e d8bc e86e 2ebd
00000170: bad6 12bd 7a6c 9fbd b681 703d 4caf f4bc
00000180: 7a8c 0dbc 05f3 d1bb a6a4 a23b 93ef 633c
00000190: 4176 9dbd 3b52 f13b 9a3e 03bc 5fd6 b13d
000001a0: 444d a5bd 2de1 e9bb 806f 1ebc 8077 7dbd
000001b0: c27e 123d 8925 83bd 0644 3abd 4226 873d
000001c0: 89ec af3d ab8c b1bc 4073 73bd 1a24 77bb
000001d0: 6d2f 8e3d 5b9c 67bc 15b7 513d 0b5f 203c
000001e0: 8a50 01bd 37d1 4a3d 5e6a ccbc e7e6 84ba
000001f0: 3497 4d3d 9b94 5b3d 64cb c13c ab5f 3a3d

4.weight f4 [64, 128]
-0.075168155 -0.024287164 -0.01944811 0.077656135 0.045446172 -0.06633282 -0.024857957 0.069383696
-0.062256955 -0.037116032 -0.042478994 0.06619813 0.008282207 0.02413149 0.027267694 -0.010092667
0.07470296 -0.008397715 -0.065673634 -0.042250775 0.06403047 -0.05341497 -0.031369146 0.04696815
-0.07629747 -0.0049975216 -0.0013423951 -0.04209648 0.068452835 -0.035818316 -0.040810853 0.06650541
0.043821342 -0.015816323 -0.062096756 0.040665403 0.042766295 0.08001505 0.022601942 0.08627265
-0.012975904 0.057341274 0.01842377 -0.018489735 0.034240164 -0.072567895 -0.013169035 -0.03684342
-0.0015373945 -0.061623376 -0.04275684 -0.024614736 0.07676343 -0.029398737 -0.01888845 -0.06660816
-0.06207052 -0.07908037 0.057486422 -0.0649992 -0.02668943 0.0843932 -0.02153848 0.06443017
-0.07043961 0.01639653 0.07037572 -0.060229577 0.041665927 0.05440603 -0.052860215 0.066369005
0.0027893202 0.07907367 0.0090645095 0.06447092 -0.0035869551 0.04793045 -0.08666691 -0.06580196
0.037913255 0.086635396 0.07329582 -0.011173665 0.022749417 0.030874973 -0.026621075 -0.057354994
0.02301255 0.0023662057 0.082741626 0.043754876 -0.015095111 -0.07538043 0.05752925 0.06684701
0.06944856 0.07342073 -0.063852824 0.028885035 0.020870613 0.044487063 0.043183796 -0.016249102
-0.07124931 -0.046750657 0.07302861 0.061773002 -0.081103705 -0.064672306 -0.07926269 0.07467344
0.04837865 -0.0069972835 -0.07739079 0.0058741835 0.03088519 0.014135786 0.0011068995 -0.08598162
0.025396928 0.018584901 -0.07012018 0.04933852 0.03789914 -0.056083966 -0.044939257 -0.008730537
-0.052778695 0.043210674 -0.07484336 -0.08649779 0.085137784 -0.039265588 -0.006558314 0.037286904
-0.0033248067 0.07682999 0.08136749 -0.055408835 -0.07425883 0.022001935 0.031479217 0.044333108
0.06922765 0.078486614 -0.035682242 -0.004319586 0.06288087 0.08361122 -0.08500597 -0.0041052983
0.07258061 -0.062476303 -0.06775062 -0.069275625 -0.011238021 -0.05088286 0.087882325 -0.021114733
0.0005107075 -0.06968328 0.06014235 0.03187428 -0.0034137964 -0.06298683 0.044783015 -0.061978817
0.08612116 0.018886419 0.044168387 0.049786773 0.018593302 0.056801874 0.0807556 -0.060875632
-0.036669426 0.07504612 -0.04082696 -0.052698795 -0.015170135 -0.03379909 -0.049001064 0.024489028
-0.080301076 0.08129345 0.08154211 -0.062820464 -0.0010014803 0.062392637 -0.0013573084 0.021710867
0.06874216 -0.063461155 0.03286491 -0.031227114 -0.028875254 0.06814597 0.03131601 0.07670697
0.06762279 0.080926836 0.011293665 -0.08633623 -0.010912989 0.022753054 -0.07369878 -0.072038576
0.08644254 0.03681662 -0.02701623 0.07697151 -0.064814314 -0.07172759 0.055211734 0.012868344
-0.008928815 0.014145919 -0.070816964 -0.067251414 0.0106165195 0.024248224 0.03495044 0.07143894
0.06417475 -0.068598814 -0.021647535 -0.015197454 0.06285718 -0.02927274 -0.058901142 -0.0026958596
-0.0060528815 -0.07266443 0.07374021 0.05473242 0.07450107 0.042512324 0.074889064 0.049969196
0.02854401 -0.08855621 -0.07650553 -0.07913191 -0.069995314 -0.08589458 -0.06816249 0.010010138
-0.07440668 -0.058873583 0.04678869 0.001761794 0.013806059 -0.020577468 0.064876 0.059452526
00000000: c3f1 99bd e0f5 c6bc a551 9fbc 2e0a 9f3d
00000010: c425 3a3d 80d9 87bd eaa2 cbbc 0a19 8e3d
00000020: 2601 7fbd fb06 18bd 74fe 2dbd e392 873d
00000030: 18b2 073c 67af c53c 8060 df3c b75b 25bc
00000040: defd 983d 9296 09bc e67f 86bd 260f 2dbd
00000050: 6822 833d a8c9 5abd ef7c 00bd ad61 403d
00000060: d941 9cbd 40c2 a3bb 4ef3 afba 5c6d 2cbd
00000070: 0031 8c3d 3ab6 12bd 4829 27bd fd33 883d
00000080: 027e 333d 3c91 81bc 2b59 7ebd c490 263d
00000090: b62b 2f3d eede a33d b527 b93c b7af b03d
000000a0: e398 54bc afde 6a3d 72ed 963c c977 97bc
000000b0: 6a3f 0c3d 7a9e 94bd f0c2 57bc 20e9 16bd
000000c0: 6682 c9ba cb68 7cbd cc21 2fbd d8a4 c9bc
000000d0: 2536 9d3d 9fd5 f0bc f3bb 9abc dc69 88bd
000000e0: a83d 7ebd e4f4 a1bd e276 6b3d 4d1e 85bd
000000f0: cba3 dabc 58d6 ac3d 7771 b0bc f7f3 833d
00000100: a442 90bd 0452 863c 2521 903d 4ab3 76bd
00000110: e4a9 2a3d dbd8 5e3d f483 58bd 79ec 873d
00000120: 07cd 363b 60f1 a13d 4f83 143c 5409 843d
00000130: 1f13 6bbb b852 443d 6c7e b1bd 2ec3 86bd
00000140: ee4a 1b3d e66d b13d 1e1c 963d bf11 37bc
00000150: fc5c ba3c 83ed fc3c 7114 dabc 12ed 6abd
00000160: d184 bc3c 5812 1b3b 7174 a93d 5038 333d
00000170: 7c51 77bc 0e61 9abd caa3 6b3d 16e7 883d
00000180: 0c3b 8e3d 9c5d 963d 45c5 82bd 4fa0 ec3c
00000190: d9f8 aa3c 1138 363d 7ee1 303d d61c 85bc
000001a0: 29eb 91bd 9e7d 3fbd 0690 953d b005 7d3d
000001b0: b319 a6bd ea72 84bd 7a54 a2bd 63ee 983d
000001c0: b128 463d 7849 e5bb 107f 9ebd 397c c03b
000001d0: f002 fd3c c999 673c 6215 913a 2217 b0bd
000001e0: 380d d03c 5d3f 983c 2b9b 8fbd 3017 4a3d
000001f0: 213c 1b3d 4db8 65bd 3a12 38bd 870a 0fbc
00000200: 792e 58bd adfd 303d 7a47 99bd c125 b1bd
00000210: b85c ae3d f4d4 20bd 20e7 d6bb 27ba 183d
00000220: 00e5 59bb 0b59 9d3d 00a4 a63d 60f4 62bd
00000230: 0315 98bd 673d b43c 5af0 003d a296 353d
00000240: 3ac7 8d3d 97bd a03d 8b27 12bd 508b 8dbb
00000250: b0c7 803d 5c3c ab3d 9c17 aebd bd85 86bb
00000260: 25a5 943d 27e7 7fbd d6c0 8abd 61e0 8dbd
00000270: ad1f 38bc 8c6a 50bd a6fb b33d cef8 acbc
00000280: 00e1 053a 1cb6 8ebd d357 763d 9b8e 023d
00000290: 00ba 5fbb 3dff 80bd 656e 373d 80dd 7dbd
000002a0: 4a60 b03d b1b7 9a3c e9e9 343d 37ed 4b3d
000002b0: fb50 983c 15a9 683d 3163 a53d ba58 79bd
000002c0: ae32 16bd c8b1 993d 2c3a 27bd b1da 57bd
000002d0: 288c 78bc ea70 0abd 57b5 48bd 379d c83c
000002e0: e474 a4bd 2e7d a63d 8dff a63d 04a8 80bd
000002f0: 1a44 83ba 6c8f 7f3d b6e7 b1ba fdda b13c
00000300: b1c8 8c3d ecf7 81bd 5b9d 063d 01d0 ffbc
00000310: cc8b ecbc 1d90 8b3d 3745 003d 8b18 9d3d
00000320: d17d 8a3d f8bc a53d 1009 393c 0dd1 b0bd
00000330: 65cc 32bc 9d64 ba3c 63ef 96bd f688 93bd
00000340: c908 b13d 06cd 163d 2451 ddbc 3da3 9d3d
00000350: 5ebd 84bd eae5 92bd b325 623d bfd5 523c
00000360: 2a4a 12bc 49c4 673c 7c08 91bd 1cbb 89bd
00000370: e9f0 2d3c 36a4 c63c 3128 0f3d 944e 923d
00000380: 0d6e 833d 897d 8cbd 2c56 b1bc befe 78bc
00000390: 44bb 803d 63cd efbc 5342 71bd 05ad 30bb
000003a0: 4057 c6bb 17d1 94bd 1b05 973d 1a2f 603d
000003b0: 0494 983d 6721 2e3d 705f 993d 80ac 4c3d
000003c0: 21d5 e93c f55c b5bd eeae 9cbd e90f a2bd
000003d0: b459 8fbd 7fe9 afbd c798 8bbd 9001 243c
000003e0: 8862 98bd 6d25 71bd 7fa5 3f3d ffeb e63a
000003f0: cf32 623c 1492 a8bc b5dd 843d 7e84 733d

4.bias f4 [64]
-0.034248166 0.08708342 0.006787707 -0.08136508 -0.060851138 -0.051931236 -0.0744927 -0.040941082
0.047791634 -0.005654808 -0.07896656 -0.041888416 0.0110508 -0.060931087 0.025937155 -0.080276094
-0.02831758 0.027904144 -0.06632823 0.010768742 0.02503104 -0.0047912328 0.0779726 -0.03145803
0.07043501 0.07116043 -0.061813902 -0.0004886829 0.074059315 -0.053102564 0.0706046 0.05163028
-0.027012149 0.07968905 0.0076032258 0.04518915 -0.08278538 0.06914115 -0.07072034 0.08499849
-0.049825843 -0.011217447 -0.07647865 0.045755234 0.05049256 -0.062503934 0.063705444 0.007867801
-0.060552876 0.08415758 0.010642814 -0.066703826 -0.028906273 -0.030665778 0.08352507 -0.044835422
-0.07029859 -0.050171167 -0.05557833 -0.05030775 -0.034048766 -0.07395795 0.014394428 0.031993136
00000000: ce47 0cbd cb58 b23d 6a6b de3b bca2 a6bd
00000010: 0b3f 79bd d9b5 54bd a18f 98bd d6b1 27bd
00000020: 29c1 433d f84b b9bb 38b9 a1bd 3093 2bbd
00000030: 6a0e 353c e092 79bd 287a d43c cb67 a4bd
00000040: 45fa e7bc 3b97 e43c 18d7 87bd 616f 303c
00000050: e50d cd3c c6ff 9cbb 19b0 9f3d 23da 00bd
00000060: 3b40 903d 8fbc 913d 9330 7dbd f41a 00ba
00000070: 69ac 973d 1382 59bd 2599 903d 467a 533d
00000080: 9548 ddbc 0334 a33d 7b24 f93b 4218 393d
00000090: 628b a9bd e099 8d3d d3d5 90bd b013 ae3d
000000a0: 2f16 4cbd 62c9 37bc d7a0 9cbd d769 3b3d
000000b0: 49d1 4e3d 1002 80bd 0078 823d f3e7 003c
000000c0: 4b06 78bd cf5a ac3d 335f 2e3c 049c 88bd
000000d0: d9cc ecbc cc36 fbbc 310f ab3d 59a5 37bd
000000e0: b5f8 8fbd 4880 4dbd 1aa6 63bd 800f 4ebd
000000f0: b876 0bbd 4477 97bd 9bd6 6b3c 3c0b 033d

0.weight f4 [128, 64]
0.05866268 -0.06035814 -0.22593206 -0.015924048 0.13166863 -0.18276793 -0.00476949 -0.05414122
-0.08700629 0.079052396 0.10520553 -0.30727047 0.101771265 0.098576576 -0.023838468 -0.008714847
0.28211167 0.09117328 0.15494415 0.0006248872 -0.034342512 -0.14272895 0.025538296 0.012945882
0.1712053 0.15071262 -0.064846285 -0.07924167 0.04461213 0.15408467 -0.045670424 0.095487095
0.08971794 0.05548147 -0.04859458 0.1112197 -0.042790852 0.03895449 0.11049498 -0.19553438
-0.14441752 0.04473297 0.15258531 0.20031095 0.15262502 0.13727368 -0.030452752 0.022212554
-0.16215311 0.078807205 0.009588636 0.12505847 -0.14739244 -0.21720771 -0.039411314 0.060367588
0.12162463 0.11138413 -0.32136232 -0.04199005 -0.21589065 -0.04153543 0.07811359 0.05684345
-0.042575747 0.08805977 -0.05696184 0.014489815 -0.0653103 0.029483 -0.03322142 0.019862857
-0.056731533 0.03447247 0.059642628 -0.1589202 -0.22048019 0.08743246 0.1467676 -0.06975847
0.082368664 0.13863887 -0.19537327 0.08766928 -0.08136554 0.1089252 -0.34991986 -0.13719256
0.0802868 -0.09356828 -0.12059119 -0.10109106 0.064086944 -0.035243854 0.23367862 -0.14030512
0.088492185 0.0753616 0.0749219 -0.09218675 0.110589474 -0.045875475 0.07573617 0.19487533
-0.20151852 0.0034773534 -0.30614167 0.07262816 0.080752 -0.11325491 -0.01874734 -0.1433438
0.008339124 -0.17442968 -0.042161796 0.09807939 0.37655187 0.0024018632 0.032554854 -0.13340536
-0.07243526 0.0071766637 0.040477797 -0.06471667 0.15891255 -0.0981438 0.09086129 -0.2948662
-0.10635341 0.15947542 0.16173685 -0.30199084 -0.042231116 0.05632182 0.09512668 -0.041556064
-0.19520313 -0.12568678 -0.007915624 -0.03460869 -0.08176144 -0.049820673 0.038349647 -0.04558425
0.03637788 -0.20091389 -0.15655702 0.21817471 0.119014755 0.027360488 -0.09841298 -0.2604519
0.16613604 0.21039014 0.07886415 -0.052154433 0.081631064 0.009829309 -0.17885579 -0.07653849
0.028966881 0.17885295 -0.059281312 0.11634271 0.14175418 -0.05535608 -0.14455125 0.083067685
-0.027743047 0.12043887 0.1593881 -0.034008797 -0.2002445 0.21142125 0.007787637 -0.0844859
-0.073063076 0.07708472 -0.2602922 -0.119001456 0.0044155144 0.14867406 -0.013327913 0.030449491
0.01815023 -0.17230709 -0.035176776 0.055385858 -0.107657515 0.03625225 -0.0931393 -0.014130269
0.10398779 0.17895915 -0.026392067 0.17545058 0.20057116 -0.07034714 -0.1744837 -0.24399367
-0.035138194 0.018636847 -0.05600844 -0.2772352 -0.082011215 0.0011033834 -0.08156081 0.080268696
0.06175867 -0.1763757 0.008804286 0.037703104 0.24961612 -0.03416064 0.09418181 -0.12333274
-0.09366595 -0.09848932 0.022121126 -0.15360379 0.08303309 -0.04046774 -0.0035720349 -0.07137736
0.019717405 -0.0888998 0.045898855 0.07233771 -0.11020746 0.18495904 -0.1843753 -0.0748574
-0.005038637 -0.12916072 0.05368184 0.033371456 -0.011443507 -0.22437334 -0.17608891 0.026275672
0.16889693 -0.061513197 -0.12886423 0.18041496 -0.19394375 0.01274442 -0.0976099 -0.040636588
-0.107397564 -0.06042697 0.26042968 -0.16365662 0.19818693 -0.027751537 0.22308725 0.018155737
00000000: 4748 703d 193a 77bd bc5a 67be 2673 82bc
00000010: 24d4 063e 8427 3bbe 6249 9cbb 2fc3 5dbd
00000020: 5b30 b2bd 39e6 a13d ff75 d73d 8e52 9dbe
00000030: 746d d03d 84e2 c93d e448 c3bc b8c8 0ebc
00000040: f170 903e 0eb9 ba3d aea9 1e3e 78cf 233a
00000050: bcaa 0cbd 8a27 12be b035 d13c f71a 543c
00000060: 7150 2f3e 6954 1a3e 21ce 84bd 7549 a2bd
00000070: 35bb 363d 5fc8 1d3e e910 3bbd bd8e c33d
00000080: 0abe b73d 8a40 633d 1c0b 47bd 27c7 e33d
00000090: 7645 2fbd be8e 1f3d 314b e23d 2a3a 48be
000000a0: 30e2 13be eb39 373d 533f 1c3e 501e 4d3e
000000b0: bc49 1c3e 7991 0c3e 0d78 f9bc 1af7 b53c
000000c0: 770b 26be ac65 a13d a819 1d3c 540f 003e
000000d0: 0bee 16be b36b 5ebe c26d 21bd 0144 773d
000000e0: 5616 f93d 5d1d e43d 9a89 a4be c2fd 2bbd
000000f0: 7012 5dbe 0e21 2abd 05fa 9f3d add4 683d
00000100: e863 2ebd ae58 b43d d150 69bd b066 6d3c
00000110: 68c1 85bd 5586 f13c 2f13 08bd 6eb7 a23c
00000120: 535f 68bd 0133 0d3d d44b 743d fabb 22be
00000130: 8fc5 61be ca0f b33d 3f4a 163e 87dd 8ebd
00000140: e7b0 a83d 59f7 0d3e ee0f 48be f48b b33d
00000150: faa2 a6bd 2d14 df3d b228 b3be 357c 0cbe
00000160: 686d a43d baa0 bfbd 84f8 f6bd d408 cfbd
00000170: 0440 833d dc5b 10bd 7349 6f3e 25ac 0fbe
00000180: 643b b53d 2f57 9a3d a770 993d 68cc bcbd
00000190: bc7c e23d ece7 3bbd 911b 9b3d 668d 473e
000001a0: df5a 4ebe 4fe4 633b 9abe 9cbe 13be 943d
000001b0: 4e61 a53d 31f2 e7bd 0694 99bc b8c8 12be
000001c0: d2a0 083c b29d 32be d9b1 2cbd d9dd c83d
000001d0: 68cb c03e 9468 1d3b 3d58 053d 6a9b 08be
000001e0: f058 94bd 382a eb3b 0ccc 253d 2c8a 84bd
000001f0: f9b9 223e 9eff c8bd 7c15 ba3d b4f8 96be
00000200: d1cf d9bd 864d 233e 589e 253e 8b9e 9abe
00000210: 89fa 2cbd b5b1 663d c7d1 c23d b136 2abd
00000220: 54e3 47be 09b4 00be 89b0 01bc d7c1 0dbd
00000230: 8b72 a7bd c310 4cbd 8514 1d3d 8db6 3abd
00000240: f900 153d 5fbc 4dbe 7c50 20be 3169 5f3e
00000250: 02be f33d 1a23 e03c bf8c c9bd f459 85be
00000260: 911f 2a3e 8370 573e 8783 a13d e39f 55bd
00000270: 302e a73d 1c0b 213c f925 37be 36c0 9cbd
00000280: f44b ed3c 3a25 373e f6d0 72bd 1645 ee3d
00000290: 0228 113e 0fbd 62bd 3e05 14be 641f aa3d
000002a0: 6345 e3bc a7a8 f63d a236 233e cf4c 0bbd
000002b0: e50c 4dbe d07e 583e 6f2f ff3b f206 adbd
000002c0: 18a2 95bd 98de 9d3d 0545 85be 09b7 f3bd
000002d0: 05b0 903b 033e 183e 525d 5abc 3671 f93c
000002e0: cbaf 943c 4571 30be 8615 10bd 48dc 623d
000002f0: 8b7b dcbd 3d7d 143d d1bf bebd a582 67bc
00000300: 8df7 d43d 1141 373e 2d34 d8bc 51a9 333e
00000310: 8762 4d3e 2912 90bd dbab 32be 7ad9 79be
00000320: 11ed 0fbd 4dac 983c 1b69 65bd c6f1 8dbe
00000330: 7ff5 a7bd 679f 903a 5b09 a7bd ea63 a43d
00000340: a9f6 7c3d d59b 34be da3f 103c 926e 1a3d
00000350: 5e9b 7f3e 07ec 0bbd 65e2 c03d e095 fcbd
00000360: efd3 bfbd c5b4 c9bd 5d37 b53c 504a 1dbe
00000370: 410d aa3d 80c1 25bd cd18 6abb 4b2e 92bd
00000380: 6586 a13c 1911 b6bd 7000 3c3d cb25 943d
00000390: 73b4 e1bd e765 3d3e e1cc 3cbe d64e 99bd
000003a0: 271b a5bb b542 04be 7de1 5b3d 82b0 083d
000003b0: 8c7d 3bbc 20c2 65be a750 34be 1440 d73c
000003c0: 51f3 2c3e 43f5 7bbd fcf4 03be b3be 383e
000003d0: 3199 46be f9cd 503c b3e7 c7bd 8d72 26bd
000003e0: 41f3 dbbd 4582 77bd 0a57 853e 9a95 27be
000003f0: 84f1 4a3e 3157 e3bc fc70 643e 57bb 943c

0.bias f4 [128]
0.0 0.0 0.0 0.0 0.0 0.0 0.0 0.0
0.0 0.0 0.0 0.0 0.0 0.0 0.0 0.0
0.0 0.0 0.0 0.0 0.0 0.0 0.0 0.0
0.0 0.0 0.0 0.0 0.0 0.0 0.0 0.0
0.0 0.0 0.0 0.0 0.0 0.0 0.0 0.0
0.0 0.0 0.0 0.0 0.0 0.0 0.0 0.0
0.0 0.0 0.0 0.0 0.0 0.0 0.0 0.0
0.0 0.0 0.0 0.0 0.0 0.0 0.0 0.0
0.0 0.0 0.0 0.0 0.0 0.0 0.0 0.0
0.0 0.0 0.0 0.0 0.0 0.0 0.0 0.0
0.0 0.0 0.0 0.0 0.0 0.0 0.0 0.0
0.0 0.0 0.0 0.0 0.0 0.0 0.0 0.0
0.0 0.0 0.0 0.0 0.0 0.0 0.0 0.0
0.0 0.0 0.0 0.0 0.0 0.0 0.0 0.0
0.0 0.0 0.0 0.0 0.0 0.0 0.0 0.0
0.0 0.0 0.0 0.0 0.0 0.0 0.0 0.0
00000000: 0000 0000 0000 0000 0000 0000 0000 0000
00000010: 0000 0000 0000 0000 0000 0000 0000 0000
00000020: 0000 0000 0000 0000 0000 0000 0000 0000
00000030: 0000 0000 0000 0000 0000 0000 0000 0000
00000040: 0000 0000 0000 0000 0000 0000 0000 0000
00000050: 0000 0000 0000 0000 0000 0000 0000 0000
00000060: 0000 0000 0000 0000 0000 0000 0000 0000
00000070: 0000 0000 0000 0000 0000 0000 0000 0000
00000080: 0000 0000 0000 0000 0000 0000 0000 0000
00000090: 0000 0000 0000 0000 0000 0000 0000 0000
000000a0: 0000 0000 0000 0000 0000 0000 0000 0000
000000b0: 0000 0000 0000 0000 0000 0000 0000 0000
000000c0: 0000 0000 0000 0000 0000 0000 0000 0000
000000d0: 0000 0000 0000 0000 0000 0000 0000 0000
000000e0: 0000 0000 0000 0000 0000 0000 0000 0000
000000f0: 0000 0000 0000 0000 0000 0000 0000 0000
00000100: 0000 0000 0000 0000 0000 0000 0000 0000
00000110: 0000 0000 0000 0000 0000 0000 0000 0000
00000120: 0000 0000 0000 0000 0000 0000 0000 0000
00000130: 0000 0000 0000 0000 0000 0000 0000 0000
00000140: 0000 0000 0000 0000 0000 0000 0000 0000
00000150: 0000 0000 0000 0000 0000 0000 0000 0000
00000160: 0000 0000 0000 0000 0000 0000 0000 0000
00000170: 0000 0000 0000 0000 0000 0000 0000 0000
00000180: 0000 0000 0000 0000 0000 0000 0000 0000
00000190: 0000 0000 0000 0000 0000 0000 0000 0000
000001a0: 0000 0000 0000 0000 0000 0000 0000 0000
000001b0: 0000 0000 0000 0000 0000 0000 0000 0000
000001c0: 0000 0000 0000 0000 0000 0000 0000 0000
000001d0: 0000 0000 0000 0000 0000 0000 0000 0000
000001e0: 0000 0000 0000 0000 0000 0000 0000 0000
000001f0: 0000 0000 0000 0000 0000 0000 0000 0000

2.weight f4 [128, 128]
-0.16501722 0.10441008 -0.15614201 0.24104238 -0.026204547 -0.09912648 0.038776416 0.05289795
0.009493523 0.047491275 -0.13816968 -0.34724817 0.09800915 -0.06457874 0.110869825 0.044268053
0.12822768 -0.1254703 0.00021385838 -0.20931157 -0.06775895 0.0718667 0.009013641 0.14767087
0.034528945 -0.19991529 -0.16152255 -0.03615001 -0.110020384 0.012754468 -0.027053714 0.055141963
0.22012737 -0.033212453 -0.1555096 0.11155523 0.032316256 -0.06893431 -0.11425096 0.11570786
-0.06542909 0.09910243 -0.18361656 0.056636244 0.050272923 0.26008415 0.054939374 0.0020481024
0.20025091 -0.30636066 0.04614531 0.09459732 0.040637333 0.093069494 0.16205576 0.12001698
-0.0751275 0.16602577 0.07915679 -0.09089314 0.15918794 0.02556613 -0.10117338 0.1795984
-0.15227263 -0.08638183 -0.10891772 -0.18312004 -0.011918223 0.31141078 0.11556401 0.09069416
-0.17630419 -0.08090724 0.09075896 0.09817486 -0.23531978 -0.016213518 -0.17250144 0.032148752
0.09795837 0.09748196 -0.16028479 0.054080285 -0.16209798 0.14458442 0.075414725 0.10802568
-0.035858095 -0.1074605 -0.02752957 -0.092506714 -0.100752674 -0.20421806 0.017344411 0.00051910157
-0.012405784 -0.007286256 0.1856502 -0.005200775 0.13710764 0.10784814 0.020853246 -0.09489706
0.1602574 -0.1467469 0.02936542 0.08112998 -0.041871373 -0.09944142 0.24061026 -0.03998533
0.08820001 0.13917395 0.08338934 -0.09719335 -0.08047164 -0.31266153 -0.13112877 -0.02955177
-0.114029035 -0.045419477 -0.004514899 -0.15999278 -0.09049168 -0.050561022 -0.041218027 0.06950793
-0.119124554 -0.008522092 -0.037458718 0.008194078 0.08774979 0.033194352 0.08869103 -0.08027452
-0.004326976 0.07442371 -0.22749153 -0.14240754 0.037081886 -0.028180294 -0.021201562 0.04614204
-0.048095062 0.04867196 -0.031158311 0.005282694 0.13691792 -0.2092555 -0.08861499 0.2833673
-0.11329912 0.037862428 0.15789263 -0.18186988 0.23146729 0.06256898 0.1305638 0.045139033
-0.33405858 -0.042674072 -0.004898218 -0.24173641 -0.031776067 -0.059854634 -0.17246415 0.21618661
-0.01604763 -0.06536065 -0.07313968 -0.0455108 0.10742242 0.042563934 0.079352334 -0.13127437
-0.04217601 -0.004833277 -0.16536577 -0.11590224 -0.14515616 -0.20957267 -0.124178566 0.024317946
0.0937204 -0.28798342 0.12708546 -0.017514715 -0.13628563 0.22190216 -0.069657214 0.031802103
-0.02578313 0.16144718 -0.15493514 0.16533434 0.14054492 -0.07376017 0.14241168 0.041542977
-0.17905466 0.057691123 0.0887049 -0.016467595 -0.12503973 0.37338543 -0.092515446 0.19606236
-0.000891797 0.23353133 -0.11287809 0.1413085 0.019834476 -0.0031123406 -0.05217831 0.14089645
0.06781366 -0.0407763 0.103345275 -0.010490796 0.17909667 0.071040966 -0.15945448 0.002721494
0.11911844 -0.02379226 -0.1116776 0.08824696 -0.070116796 -0.22380541 0.08812579 0.039989933
0.1159888 -0.023418074 0.06628581 0.23029909 0.06989376 -0.19237906 0.07907016 -0.012013996
-0.018740978 -0.14283627 0.031182902 0.15995197 0.10342144 -0.18704572 -0.06852188 0.053229418
0.14486644 0.0018957115 0.035090085 -0.05461795 0.16208418 0.18033245 -0.029927613 -0.034290902
00000000: 46fa 28be f4d4 d53d b1e3 1fbe d0d3 763e
00000010: ebaa d6bc d302 cbbd 05d4 1e3d 85ab 583d
00000020: b98a 1b3c 3686 423d 5a7c 0dbe 83ca b1be
00000030: 05b9 c83d dc41 84bd b80f e33d 6b52 353d
00000040: 1e4e 033e 497b 00be 2c3f 6039 c655 56be
00000050: 34c5 8abd d92e 933d f3ad 133c 0837 173e
00000060: 396e 0d3d 98b6 4cbe 2b66 25be 0812 14bd
00000070: 5e52 e1bd 1ef8 503c c09f ddbc 8adc 613d
00000080: 1269 613e c809 08bd e93d 1fbe 1277 e43d
00000090: 0d5e 043d 6e2d 8dbd 68fc e9bd 3ef8 ec3d
000000a0: b0ff 85bd 37f6 ca3d fb05 3cbe 68fb 673d
000000b0: fbea 4d3d c029 853e 1c08 613d 7539 063b
000000c0: 930e 4d3e 4edb 9cbe dd02 3d3d 3dbc c13d
000000d0: 5573 263d 389b be3d f2f1 253e 76cb f53d
000000e0: 72dc 99bd a902 2a3e f51c a23d 2f26 babd
000000f0: 2a02 233e 1070 d13c fd33 cfbd a5e8 373e
00000100: 5bed 1bbe f5e8 b0bd 4110 dfbd d283 3bbe
00000110: a744 43bc 3c71 9f3e d3ac ec3d dcbd b93d
00000120: 1689 34be b2b2 a5bd d5df b93d e70f c93d
00000130: abf7 70be 36d2 84bc 38a4 30be 69ae 033d
00000140: 669e c83d 9fa4 c73d b221 24be 4a83 5d3d
00000150: 03fd 25be f00d 143e 0973 9a3d 913c dd3d
00000160: f0df 12bd 4014 dcbd b185 e1bc 2974 bdbd
00000170: 6b57 cebd 8a1e 51be de15 8e3c 5114 083a
00000180: a141 4bbc 8cc1 eebb 161b 3e3e 436b aabb
00000190: f265 0c3e 7cdf dc3d 6dd4 aa3c 6459 c2bd
000001a0: 841a 243e d244 16be c08f f03c 7a27 a63d
000001b0: 5181 2bbd f1a7 cbbd 8962 763e a8c7 23bd
000001c0: 35a2 b43d 9e83 0e3e 08c8 aa3d 4f0d c7bd
000001d0: 51ce a4bd 2c15 a0be 9f46 06be 8e16 f2bc
000001e0: 0e88 e9bd c609 3abd b8f1 93bb 26d5 23be
000001f0: b453 b9bd 1319 4fbd 3cd4 28bd 2c5a 8e3d
00000200: 93f7 f3bd 3fa0 0bbc 506e 19bd 7440 063c
00000210: 29b6 b33d cdf6 073d a5a3 b53d f866 a4bd
00000220: 4ec9 8dbb 756b 983d 8af3 68be 48d3 11be
00000230: 2de3 173d 5cda e6bc e6ae adbc 70ff 3c3d
00000240: 54ff 44bd 405c 473d b73f ffbc 731a ad3b
00000250: 3634 0c3e 1347 56be c77b b5bd 8515 913e
00000260: 5e09 e8bd a215 1b3d 9bae 213e 193c 3abe
00000270: c305 6d3e 2a24 803d 84b2 053e b5e3 383d
00000280: ba09 abbe 02cb 2ebd 3b81 a0bb c089 77be
00000290: 9f27 02bd 222a 75bd 719a 30be 0660 5d3e
000002a0: 5276 83bc cedb 85bd 42ca 95bd 8869 3abd
000002b0: 4900 dc3d 8557 2e3d 7a83 a23d ca6c 06be
000002c0: c0c0 2cbd 7760 9ebb a555 29be 275e edbd
000002d0: d1a3 14be 389a 56be 5551 febd 6e36 c73c
000002e0: 7bf0 bf3d 9072 93be b122 023e 057b 8fbc
000002f0: 768e 0bbe 523a 633e 71a8 8ebd ec42 023d
00000300: 2537 d3bc 6952 253e 51a7 1ebe 684d 293e
00000310: 02eb 0f3e 920f 97bd 5ed4 113e f828 2a3d
00000320: 1b5a 37be 874d 6c3d eaaa b53d 0de7 86bc
00000330: 6a0a 00be 602c bf3e bd78 bdbd 92c4 483e
00000340: 7cc7 69ba d622 6f3e a12c e7bd 2db3 103e
00000350: e97b a23c 69f8 4bbb ecb8 55bd 2947 103e
00000360: e3e1 8a3d 0d05 27bd b0a6 d33d 96e1 2bbc
00000370: 1e65 373e ed7d 913d 0948 23be 185b 323b
00000380: 5ef4 f33d fce7 c2bc 3ab7 e4bd d2ba b43d
00000390: 6599 8fbd 3f2d 65be 4b7b b43d 7ccc 233d
000003a0: 898b ed3d 43d7 bfbc dbc0 873d 86d3 6b3e
000003b0: 7624 8f3d 04ff 44be 89ef a13d 5ad6 44bc
000003c0: ae86 99bc ac43 12be 4973 ff3c 73ca 233e
000003d0: 9fce d33d ea88 3fbe 3355 8cbd 1707 5a3d
000003e0: de57 143e 8679 f83a 9fba 0f3d 12b7 5fbd
000003f0: 65f9 253e 12a9 383e c12a f5bc 9e74 0cbd

2.bias f4 [128]
0.0 0.0 0.0 0.0 0.0 0.0 0.0 0.0
0.0 0.0 0.0 0.0 0.0 0.0 0.0 0.0
0.0 0.0 0.0 0.0 0.0 0.0 0.0 0.0
0.0 0.0 0.0 0.0 0.0 0.0 0.0 0.0
0.0 0.0 0.0 0.0 0.0 0.0 0.0 0.0
0.0 0.0 0.0 0.0 0.0 0.0 0.0 0.0
0.0 0.0 0.0 0.0 0.0 0.0 0.0 0.0
0.0 0.0 0.0 0.0 0.0 0.0 0.0 0.0
0.0 0.0 0.0 0.0 0.0 0.0 0.0 0.0
0.0 0.0 0.0 0.0 0.0 0.0 0.0 0.0
0.0 0.0 0.0 0.0 0.0 0.0 0.0 0.0
0.0 0.0 0.0 0.0 0.0 0.0 0.0 0.0
0.0 0.0 0.0 0.0 0.0 0.0 0.0 0.0
0.0 0.0 0.0 0.0 0.0 0.0 0.0 0.0
0.0 0.0 0.0 0.0 0.0 0.0 0.0 0.0
0.0 0.0 0.0 0.0 0.0 0.0 0.0 0.0
00000000: 0000 0000 0000 0000 0000 0000 0000 0000
00000010: 0000 0000 0000 0000 0000 0000 0000 0000
00000020: 0000 0000 0000 0000 0000 0000 0000 0000
00000030: 0000 0000 0000 0000 0000 0000 0000 0000
00000040: 0000 0000 0000 0000 0000 0000 0000 0000
00000050: 0000 0000 0000 0000 0000 0000 0000 0000
00000060: 0000 0000 0000 0000 0000 0000 0000 0000
00000070: 0000 0000 0000 0000 0000 0000 0000 0000
00000080: 0000 0000 0000 0000 0000 0000 0000 0000
00000090: 0000 0000 0000 0000 0000 0000 0000 0000
000000a0: 0000 0000 0000 0000 0000 0000 0000 0000
000000b0: 0000 0000 0000 0000 0000 0000 0000 0000
000000c0: 0000 0000 0000 0000 0000 0000 0000 0000
000000d0: 0000 0000 0000 0000 0000 0000 0000 0000
000000e0: 0000 0000 0000 0000 0000 0000 0000 0000
000000f0: 0000 0000 0000 0000 0000 0000 0000 0000
00000100: 0000 0000 0000 0000 0000 0000 0000 0000
00000110: 0000 0000 0000 0000 0000 0000 0000 0000
00000120: 0000 0000 0000 0000 0000 0000 0000 0000
00000130: 0000 0000 0000 0000 0000 0000 0000 0000
00000140: 0000 0000 0000 0000 0000 0000 0000 0000
00000150: 0000 0000 0000 0000 0000 0000 0000 0000
00000160: 0000 0000 0000 0000 0000 0000 0000 0000
00000170: 0000 0000 0000 0000 0000 0000 0000 0000
00000180: 0000 0000 0000 0000 0000 0000 0000 0000
00000190: 0000 0000 0000 0000 0000 0000 0000 0000
000001a0: 0000 0000 0000 0000 0000 0000 0000 0000
000001b0: 0000 0000 0000 0000 0000 0000 0000 0000
000001c0: 0000 0000 0000 0000 0000 0000 0000 0000
000001d0: 0000 0000 0000 0000 0000 0000 0000 0000
000001e0: 0000 0000 0000 0000 0000 0000 0000 0000
000001f0: 0000 0000 0000 0000 0000 0000 0000 0000

4.weight f4 [64, 128]
0.036208358 0.12069394 -0.048017778 0.064057104 -0.28736582 0.023121323 0.038784504 0.12335119
0.16133827 0.21263978 0.20308733 0.08752804 0.08575964 -0.1791218 -0.2651538 -0.17300811
0.25643075 0.108716644 0.01969657 0.06238312 0.13123828 -0.1505538 0.052373543 0.13974814
-0.04929805 0.038259115 -0.06537268 0.042157162 -0.07662288 0.2022996 0.017209299 -0.15943243
-0.0760375 -0.030538911 -0.019347033 0.0916748 -0.109241545 -0.18206844 0.11988934 -0.03669429
0.0783179 0.15829666 -0.042042367 -0.09115906 0.16153364 0.13712774 0.012589109 0.22955774
-0.23826294 0.03956117 0.000536802 0.08424052 0.0740541 -0.08690068 -0.23135957 0.068508424
0.13143402 0.07621324 -0.0927375 -0.30667558 -0.14666894 0.1274678 -0.08088404 0.08675556
0.031007502 0.14287412 -0.021301856 0.24092357 0.1516428 -0.1428516 0.09124792 -0.10933794
0.22272977 0.03780634 0.0667168 0.20160522 0.042834636 -0.16539966 -0.07967023 -0.27132934
0.0856085 0.12727787 0.053012077 0.038391333 0.20599739 -0.09949011 -0.094246104 -0.029118568
-0.12075445 -0.03872489 0.059679247 -0.014274578 -0.031399038 0.1421948 0.11862924 0.107081294
-0.11630805 -0.18516351 0.03266459 -0.13591063 0.07291478 0.05160548 -0.06232113 -0.027541675
-0.06729138 -0.1692608 -0.08131524 -0.061395973 0.024230588 0.13022983 0.044553854 -0.074631594
0.11545648 0.06301557 0.16880396 0.033516075 -0.07404496 -0.09071286 0.05145863 0.071122326
0.042391844 -0.18785577 0.02383139 0.15461513 0.043430142 -0.23642871 0.11336412 0.08675135
-0.2138934 -0.02811397 0.042863507 -0.05535468 -0.11265262 -0.060351115 0.028888375 -0.13424078
0.03814971 -0.2833883 0.073275134 -0.092490695 0.0056619816 -0.03212681 0.047450237 -0.06075989
0.045530982 0.27416414 -0.12547849 0.0063839196 0.17627266 -0.048834816 -0.016206933 0.05762259
0.1733343 -0.238275 0.024893025 -0.040034868 -0.102309585 0.1305669 0.08614513 0.08238274
-0.044117037 0.17777899 0.067002796 -0.0019952569 -0.013068556 0.11285688 0.059022497 -0.13863042
-0.080469586 -0.18000655 0.16618626 -0.002457346 -0.09280855 0.02097018 -0.15263323 -0.31166416
-0.22061647 0.18105963 -0.008371602 -0.09617565 -0.06541096 0.007285977 -0.12535834 -0.023839185
-0.03429247 0.06935089 0.20262182 0.032921392 0.307034 0.2095704 0.008310067 0.043237332
-0.0070349555 0.18701787 -0.10108642 -0.22391964 -0.04938369 -0.047545373 -0.009738913 0.18969299
0.06187642 -0.05725592 -0.20995156 -0.14513214 -0.02427155 -0.14922209 0.066049926 -0.08235431
-0.04498394 0.16184187 -0.029828573 0.12337569 0.068216436 0.05241653 -0.14127804 -0.008333394
0.077994406 -0.22169611 0.046631414 0.110105425 0.1889081 0.18014397 0.09023712 0.012632146
0.14212376 -0.0093824 -0.0020643147 -0.04546641 0.1389171 -0.0040391856 -0.17032494 -0.09001123
0.24438274 -0.054884423 0.087433696 -0.08985227 -0.06849035 0.041103404 0.040533047 -0.019212479
0.13754441 -0.0058383197 -0.0753158 -0.18789588 -0.12261873 0.031946927 -0.015941674 -0.069940045
0.0068616057 0.028443169 -0.4200318 -0.054239385 -0.010278905 -0.20118438 -0.11541714 0.19882715
00000000: 374f 143d 622e f73d 4aae 44bd 5f30 833d
00000010: 9d21 93be ee68 bd3c 80dc 1e3d 8c9f fc3d
00000020: dc35 253e 3ebe 593e 20f6 4f3e e741 b33d
00000030: c0a2 af3d b56b 37be 3dc2 87be 0a29 31be
00000040: e44a 833e d5a6 de3d b35a a13c 7185 7f3d
00000050: 5463 063e c62a 1abe a485 563d 231a 0f3e
00000060: c1ec 49bd 97b5 1c3d 1de2 85bd fdac 2c3d
00000070: 75ec 9cbd a027 4f3e 84fa 8c3c 4142 23be
00000080: 8cb9 9bbd bd2c fabc ab7d 9ebc ffbf bb3d
00000090: 08ba dfbd 2670 3abe 8b88 f53d c04c 16bd
000000a0: 2365 a03d 8518 223e 9e34 2cbd 9ab1 babd
000000b0: 1369 253e 376b 0c3e 8d42 4e3c 2f11 6b3e
000000c0: 33fb 73be e50a 223d 2cb8 0c3a 4b86 ac3d
000000d0: ada9 973d fcf8 b1bd 86e9 6cbe 254e 8c3d
000000e0: a496 063e b015 9c3d 29ed bdbd 9504 9dbe
000000f0: 6230 16be eb86 023e 88a6 a5bd e6ac b13d
00000100: 7203 fe3c 984d 123e 3b81 aebc abb4 763e
00000110: 4048 1b3e b147 12be 31e0 ba3d 92ec dfbd
00000120: 4613 643e d2da 1a3d d1a2 883d 9971 4e3e
00000130: 5f73 2f3d 875e 29be 252a a3bd aeeb 8abe
00000140: 8253 af3d 2155 023e 3123 593d 3b40 1d3d
00000150: fbf0 523e 79c1 cbbd 1a04 c1bd 108a eebc
00000160: 1c4e f7bd fe9d 1ebd 3a72 743d ebdf 69bc
00000170: 479c 00bd 839b 113e e3f3 f23d 704d db3d
00000180: ea32 eebd 819b 3dbe 4ecb 053d 282c 0bbe
00000190: 5854 953d 4560 533d 7144 7fbd 149f e1bc
000001a0: 10d0 89bd b452 2dbe 9b88 a6bd 587a 7bbd
000001b0: 3a7f c63c f85a 053e 1a7e 363d 73d8 98bd
000001c0: 7274 ec3d 4f0e 813d f2da 2c3e 2748 093d
000001d0: e2a4 97bd aac7 b9bd 49c6 523d 95a8 913d
000001e0: 12a3 2d3d 435d 40be 0c3a c33c 6e53 1e3e
000001f0: cee3 313d 5e1a 72be 732b e83d b1aa b13d
00000200: df06 5bbe 454f e6bc a591 2f3d 97bb 62bd
00000210: 6bb6 e6bd bb32 77bd 50a7 ec3c 6a76 09be
00000220: df42 1c3d 4518 91be 4611 963d c36b bdbd
00000230: 2588 b93b 6797 03bd 2e5b 423d 5ddf 78bd
00000240: b27e 3a3d 3e5f 8c3e 6f7d 00be 3330 d13b
00000250: d280 343e 0407 48bd 67c4 84bc aa05 6c3d
00000260: 8c7e 313e 5dfe 73be 75ec cb3c 9afb 23bd
00000270: b087 d1bd 54b3 053e dc6c b03d 48b8 a83d
00000280: 11b4 34bd b20b 363e c338 893d dbc2 02bb
00000290: 7f1d 56bc 8221 e73d 93c1 713d 22f5 0dbe
000002a0: 3dcd a4bd a353 38be bb2c 2a3e 6d0b 21bb
000002b0: 6912 bebd a8c9 ab3c e34b 1cbe 7292 9fbe
000002c0: 49e9 61be b267 393e 0b29 09bc bdf7 c4bd
000002d0: 2ef6 85bd 34bf ee3b f05d 00be 654a c3bc
000002e0: 4376 0cbd d707 8e3d 187c 4f3e 95d8 063d
000002f0: 8f33 9d3e 9f99 563e f226 083c a119 313d
00000300: 7c85 e6bb 9d81 3f3e 6606 cfbd 314b 65be
00000310: 8d46 4abd f0be 42bd f68f 1fbc e13e 423e
00000320: 2172 7d3d 2f85 6abd 8bfd 56be 859d 14be
00000330: 21d5 c6bc adcd 18be 2f45 873d 60a9 a8bd
00000340: 1441 38bd e0b9 253e 0d5b f4bc 65ac fc3d
00000350: 0fb5 8b3d b7b2 563d 31ab 10be ca88 08bc
00000360: 88bb 9f3d 4e04 63be 9500 3f3d f47e e13d
00000370: 2071 413e a977 383e 3dce b83d 0ff7 4e3c
00000380: e488 113e a3b8 19bc 7449 07bb fd3a 3abd
00000390: 4940 0e3e 255b 84bb a969 2ebe cf57 b8bd
000003a0: 783f 7a3e 7dce 60bd 7010 b33d 7804 b8bd
000003b0: ab44 8cbd 0b5c 283d fb05 263d 7d63 9dbc
000003c0: 71d8 0c3e 604f bfbb 2c3f 9abd c767 40be
000003d0: 871f fbbd c8da 023d 1d98 82bc ba3c 8fbd
000003e0: 52d7 e03b a601 e93c 680e d7be 1e2a 5ebd
000003f0: da68 28bc 4703 4ebe d25f ecbd 5899 4b3e
