dheera_v0.3.1/dheera_v3.1/checkpoints/dheera_20251224_061210_curiosity.pt (torch, 269954 bytes, 12 tensors)

0.weight f4 [128, 64]
000000 e4 2f 9a 3d 18 f8 6e 3d 90 a8 f8 bd 2e 90 d9 bd
       0.07528666 0.05834207 -0.12141526 -0.10623203
000010 04 8d f0 bd 00 90 02 3c 90 48 4b bd 50 6b e5 bc
       -0.117456466 0.007968903 -0.049629748 -0.028005272
000020 dc 66 b9 3d 92 f3 d5 3d b8 c3 91 bd d2 4d fc bd
       0.09052822 0.10446848 -0.071174085 -0.123195305
000030 20 63 24 3c 00 21 ed 3a 1c 3f 81 bd 08 26 53 bd
       0.010033399 0.00180915 -0.06310865 -0.05154994
000040 3c bf 74 3d 70 b5 aa 3c 98 0d 5d 3d ee 0e 9c 3d
       0.059752688 0.02083847 0.053968042 0.07620035
000050 3c 8d 9b bd 08 7a ab 3c 80 aa 9f 3c a0 25 67 3d
       -0.07595298 0.020932212 0.01949048 0.056432366
000060 a0 e2 b0 bb a6 b2 e3 bd 94 8f 7b bd 30 eb b8 bd
       -0.0053981096 -0.11118059 -0.061416224 -0.090292335
000070 60 99 c8 3b 44 47 46 bd d0 bb 18 bd 80 c8 d1 bb
       0.0061217993 -0.048407808 -0.037288487 -0.0064020753
000080 d2 2b b2 3d 68 58 4f 3d d4 96 c2 3d 1a 4d e0 bd
       0.08699764 0.05062142 0.095014244 -0.10952206
000090 44 7e 76 bd 8a 43 bf 3d 14 cd 6a 3d f6 f1 eb 3d
       -0.06017901 0.09339054 0.057324484 0.1152076
0000a0 ec 21 a2 bd a0 ef d0 3b f0 00 b9 bd 68 38 86 bd
       -0.07916626 0.006376222 -0.09033382 -0.065537274
0000b0 04 ee 07 3d 0e d8 ef bd 90 5b b5 3c 1c a5 cf 3d
       0.033185974 -0.11711131 0.022138387 0.10138914
0000c0 82 75 cc bd 0c 29 22 bd 60 d5 c9 3c fa 17 bf 3d
       -0.0998335 -0.039589927 0.024637878 0.09330745
0000d0 84 d4 ac 3d 00 f9 ee 3a bc 16 53 bd 50 18 6d bc
       0.08438972 0.0018232167 -0.051535353 -0.014471129
0000e0 ca 37 99 3d 56 78 bf bd 08 7b 41 3d 0e 77 dd 3d
       0.07481344 -0.09349124 0.047236472 0.108137235
0000f0 48 35 64 bd c8 1b f2 bd 5e 08 ee bd 20 4d 01 3d
       -0.055714875 -0.11821705 -0.1162269 0.031567693
000100 c4 ae 34 3d 58 f4 5f bd 34 b2 05 3d 40 c1 04 bd
       0.044111982 -0.054676384 0.03264065 -0.03241086
000110 40 de 52 3c b4 02 26 bd 50 c8 c1 bd 78 06 b8 bc
       0.012870371 -0.04052992 -0.09462035 -0.022464022
000120 48 df 95 bd 82 d6 f5 3d 56 fb fe 3d fa 0b c1 bd
       -0.07317978 0.12003805 0.12450282 -0.094261125
000130 c8 ca c5 3c 3e ad dd bd 96 3e fa 3d 32 f4 9a 3d
       0.024144545 -0.10824059 0.122189686 0.07566108
000140 9e c3 f2 bd b4 c0 61 bd b0 42 b6 bd 88 b7 6e bd
       -0.11853717 -0.055115417 -0.088994384 -0.058280498
000150 d4 2f 0a bd 36 c4 f5 3d 48 52 78 3d 52 5d b0 bd
       -0.03373702 0.12000315 0.060625345 -0.086115494
000160 18 d5 98 bd e0 a4 ba bc b4 35 3b bd 3c 60 de 3d
       -0.074625194 -0.022783697 -0.045705512 0.10858199
000170 80 06 12 3c 0c 64 67 3d c4 96 01 3d da 76 b4 bd
       0.0089126825 0.056491897 0.031637922 -0.08811732
000180 90 4b df 3d 68 d5 c5 3c 88 2b e3 bc 7a 78 a9 bd
       0.10903084 0.024149612 -0.027730718 -0.08274932
000190 36 9b 87 bd 14 2a c9 3d f4 e1 1d 3d 10 8e 60 bc
       -0.06621401 0.09822479 0.038545564 -0.013705745
0001a0 70 bd 2e bd c4 18 70 bd f8 97 f4 3c aa f2 86 3d
       -0.04266113 -0.05861737 0.02985762 0.06589253
0001b0 20 47 fe bd c0 8a ef bc 7c 72 8e 3d 9c 6c 3d 3d
       -0.1241591 -0.029240966 0.0695543 0.046246156
0001c0 68 39 05 3d 80 9a 02 3c 08 15 0b 3d 10 f4 20 3c
       0.03252545 0.007971406 0.033955604 0.009823814
0001d0 50 fd 07 3d a6 4a c1 3d 10 92 51 bd 58 d4 db bd
       0.033200562 0.09438066 -0.051164687 -0.10733861
0001e0 1c ea 9f bd b0 68 3a bc 54 ef 7c bd 00 19 19 3c
       -0.07808325 -0.0113774985 -0.06175168 0.009344339
0001f0 52 d7 d2 bd 8c c7 3b 3d 2c 1b c4 bd 80 f0 0e 3c
       -0.10294975 0.0458446 -0.09575495 0.008724332
000200 fc 51 dd bd 38 d4 fc 3c 80 f5 0b 3b 78 36 d1 3d
       -0.10806653 0.030862913 0.0021356046 0.10215467
000210 a6 ee bc bd 58 fb c5 3c 40 20 49 bd 98 5e bd 3c
       -0.09225206 0.024167702 -0.04910302 0.023116395
000220 a8 3a 3c bd a8 16 e6 bc 00 6b f5 3c 60 b5 c4 bc
       -0.045954376 -0.028086975 0.029958248 -0.024012268
000230 86 b2 d6 bd ca 12 a3 bd b4 52 56 3d d4 d9 0a 3d
       -0.104832694 -0.07962568 0.052324966 0.033899143
000240 00 35 20 bb 00 7b ab bd 8e f9 b7 bd b4 9b 30 3d
       -0.0024445653 -0.0837307 -0.08983146 0.04311724
000250 6c 93 d8 3d 08 7b f8 3d f0 97 6e bc fc b4 17 bd
       0.105749935 0.12132841 -0.014562592 -0.037037835
000260 80 16 50 bc 6c f5 3c 3d 98 e7 f4 bd 14 f0 4c 3d
       -0.012700677 0.04613249 -0.119582355 0.050033644
000270 de d0 9b bd 12 5c f8 bd 04 4b fe bd 5c b8 bd bd
       -0.07608198 -0.12126936 -0.12416652 -0.092636794
000280 10 66 82 3c d8 e4 bc 3d c0 0e da 3d 08 6f ee bd
       0.015917808 0.09223336 0.106473446 -0.11642271
000290 a2 76 e1 bd 20 bf cd bd 58 94 ac bd 58 7e 69 bd
       -0.110089555 -0.1004622 -0.08426732 -0.057005256
0002a0 f0 c5 b5 3d ba 26 ae bd 68 91 21 3d 5c 6d a6 bd
       0.08875644 -0.0850348 0.03944531 -0.081263274
0002b0 d6 a2 f2 bd c0 05 e0 bc f2 04 e1 3d 4a db eb bd
       -0.11847465 -0.027346492 0.10987271 -0.115164354
0002c0 f2 26 9f bd 00 c5 79 bc 08 93 29 3d c0 7f e2 bd
       -0.077711 -0.015244722 0.041399986 -0.11059523
0002d0 78 a9 a9 bd 36 64 9e 3d f4 6e fe 3d 2a 85 96 bd
       -0.08284277 0.077339575 0.124235064 -0.07349618
0002e0 74 29 32 bd f8 86 16 bd b4 ce bd bd 60 61 c9 3b
       -0.043496564 -0.03674981 -0.09267941 0.006145641
0002f0 80 94 a0 3a 70 f0 6c bc 20 89 ec 3d 42 d1 bc bd
       0.0012251288 -0.014461622 0.11549592 -0.092196
000300 a0 f5 53 bd 98 7b fd bc bc 02 de bd 88 b4 09 3d
       -0.051747918 -0.030942723 -0.10840365 0.033619434
000310 30 de 76 bd 0e f0 aa 3d 2c 48 2e bd 74 be 7c 3d
       -0.06027049 0.08346568 -0.042549297 0.061705068
000320 60 d9 b5 bd 68 4a e5 3c 4a 26 f7 bd a8 e8 a4 bd
       -0.088793516 0.027989581 -0.1206785 -0.08052188
000330 e8 b6 d5 3d 7c 66 3c bd 38 9f b6 3c 44 74 7e 3d
       0.10435277 -0.045996174 0.022292718 0.0621226
000340 8a cc 83 bd fa f1 f0 3d f8 4b a8 3d ec 23 05 3d
       -0.06435497 0.11764903 0.08217615 0.03250496
000350 08 fa 95 bd c4 3d 33 bd 30 3c ef 3c de 0a d6 3d
       -0.0732308 -0.043760076 0.029203504 0.104512915
000360 e0 b4 3f 3c b4 b3 29 bd 46 54 9c bd ec b1 b7 bd
       0.011700839 -0.041431144 -0.076332614 -0.08969483
000370 d0 2e f9 bd 78 0f b4 3c 26 03 8e bd 80 e4 a0 ba
       -0.12167132 0.021980032 -0.06934194 -0.001227513
000380 aa e7 bc 3d d4 8a 27 bd fc e3 79 bd 40 e9 88 bb
       0.09223874 -0.04090388 -0.06100844 -0.004178196
000390 80 35 97 bd be 7b d4 bd cc 23 09 bd d0 ce d2 bd
       -0.07383251 -0.103751644 -0.033481404 -0.102933526
0003a0 5c 35 22 3d 60 28 8f 3d 68 63 6b 3d 6c 72 7d bd
       0.03960167 0.06990123 0.057467848 -0.0618767
0003b0 a0 9b c8 bc 08 fe 0b bd 4c 65 0b bd a0 6d cc bb
       -0.02448827 -0.03417781 -0.03403215 -0.0062386543
0003c0 18 60 d5 3c 98 60 8c 3c e0 b0 9e 3c a8 56 5c 3d
       0.026046798 0.017135903 0.01937145 0.05379358
0003d0 c4 9d e6 bd a0 93 92 3d a4 cc 7e 3d c6 67 9d bd
       -0.1126056 0.071570635 0.06220688 -0.07685809
0003e0 1c 99 7e 3d f2 6b de bd 1c 2a f7 3d 00 40 41 38
       0.062157735 -0.10860433 0.120685786 4.607439e-05
0003f0 26 47 e4 bd 30 37 04 bd 28 47 8d bd 58 12 5b 3d
       -0.11146383 -0.032279193 -0.068983376 0.05348429

0.bias f4 [128]
000000 c4 92 eb 3d 9c 8b ae 3d a8 5a cc bc d8 f3 8c 3c
       0.11502603 0.08522722 -0.024945572 0.017206118
000010 6c a2 a7 3d 0a f0 cf 3d 14 28 3d bd 5a f3 c0 3d
       0.081852764 0.10153206 -0.0461808 0.094214156
000020 24 c5 d4 3d 64 f6 55 bd 58 27 2a 3d cc 83 01 bd
       0.10389164 -0.05223693 0.041541427 -0.031619832
000030 48 18 48 bd 10 8d e7 bd cc 2c 63 3d 30 c0 03 3c
       -0.04885128 -0.113062024 0.055462644 0.008041427
000040 58 8a 29 bd 2e 4b d3 3d 68 4e ca bc c8 d2 de bd
       -0.0413917 0.10317074 -0.02469559 -0.10880047
000050 58 71 56 3d 40 ed 0f 3d 56 22 90 bd 44 44 b8 bd
       0.052354187 0.03513837 -0.07037799 -0.08997396
000060 30 03 bb 3d 54 8d ba bd 18 04 a0 3c 7e be aa 3d
       0.09131467 -0.091089875 0.019533202 0.08337115
000070 20 69 a9 bb 82 80 dd 3d f8 ea 7d 3d 5c 0e 18 bd
       -0.0051700026 0.108155265 0.06199166 -0.03712307
000080 10 f8 36 bd 0e 6f ce 3d d0 db 96 bc 60 95 ed 3c
       -0.044670165 0.10079776 -0.018415362 0.029001892
000090 f8 27 ad 3c 30 4a c9 bc 6a 64 9c 3d a8 80 a4 3d
       0.021137223 -0.024571508 0.0763634 0.08032352
0000a0 20 a5 26 bd a2 a0 8d bd 6c 21 ea 3d 82 8d b0 bd
       -0.04068482 -0.06915404 0.11432156 -0.086207405
0000b0 7c f1 d9 3d 68 7e 0a 3d 4e d0 be bd 2a 34 b7 3d
       0.106417626 0.033811957 -0.09317075 0.089454964
0000c0 9e d2 e8 3d 00 51 9c bb 76 e4 a9 3d d0 d6 ad bc
       0.11368297 -0.004770398 0.082955286 -0.021220595
0000d0 f8 90 ba bd 80 4a 31 3c ee 70 c7 bd 76 de 90 3d
       -0.09109682 0.010820985 -0.097383365 0.07073681
0000e0 e0 12 a9 3b 80 b2 18 3d 96 27 dc bd 08 f2 98 bc
       0.005159721 0.037279606 -0.10749738 -0.018670097
0000f0 02 f8 f2 bd 84 f9 83 bd 30 70 7f 3c e0 cc 6c 3d
       -0.1186371 -0.06444076 0.015590712 0.05781257
000100 94 4f ab bd e0 71 29 bd 40 c0 9d bc e0 79 d1 bd
       -0.08364788 -0.041368365 -0.019256711 -0.10228324
000110 98 5d cc bc f8 60 98 bd c2 34 89 3d c0 8d 7f 3c
       -0.024946973 -0.0744037 0.06699516 0.015597761
000120 18 98 1b 3d a2 dc e4 3d 3c e4 ec 3d 60 14 46 bc
       0.037986845 0.11174895 0.1156697 -0.012089819
000130 00 84 eb 3d e0 99 62 3c c0 86 75 bc 9e 70 ef 3d
       0.114997864 0.013830632 -0.01498574 0.11691402
000140 90 c1 26 bc b4 e7 19 3d 94 31 51 bd f2 1b e5 bd
       -0.010177985 0.037574485 -0.051072672 -0.11186971
000150 d4 ec fd bd 80 56 03 bc a0 78 10 3c 86 f4 a6 bd
       -0.12398687 -0.008016229 0.008817822 -0.08152108
000160 54 bd b3 bd a4 37 f8 bd 50 ce f4 bc 08 bf 65 3d
       -0.08776346 -0.121199876 -0.029883534 0.056090385
000170 c4 8b 96 bd a8 9c 82 3c ea e8 9f 3d ca d1 af 3d
       -0.07350877 0.01594384 0.07808097 0.08584936
000180 6c 7c a4 3d 3c 80 94 3d 9c 98 ab bd 1a 5f 83 3d
       0.08031544 0.07251021 -0.08378717 0.064146236
000190 4e f6 da bd 7c 09 0b 3d 8c 70 f0 3d b4 13 aa bd
       -0.1069151 0.033944592 0.117402166 -0.08304539
0001a0 30 95 65 bd 78 a8 18 3d a0 0b fb bc dc b4 ea 3d
       -0.05605048 0.03727004 -0.030645192 0.114602774
0001b0 f6 ba ff bd 20 81 aa bb 50 f1 60 3c 58 06 60 bd
       -0.12486832 -0.005203381 0.013729408 -0.05469355
0001c0 40 c9 33 bb 90 43 46 3c cc 68 dc bd 3c 25 be bd
       -0.0027433187 0.012101069 -0.10762176 -0.09284446
0001d0 18 83 85 bc d0 4f 69 3c 5e ed d6 bd 0a 6a a3 3d
       -0.016297862 0.01424022 -0.10494493 0.0797921
0001e0 10 b7 26 bc ce 23 f9 3d ac b7 96 bd 54 5c e7 bd
       -0.010175481 0.12165032 -0.073592514 -0.11296907
0001f0 ca c0 e9 bd 56 2b dc 3d b8 a4 dd bc dc 47 b3 bd
       -0.11413725 0.10750453 -0.027056083 -0.087539405

2.weight f4 [128, 128]
000000 50 7f 70 bc 14 41 97 bd 6a a3 41 3d 08 23 70 bd
       -0.014678791 -0.073854595 0.047274984 -0.05862716
000010 f2 32 5d 3d 9f ba a6 bd 89 85 63 bd 20 c6 b1 bd
       0.054003663 -0.08141064 -0.05554727 -0.086803675
000020 14 d6 17 bd 56 df 96 bd 24 da b1 bd 2f fb 8a 3d
       -0.037069395 -0.07366817 -0.08684185 0.06786191
000030 96 6e 72 bd 04 3e 82 bd db c8 96 3d 00 80 0b b9
       -0.059187494 -0.06359485 0.07362529 -0.00013303757
000040 a9 9a 9e bd 93 b5 13 bd 28 3f c1 3c 4c 97 e0 bc
       -0.07744343 -0.036061835 0.023589686 -0.027415894
000050 e9 54 af bd f0 61 b6 bb 1c 86 92 bd e1 5d 35 bd
       -0.08561117 -0.0055658743 -0.071544856 -0.044278983
000060 90 81 ca 3b 2e ef 8b bd 9d 7d 81 3d 82 9a 37 3d
       0.006179996 -0.06832729 0.06322787 0.044825085
000070 f5 84 8e 3d 5c 00 7d bd 25 a1 8c 3d 3a f4 79 3d
       0.06958953 -0.06176792 0.068666734 0.06102393
000080 60 3b fd bc c0 e8 96 ba 70 10 72 bc ed 77 80 3d
       -0.030912101 -0.0011513457 -0.014774427 0.06272874
000090 91 8d a5 3d 6a 87 3a 3d f8 d1 45 3c 5a 8e 02 3d
       0.08083642 0.045539297 0.012073986 0.03187404
0000a0 b2 2e 0a 3d 55 dc 15 bd 9c 03 c9 3c 82 d3 8a bd
       0.03373594 -0.036587078 0.024537854 -0.06778623
0000b0 41 3f 83 bd ea 05 8d bd 39 27 88 3d 86 46 03 3d
       -0.06408549 -0.06885894 0.06648106 0.03204968
0000c0 0d d8 9d 3d ba 48 46 3d 64 21 13 bd 5a f4 39 3d
       0.07707224 0.0484092 -0.035920516 0.045399047
0000d0 8c f4 46 bd 6e 15 41 3d 2c 77 89 bc e0 03 69 bb
       -0.04857306 0.047139578 -0.016780458 -0.0035555288
0000e0 a0 6c b7 3c aa 7b 6d 3d 60 1a 56 3b 63 79 05 bd
       0.022390664 0.057979263 0.003266953 -0.032586467
0000f0 30 39 cc bb 30 9d f5 bb cd da a3 bd a4 81 95 3c
       -0.006232403 -0.007495545 -0.08000717 0.018250294
000100 c0 4c 8b 3a 50 2c 9a bb 3a 13 73 3d 90 44 dd 3b
       0.0010627732 -0.0047049895 0.059344508 0.006752558
000110 8f 1b 56 bd 15 1d a3 3d da 5b 7f 3d b8 ff b1 bd
       -0.052272376 0.07964531 0.062343456 -0.086913526
000120 a8 db 22 bd f9 1c a5 3d 7a 3a 81 bd 30 03 e2 bc
       -0.03976026 0.08062167 -0.06309982 -0.02758941
000130 10 40 a3 bb 14 38 86 3c 7c ba 09 3d 48 f6 34 bc
       -0.004982002 0.016384162 0.03362511 -0.011045046
000140 92 7d 2e bd 9d 8f b0 bd e8 39 26 3c 3f c6 8d 3d
       -0.042600222 -0.08621142 0.010145642 0.06922578
000150 80 94 74 bc ec fc 01 3d e0 f5 cb bc 42 1b 8e bd
       -0.014927983 0.031735346 -0.024897516 -0.06938793
000160 88 7b 85 3c 80 c6 94 bc 7a c5 2e 3d e4 9e a5 3c
       0.016294256 -0.018161058 0.042668797 0.020217367
000170 c5 9b 9f 3d 4a 40 68 3d cc cf 95 bd 5a bd ab bd
       0.077933826 0.056701936 -0.07315025 -0.08385725
000180 3a 85 de bc e5 b0 a6 bd ff d8 aa bd ca d7 6b 3d
       -0.027163137 -0.08139209 -0.0834217 0.05757884
000190 c8 18 6b bc 88 6d 12 bc 5d 33 22 bd ca 08 72 3d
       -0.01434917 -0.008937247 -0.039599765 0.059090413
0001a0 a5 b6 0f bd d0 cd e8 3c ae 93 2c 3d 4d 60 84 bd
       -0.035086293 0.028418452 0.042133026 -0.064636804
0001b0 d6 ee a6 bd 02 aa 3f 3d 9c f4 9f bd 79 d5 a4 3d
       -0.08151023 0.04679299 -0.078103274 0.08048529
0001c0 88 62 9c bd 00 80 78 b7 00 0b a8 b9 2b dd 95 3d
       -0.07635981 -1.4811754e-05 -0.00032051653 0.07317575
0001d0 18 62 57 bc e2 76 94 bd 25 9e a6 bd e8 2e 1a 3c
       -0.013145946 -0.072492376 -0.081356324 0.009410597
0001e0 40 1a 71 bc 8a 58 62 bd d6 a8 b3 bd f0 ae 73 bc
       -0.014715731 -0.05526022 -0.08772437 -0.014873251
0001f0 e8 86 27 3c ce b0 21 bd d4 fa fb 3c 80 89 55 3b
       0.010225035 -0.039475255 0.030759253 0.0032583177
000200 c1 91 a4 bd b3 21 22 bd 40 76 13 3d 47 1e 95 3d
       -0.08035613 -0.03958292 0.036001444 0.072811656
000210 3e fa 59 3d 38 df ec bc 6b c2 9b bd b4 6b 8b bc
       0.053217165 -0.028915033 -0.07605442 -0.01701913
000220 22 14 28 bd b8 83 24 bc 05 d8 98 3d 4f fb 46 bd
       -0.041034825 -0.01004117 0.074630775 -0.04857951
000230 e1 ee 98 bd c1 7b 6e bd a0 e6 ae bd 20 84 c8 3c
       -0.074674375 -0.05822349 -0.08540082 0.024477065
000240 45 44 54 bd 7c 94 d4 3c 1e 44 6e 3d d8 c7 a1 3c
       -0.05182292 0.02594971 0.05817043 0.019748613
000250 da f2 e3 bc e0 97 8e bd f0 9d 24 bd f4 2c dd bc
       -0.027825762 -0.069625616 -0.040189683 -0.026998974
000260 e2 c2 12 3d 12 22 90 bd 9e ef 72 3d 32 e9 14 3d
       0.035830386 -0.070377484 0.059310548 0.036355205
000270 60 67 55 bb e8 6f d0 3c cd 65 9c bd 99 3c 38 bd
       -0.0032562837 0.025443986 -0.076366045 -0.044979665
000280 a0 d4 6c bd 7f 2c a0 bd 9d 1b 9c 3d 40 bd b5 3a
       -0.057819963 -0.07820987 0.07622454 0.0013865605
000290 da 0b 4f 3d d8 38 01 3d 9c d6 50 bd 10 13 9a bc
       0.050548412 0.03154835 -0.050985917 -0.018807918
0002a0 0c 36 75 bd b8 28 7a 3c a4 e1 16 bd 80 95 0b bb
       -0.059865996 0.015268497 -0.03683628 -0.0021298826
0002b0 6b cc a7 3d 4a 1e 0c 3d e6 5e 18 3d ef 61 8a 3d
       0.081932865 0.034208573 0.037199877 0.067569606
0002c0 50 f4 ab bd 80 fe 9e 3b b8 8c 1d bc 64 cf 09 bd
       -0.08396208 0.004852116 -0.0096160695 -0.03364505
0002d0 d3 88 a8 3d 02 fe 06 bd ca e4 25 bd f3 3d 99 3d
       0.08229222 -0.032957084 -0.040501393 0.07482519
0002e0 6e 84 5e 3d 80 ca 0f 3a c0 c2 25 3c d0 7e 07 3d
       0.054325514 0.0005485192 0.010117233 0.033079922
0002f0 ed 51 b0 3d da e5 40 3d d9 1d a9 bd df c4 81 bd
       0.08609376 0.047094204 -0.08257646 -0.06336378
000300 28 90 74 3c 06 ae 49 3d b8 ee 72 3c fb 1b 12 bd
       0.014926948 0.049238227 0.014827423 -0.035671216
000310 e6 f5 40 3d 2b 5a a9 3d b3 26 b4 3d 45 2d 8f 3d
       0.047109507 0.08269151 0.08796444 0.06991056
000320 a0 42 db 3c 69 d7 03 bd 40 a1 2c 3c 30 25 b6 bb
       0.026765168 -0.032187853 0.010536492 -0.0055586323
000330 b0 f2 91 bc e8 78 92 bc a6 fb 25 3d 4a 94 0e bd
       -0.017815918 -0.017879918 0.040523194 -0.03480939
000340 16 55 85 bd a8 cb 02 3d 0c 0a 02 bd 1c ae 8e bd
       -0.065103695 0.031932503 -0.031747863 -0.069668025
000350 46 b9 5a 3d e0 3a 61 bb a7 82 06 bd 08 e3 2a 3c
       0.053399347 -0.0034367368 -0.032839444 0.010430105
000360 09 fc 95 3d 65 5f a3 bd 2c aa b3 bc 36 72 65 3d
       0.073234625 -0.079771794 -0.02193173 0.056017123
000370 87 d9 5e bd 30 5c 84 3b 8f 7f 28 bd fd 88 8d 3d
       -0.05440667 0.00403931 -0.041137274 0.06910894
000380 dc 4d 91 bd 12 e8 6e 3d ef 27 8b bd b2 f9 e3 bc
       -0.070949286 0.05832679 -0.06794726 -0.027829025
000390 16 c0 5e bd fc 18 12 3d 30 b5 63 3c 7d cd 9b 3d
       -0.054382406 0.03566836 0.013898179 0.07607553
0003a0 08 8d 19 bc 40 8f 8f bb f9 93 b1 3d 73 46 ac bd
       -0.009372003 -0.0043810904 0.08670802 -0.084118746
0003b0 68 df 06 3d 3d dc 9a bd bf b6 a8 3d d0 42 6c bc
       0.0329279 -0.07561538 0.08237981 -0.014420226
0003c0 a8 07 24 bd 10 1c de 3c 8b 7b 81 3d 66 f4 84 bd
       -0.040046364 0.02711299 0.06322392 -0.06491928
0003d0 4a 4a 9d bd ee 37 a7 bd 1c 66 de 3c 8f 0c 2d bd
       -0.07680185 -0.081649646 0.027148299 -0.042248305
0003e0 e0 d8 02 bc 00 c2 32 bb bc 40 c7 3c 37 63 9d bd
       -0.007986277 -0.0027276278 0.02432286 -0.07684939
0003f0 00 c8 5a 39 c0 b0 f4 bb 60 49 08 3b 00 98 49 3c
       0.00020864606 -0.0074673593 0.0020795688 0.012304306

2.bias f4 [128]
000000 e0 09 09 bc 00 39 ab bb 83 c1 40 bd 14 a6 1a bd
       -0.008364171 -0.005225301 -0.047059547 -0.03775604
000010 00 8b 28 ba 4b 30 86 3d 90 9b 6e bd 0e f4 51 3d
       -0.0006429404 0.0655218 -0.058253825 0.05125814
000020 b2 35 31 bd c0 37 72 3c b2 bd 56 3d ac c7 3d bd
       -0.0432641 0.0147838 0.052427 -0.046333
000030 75 48 0b bd 6c f3 da 3c 80 bc 4e bb 38 38 86 bc
       -0.034004647 0.0267274 -0.003154546 -0.016384229
000040 f7 f9 af bd 64 e5 f8 3c 2c ff b1 bd 8c b1 f1 bc
       -0.08592599 0.03038282 -0.08691248 -0.029503606
000050 08 92 f6 3c 9a 24 79 3d c1 5f 85 3d e0 e9 81 3b
       0.03009893 0.06082592 0.06512404 0.0039646477
000060 49 e3 8c 3d c6 66 76 bd e0 7e 62 bc 00 1c 58 bd
       0.06879289 -0.060156606 -0.013824195 -0.052761078
000070 86 95 9f bd cc f1 44 bd 6d 0f ac 3d 44 f8 ff 3c
       -0.07792191 -0.048082158 0.0840138 0.031246312
000080 2f 11 6b bd 67 df aa 3d e8 5a 85 bd 79 a7 85 3d
       -0.057389434 0.08343392 -0.065114796 0.065260835
000090 9e 21 58 3d 37 df 97 3d 48 2a 7c bc 57 87 9d 3d
       0.052766435 0.07415622 -0.01539094 0.0769183
0000a0 c1 a0 35 bd be 66 6d 3d a0 af 52 bb ec 3b bb 3c
       -0.04434276 0.05795931 -0.0032148138 0.022855721
0000b0 62 09 06 3d 82 61 e8 bc b3 bb 86 3d 96 3d a2 bd
       0.032723792 -0.028366808 0.065787695 -0.07921903
0000c0 00 a8 cf 3b 30 79 b5 3c f5 e2 a1 bd 60 6c 7a bc
       0.006337166 0.022152513 -0.07904617 -0.015284628
0000d0 26 37 3c bd b1 a1 80 3d 24 dd ee 3c 44 e0 06 3d
       -0.04595103 0.0628084 0.029158182 0.03292872
0000e0 4f 70 a5 bd 4d ce 95 bd f3 5b 89 bd 01 de a5 3d
       -0.08078062 -0.073147394 -0.06706991 0.080989845
0000f0 59 43 b2 3d b0 d9 66 3c 56 eb 75 3d 48 7d 80 bc
       0.08704252 0.014089987 0.060038887 -0.015684739
000100 7d 93 61 bd d1 d6 26 bd db 45 8c 3d 30 23 6c 3c
       -0.055072296 -0.04073221 0.068492614 0.014412686
000110 5c dd 98 bd 58 cc 63 3c ff 2b 33 bd d6 a7 94 bd
       -0.07464096 0.0139037 -0.04374313 -0.07258575
000120 08 8b 97 bc 3e dc a8 bd 9d 4e b2 3d bc 4c a7 bd
       -0.018498912 -0.08245133 0.087064005 -0.08168933
000130 78 bf bf bc 4b 87 b0 3d 33 d7 4f bd bc 66 9b 3c
       -0.02340673 0.08619555 -0.05074234 0.018969886
000140 36 f5 34 3d 80 0e 29 3b c0 cb 67 bd 8c 65 8a 3c
       0.044179164 0.0025795996 -0.056590796 0.016894124
000150 f8 a1 cf 3c f1 22 4b bd 8c 43 4b bd 70 18 86 3c
       0.025345787 -0.04959387 -0.049624965 0.016369075
000160 e0 61 34 bc d5 c9 5b bd c3 93 84 3d 01 03 22 bd
       -0.011009663 -0.05365928 0.06473496 -0.039553646
000170 bd fc 98 3d 62 5b 22 3d d6 2a 28 bd b8 01 a6 3c
       0.07470081 0.03963793 -0.041056477 0.020264491
000180 31 56 8e 3d e4 00 97 bd 35 84 83 3d fe c8 3c bd
       0.069500335 -0.07373217 0.06421701 -0.04609012
000190 d8 12 6a bc 00 8e 9b bc 80 2c 09 3d b6 22 80 bd
       -0.014286719 -0.01898861 0.033489704 -0.062566206
0001a0 52 0b 3c bd 60 e5 7d 3b 21 cf 17 bd 20 c6 0e 3c
       -0.045909233 0.0038741454 -0.037062768 0.008714229
0001b0 b1 45 84 3d 4c 33 85 bd 71 06 24 bd 48 89 13 3d
       0.06458605 -0.06503925 -0.040045206 0.036019593
0001c0 f9 f7 a8 3d 20 e7 b1 3b 03 04 85 3d 25 a5 84 bd
       0.08250422 0.0054291636 0.06494906 -0.06476811
0001d0 7f 3f 8c 3d 30 b2 25 bc b6 e1 8c bd c0 85 db ba
       0.068480484 -0.010113284 -0.068789884 -0.0016748235
0001e0 12 8f 15 3d c0 4e 6e bb bd 79 96 3d 35 d0 27 bd
       0.036513396 -0.0036362857 0.073474385 -0.040970046
0001f0 3f 4a 92 bd 50 99 55 bc a1 b7 97 3d 40 25 73 bb
       -0.071430676 -0.013037041 0.07408071 -0.003710106

4.weight f4 [64, 128]
000000 71 68 1c bd 60 54 03 3c f6 84 2a bd 38 35 fb bc
       -0.03818554 0.008015722 -0.041630708 -0.030665025
000010 20 95 e6 bb b0 30 37 bc 9f b3 58 bd f0 fc c2 3c
       -0.00703682 -0.011181042 -0.052905675 0.02380225
000020 5c e7 a5 3c 70 3e 97 bb ce 4e 25 3d a4 29 b4 bd
       0.020251922 -0.0046155974 0.040358357 -0.08797005
000030 4e e3 66 3d c0 df 09 bc 1c 69 e9 3c 44 f6 f1 bc
       0.05636912 -0.008415163 0.028492503 -0.029536374
000040 c2 ae f6 bc ee 45 1b bd 51 df 96 3d 94 fa 7f bd
       -0.030112628 -0.037908487 0.07366813 -0.06249483
000050 ee ad f7 bc bf d5 9c 3d 8e 82 29 3d c4 06 86 bc
       -0.030234303 0.07657956 0.041384272 -0.016360648
000060 e8 2d b7 3c 26 6a 45 3d fd 56 99 bd 3a 04 4c 3d
       0.022360757 0.048196934 -0.07487295 0.04980872
000070 73 5e a5 3d e6 81 61 3d 6a f0 65 3d 80 2d 6d bb
       0.080746554 0.05505552 0.05613748 -0.003619045
000080 d8 41 08 3d 26 da 10 3d 74 d4 fa 3c ba 54 9f bd
       0.03326592 0.035364293 0.030618884 -0.07779832
000090 ce b4 a1 bd 3c e9 61 bd af 0c 33 bd 9f e7 83 3d
       -0.07895814 -0.05515407 -0.043713268 0.064406626
0000a0 26 7f 92 bd 2a 38 63 3d 52 eb 27 bd 96 8d d4 bc
       -0.07153158 0.055473484 -0.040995903 -0.02594642
0000b0 3a 93 49 3d c7 c2 b0 3d a8 9a b2 3c af 12 81 bd
       0.04921267 0.08630901 0.021802261 -0.06302392
0000c0 48 61 70 bc 0e ee 7d 3d 45 5d ad bd a0 9d aa bc
       -0.014671631 0.061994605 -0.084650554 -0.020827115
0000d0 ac f1 51 bd de 1d 7c 3d f0 f9 c6 bc e3 b5 01 bd
       -0.051255867 0.06155192 -0.024289101 -0.0316676
0000e0 98 24 98 3c f2 7c 44 bd ea 75 69 3d 87 e8 a1 bd
       0.018572137 -0.04797072 0.056997217 -0.07905679
0000f0 c2 05 88 bd fa 1d ad bd 00 a3 48 bc 9c b9 a0 bd
       -0.06641723 -0.08452983 -0.0122458935 -0.07847902
000100 2e b8 02 bd 30 bf f3 bc b7 32 97 bd 7c 7b a0 bd
       -0.03191393 -0.029754251 -0.0738272 -0.07836053
000110 2c 78 77 bd c0 7e cf 3c 76 5f f4 bc c6 9e 5f 3d
       -0.06041734 0.025328994 -0.029830676 0.054594778
000120 86 70 8d bd a6 15 29 3d 70 54 3f bc 30 d0 e1 bb
       -0.06906228 0.04128041 -0.011677846 -0.006891273
000130 d1 2c 9f 3d 65 8f 85 3d 73 49 68 bd 3b 58 a8 3d
       0.0777222 0.06521491 -0.05671067 0.082199536
000140 94 3d af bc c3 78 9a 3d 0d b4 a9 3d 00 ac 4a 3b
       -0.021391667 0.07542565 0.08286295 0.0030925274
000150 18 9d 69 3c ba 82 37 bd f0 29 e8 3c a3 b9 9e 3d
       0.0142586455 -0.044802405 0.02834031 0.07750251
000160 38 68 bd bc 40 27 e9 bb 94 80 a1 bd e8 57 4d 3c
       -0.023120984 -0.0071152747 -0.078858525 0.0125331655
000170 cf 9c ae bd 3b 74 98 3d e0 e7 15 bb d5 23 06 bd
       -0.085260026 0.07444044 -0.0022873804 -0.032749016
000180 3c 71 b0 3c 7a f9 62 3d e8 fe 2a bc 5d 23 8f 3d
       0.02153837 0.0554137 -0.010436751 0.06989167
000190 d3 dc ac bd 00 2c c5 ba 80 47 1b 3a d0 0a c0 bb
       -0.084405564 -0.001504302 0.0005923435 -0.005860664
0001a0 76 b1 24 bd 60 91 cf 3b 10 78 40 bd 3a 06 3b 3d
       -0.040208302 0.0063344687 -0.0469895 0.045660235
0001b0 f8 e7 91 bc fd fd a2 3d 59 9f 9c 3d 20 d8 64 3b
       -0.017810807 0.07958601 0.07647581 0.003491886
0001c0 80 dd 8f bd 09 e8 94 3d ee aa f6 bc 20 b7 2a 3c
       -0.0702467 0.0727082 -0.030110803 0.010419637
0001d0 08 be 66 3c 1b 51 9c bd 39 37 89 3d 76 39 e2 bc
       0.014083393 -0.07632657 0.06699986 -0.02761529
0001e0 1e 3f 7d bd 2a 26 64 3d 00 66 09 3d 75 e3 17 bd
       -0.06182777 0.05570046 0.03354454 -0.037082154
0001f0 ae ac 72 3d 96 ce 2f 3d 12 74 30 bd dc 2b 62 bd
       0.05924671 0.042921625 -0.043079443 -0.05521761
000200 ec 5e 9d bd 77 c0 b2 bd fc ae 10 3d 52 5a ea bc
       -0.076841205 -0.08728116 0.035323128 -0.028607521
000210 e0 24 3e bd 22 b0 b1 bd d4 7e bc bc d0 02 49 3c
       -0.046421885 -0.08676173 -0.023009695 0.012268737
000220 ac 00 8e bd 09 98 84 3d 5e 66 37 3d 50 20 0c 3c
       -0.06933722 0.06474311 0.04477536 0.008552626
000230 cc e7 a2 bd f8 e0 8c bd 37 c9 89 3d 54 a2 ba 3c
       -0.07954368 -0.06878847 0.06727832 0.022782482
000240 33 d7 8b 3d 08 2b d5 bc 51 51 b1 3d ac da a7 bc
       0.06828155 -0.026021495 0.08658088 -0.020490013
000250 c7 51 9e 3d ba 4b 5e 3d 5c fa c6 bc 5c 4f f2 bc
       0.077304415 0.054271437 -0.024289303 -0.029578857
000260 15 64 ad 3d e8 1b 09 3c c0 bc 38 3b 3c 1f bf 3c
       0.08466355 0.00836847 0.0028188676 0.023330323
000270 24 2c ae bd 84 3e 56 bd 52 92 3a 3d c2 9a 24 3d
       -0.08504513 -0.052305713 0.0455497 0.04018665
000280 11 7b 09 bd da f7 4c bd 56 29 7f 3d 28 2a 30 3c
       -0.03356463 -0.050041057 0.06229528 0.010752238
000290 34 0d c0 bc 0c 62 0a 3d 44 67 a0 bd 19 3a 23 bd
       -0.023443796 0.03378491 -0.07832196 -0.039850328
0002a0 f1 e1 81 3d 01 5e 92 3d f8 3d 52 3c d0 21 fd 3b
       0.06341923 0.07146836 0.012832157 0.007724978
0002b0 be 20 65 3d 98 12 b6 bc cf 22 a3 bd cc be b2 bd
       0.05593943 -0.022225663 -0.079656236 -0.08727798
0002c0 9e bd 7d 3d 9e 94 65 3d 50 60 9f bb 14 a5 b0 bd
       0.06194841 0.056049936 -0.0048637763 -0.08625236
0002d0 54 df 87 bc 84 85 ca bc fe 87 3d 3d 3c 40 b0 3c
       -0.016585983 -0.024721868 0.04627227 0.021515004
0002e0 2a 96 28 3d 78 bc c5 bc 1a f0 4c 3d e9 4e 76 bd
       0.041158833 -0.02413772 0.050033666 -0.06013385
0002f0 80 97 da bc f7 ca 98 bd d3 54 4b bd 68 f1 33 3c
       -0.026683569 -0.074605875 -0.04964144 0.010982849
000300 18 07 22 3c ac ca 84 bc a3 9f 29 bd 92 bc 70 3d
       0.009889387 -0.016209923 -0.041412007 0.058773585
000310 36 b3 a1 bd 33 b2 94 bd 97 02 8e 3d 35 90 b1 3d
       -0.0789551 -0.07260551 0.06934088 0.086700834
000320 1b 92 9d 3d fb f2 3d bd e0 6b 0c 3d 84 bc c1 bc
       0.07693883 -0.046374302 0.034282565 -0.023649462
000330 cf 4c 88 bd b2 4e 93 bd 00 2e 55 3c 63 b1 b0 bd
       -0.06655275 -0.07192744 0.013011456 -0.08627584
000340 fa 4f 37 3d 92 41 40 bd 24 12 9e bd 3a 4c 93 bd
       0.044754006 -0.046937533 -0.07718304 -0.071922734
000350 b8 33 28 bd 22 00 33 3d 70 2b 15 3c c8 49 da 3c
       -0.041064948 0.0437013 0.009104595 0.02664651
000360 99 2d 5f bd 3c 7a 90 3c 8e 93 16 3d d4 20 99 3c
       -0.054486845 0.01763641 0.036761813 0.018692411
000370 ba 33 62 3d e8 34 3d bc ac d8 ba 3c df e8 9e 3d
       0.05522511 -0.011548258 0.022808395 0.077592604
000380 21 96 88 3d 36 f0 22 3d 78 73 a9 bd a9 c9 b1 3d
       0.0666926 0.039779864 -0.08273977 0.08681042
000390 10 8b 9c 3c 26 65 2d bd 85 75 79 bd 4f a4 3c bd
       0.019109279 -0.04233279 -0.06090309 -0.046055134
0003a0 c1 4a a7 3d 18 a1 ee 3c 52 ee 83 bd a0 14 c3 3c
       0.08168555 0.02912955 -0.0644194 0.023813546
0003b0 17 bb 99 3d 2e 4a db bc a0 45 3b 3c c0 0d 6b bb
       0.07506388 -0.02676877 0.011430174 -0.003586635
0003c0 5f fa 9d 3d 89 97 1d bd f8 08 42 bd 81 7a 9c 3d
       0.0771377 -0.038474593 -0.047371835 0.07640553
0003d0 10 0b 33 3c 78 7f bb 3c 80 60 b8 3b ca 72 7c 3d
       0.0109279305 0.02288793 0.005626738 0.06163291
0003e0 38 a8 ad 3c 00 ea 77 3b a2 e7 5d 3d 4a b0 31 bd
       0.021198377 0.0037828684 0.05417598 -0.043381013
0003f0 c5 09 7e bd 7c e8 c1 3c 86 8e 6b 3d f2 38 4a bd
       -0.062021036 0.023670428 0.057508968 -0.049370714

4.bias f4 [64]
000000 d2 3e 18 bd 78 ce 59 bc 28 5a cf bc 66 b7 44 3d
       -0.037169285 -0.013293855 -0.025311545 0.048026465
000010 ca 1c 40 bd f0 84 56 bd 0d fa 28 bd 6e 28 1e 3d
       -0.046902455 -0.052372873 -0.041254092 0.038612776
000020 f0 f8 4e 3c e0 07 f7 bc 00 51 89 bb 22 66 91 bd
       0.0126325935 -0.030155122 -0.004190564 -0.070995584
000030 70 84 0b bc 72 4f 47 3d 7c 4b 8f 3c 7c 64 f2 bc
       -0.008515462 0.04865975 0.017492048 -0.02958893
000040 cc 80 9e 3c 40 a2 8e ba c3 a5 00 bd b0 76 64 3c
       0.019348525 -0.0010882095 -0.031408083 0.013944313
000050 d2 ea 77 bd a9 e6 39 bd c2 04 3d 3d c0 63 86 3c
       -0.060526676 -0.04538599 0.046147116 0.016404986
000060 c2 a8 90 bd f3 1a 69 bd 22 6a 7e 3d c8 8f fd 3c
       -0.07063438 -0.056910466 0.062112935 0.03095235
000070 47 62 9d 3d 88 6e 04 bc 3d e2 ad 3d 10 35 69 bc
       0.076847605 -0.008082993 0.08490417 -0.0142338425
000080 c5 e5 56 bd 1c e6 a2 bc 80 09 83 3a 72 85 70 bd
       -0.05246522 -0.019885115 0.0009997338 -0.058721013
000090 79 75 b4 3d dd fc 83 3d c4 44 b5 3c b2 77 21 3d
       0.08811469 0.06444714 0.022127517 0.03942079
0000a0 40 c9 e6 ba 9f 79 aa 3d e3 5d 7d bd 39 17 9e bd
       -0.0017607585 0.08323979 -0.061857115 -0.07719273
0000b0 54 3e aa 3c ea 77 3a 3d b0 7c fa bb 92 07 55 3d
       0.020781673 0.045524515 -0.0076442584 0.052009173
0000c0 02 bd 13 bd d6 1f 54 3d 50 c9 ee bb b1 38 95 3d
       -0.036068924 0.051788174 -0.007287182 0.07286204
0000d0 a8 9f 18 bc ca b5 84 bd 15 50 15 bd 0a 75 28 bd
       -0.009315409 -0.06479986 -0.036453325 -0.041127242
0000e0 21 4e a7 3d 7f 90 8f 3d 48 09 2a bd fc fd 70 bd
       0.08169199 0.07009982 -0.041512758 -0.05883597
0000f0 68 62 76 3c 15 42 13 bd 3e 21 e1 bc 1c e6 e2 3c
       0.01503811 -0.035951693 -0.027481671 0.027697615

0.weight f4 [128, 64]
000000 c3 4d 56 3d 78 1a 60 be 6c c8 8f bd 7f 1a eb 3d
       0.052320253 -0.21885097 -0.07020649 0.11479663
000010 ac b4 9f 3d 87 5b 52 be cf 97 3b 3e 5e 2a 3a 3e
       0.07798132 -0.20542727 0.18319629 0.18180224
000020 0a 6f 54 be 7e 7e fb bc d0 b5 71 bd d0 ef 6d 3d
       -0.20745483 -0.030699965 -0.05901128 0.05809003
000030 a3 69 88 3c 60 34 eb 3d 2a e3 92 bd 88 1a 0c 3d
       0.016651934 0.11484599 -0.07172234 0.03420499
000040 a9 ae 10 be 0f 5a ff bc e2 0a 31 bd fb e7 86 bd
       -0.14129128 -0.031170873 -0.04322327 -0.065872155
000050 11 8f b8 bd 0f f8 e6 3d 3f 08 c7 bd 38 08 70 3d
       -0.09011663 0.11277782 -0.0971837 0.058601588
000060 14 5e 2f bd a4 1d 4f 3e 66 c7 e5 bd bb 00 96 be
       -0.04281433 0.20226151 -0.11219673 -0.29297432
000070 51 66 09 3d 45 a6 80 3e f7 74 cc 3d 61 a9 80 3d
       0.033544842 0.25126854 0.09983247 0.062823065
000080 28 41 a7 bd 48 c0 9e 3d 18 d9 02 be cd f2 0e be
       -0.081667244 0.077515185 -0.12778127 -0.13959809
000090 be 2c 20 3d c1 6b 2f bd 02 ac 5f bd 88 db 8e 3e
       0.03910517 -0.04282737 -0.0546074 0.27901864
0000a0 ac 65 6b bc c7 75 f7 bd 68 9a f8 3d 45 46 64 3d
       -0.014367502 -0.12083011 0.12138826 0.055731077
0000b0 29 d5 92 bc c2 6e d4 3d 12 69 cc 3d 9b f3 25 3d
       -0.017923908 0.10372688 0.09980978 0.040515523
0000c0 57 12 64 3d 29 06 0b bd 08 24 76 bd 7b 82 db bc
       0.055681553 -0.03394142 -0.060092956 -0.026795616
0000d0 59 a0 20 3d 71 77 7b bd e6 a4 ba 3c 78 62 b3 bd
       0.03921542 -0.061393205 0.022783708 -0.08759016
0000e0 eb d3 86 3d 27 84 2f 3e fb df 4a 3d 31 34 30 be
       0.06583389 0.17140256 0.04953001 -0.1720741
0000f0 a3 5b 7b bc 9c 8b 35 be a3 ab ea bd 25 f1 88 3d
       -0.015341672 -0.17729038 -0.11458518 0.0668662
000100 99 d8 e1 3a 4e 9c 61 3d 4e dd c2 bb 59 d7 bf bd
       0.0017230689 0.055080704 -0.0059467917 -0.09367246
000110 71 d5 f1 bd a1 3c a1 3d e9 f9 09 be 83 b5 c0 bd
       -0.11808289 0.07872892 -0.1347424 -0.094096206
000120 09 45 80 3e 5c 70 50 3e 5e 29 14 be e1 ee eb 3d
       0.2505267 0.20355362 -0.14468905 0.11520172
000130 39 b7 a2 3d 1a d7 d7 bd e6 d8 20 3d e9 19 2d 3e
       0.07945103 -0.10539074 0.03926935 0.16904415
000140 0f cd 43 3e 91 e7 f1 bc 3c 0f 93 3b f1 1b 38 be
       0.19121192 -0.029529365 0.0044879 -0.17979409
000150 51 f2 09 be a4 c8 ec 3d 3d 2c bd 3d 80 7f ef bd
       -0.13471343 0.11561707 0.092369534 -0.116942406
000160 ec 25 b4 bd f3 d0 5e 3d 7b 77 e6 bd 39 0f 70 bc
       -0.087962955 0.05439849 -0.11253258 -0.014652067
000170 21 63 b5 bd 99 ab 5a 3e 77 e0 41 bd 97 4d cc 3d
       -0.08856798 0.21354522 -0.047333207 0.099757366
000180 94 40 c9 be 7d 7e 34 3d f4 45 93 3e 30 08 ab bd
       -0.39307082 0.04406594 0.28764307 -0.08351171
000190 2f e3 d5 3c 7c 80 67 bd df 0d 6e be d4 01 80 3d
       0.026109306 -0.056519017 -0.23247479 0.06250349
0001a0 92 94 30 be 66 8f 0d 3c 81 fa 1d bd 3c a9 6d 3c
       -0.17244175 0.008640146 -0.038568977 0.014505681
0001b0 39 ba 5e be f6 29 17 be 6f 7e ee 3d 98 8f 39 3c
       -0.21750726 -0.147621 0.11645209 0.011325739
0001c0 83 78 87 be f0 87 3b bd 79 b3 a8 bd fc fc f7 3d
       -0.2645913 -0.045783937 -0.08237357 0.121088
0001d0 1a 88 a9 bd c0 e5 8e bd 7c d0 45 bd 21 fc 96 be
       -0.082779124 -0.06977415 -0.04829453 -0.29489234
0001e0 04 ac 96 b9 16 25 86 bd f4 bc 23 3e 92 15 03 3e
       -0.0002873839 -0.06550042 0.15990049 0.12801197
0001f0 fa da 5e ba 6b 1b 0b 3e bb 08 8b bd c7 94 9e bd
       -0.0008501258 0.13584678 -0.067887746 -0.07743221
000200 c9 7f 05 be 27 62 6d 3d 6f 6e 15 be f7 1a a9 bc
       -0.13037027 0.057954933 -0.14592908 -0.02064274
000210 cd b2 66 3e 24 10 b9 bd 7f cd 25 be 00 b9 8d bd
       0.22529145 -0.09036282 -0.16191672 -0.069200516
000220 c4 a6 b2 bd 38 7f 67 be 24 56 81 be 59 98 da bb
       -0.08723214 -0.22607124 -0.25261033 -0.0066709933
000230 1a 9f 78 3e 42 cb 9b bd 27 9f 1d bd 48 10 ea 3d
       0.24279442 -0.07607128 -0.038481858 0.11428887
000240 2a 7d 37 be 1a 2e 25 3e a8 34 85 3e 8b 9d 18 bd
       -0.1791884 0.16130868 0.26016736 -0.03725962
000250 02 9c 08 be 70 12 c3 3d df eb 0f bd 90 d7 2c be
       -0.13340762 0.09525001 -0.035137054 -0.16879106
000260 25 7c 11 be a3 38 79 bd 14 e7 73 3d cf bf 95 3d
       -0.14207514 -0.06084503 0.059546545 0.07311975
000270 6e 2f 1b 3e 16 93 1e 3e e3 9f f2 3d 61 49 18 bd
       0.15154812 0.15485796 0.11846902 -0.037179355
000280 5a 14 5c be 35 87 df 3d c5 ca e7 3d b9 e9 82 ba
       -0.21492139 0.109144606 0.11317972 -0.0009987868
000290 ca 88 00 be 43 32 29 bd 6d 5b c1 3c d3 b9 6e ba
       -0.12552181 -0.0413077 0.023603166 -0.00091066695
0002a0 64 b7 68 bd ac 5e d1 bc 3a f5 8d bc 9b 90 85 3d
       -0.05681552 -0.025557838 -0.017328847 0.06521722
0002b0 88 84 8c 3e f6 11 a8 3d 7c dd 9d be 7f a9 ab 3c
       0.27444863 0.08206551 -0.30833042 0.020954845
0002c0 53 f2 27 3b 18 55 d6 bd 45 09 dc 3d a6 0f dd 3d
       0.0025626614 -0.10465449 0.107439555 0.10794
0002d0 70 27 00 be 82 ce ad bd ec e5 7a 3d 4a d9 11 bc
       -0.12515044 -0.08486654 0.061254427 -0.008901903
0002e0 22 69 8f 3d 5b 7e 39 bd fc 97 dd 3a 80 88 7a bd
       0.07002474 -0.045286518 0.0016906257 -0.061165333
0002f0 78 0b 5e be 6c 68 82 bc c1 c9 2e 3e c0 49 93 bc
       -0.21684062 -0.015918933 0.1706915 -0.017979503
000300 17 a4 59 3e 85 f9 5f 3d 2e 11 7f bd b8 41 ac 3e
       0.21254002 0.05468132 -0.062272243 0.3364389
000310 57 11 39 be f5 32 2a bd 48 58 2a 3d 65 4d 5f be
       -0.18073021 -0.041552503 0.041588098 -0.21806867
000320 2e c6 84 3e 50 b2 b7 bc 59 e5 99 3c cb 0b dc 3c
       0.2593245 -0.022423893 0.01878612 0.026861092
000330 60 80 1b be ab 0e 0f be 9d 58 46 3e 0f 0d 5f 3b
       -0.1518569 -0.13970439 0.19369741 0.0034034883
000340 cf 16 de bd b5 9b ef 3c 3f fa 65 3e 53 ac 08 bd
       -0.10844194 0.029249052 0.22458743 -0.033367466
000350 78 3d 0b bd 3f d1 84 3d 96 a3 a0 bb 09 a6 bd 3d
       -0.033994168 0.06485223 -0.0049023135 0.09260184
000360 d2 75 43 bd 2e bd 83 3e 36 ee 58 3c 90 2d 85 3d
       -0.047719784 0.2573027 0.013240388 0.06502831
000370 d6 53 b3 bc 41 fe c5 3d b8 76 a3 bc 4c e9 a2 be
       -0.021890562 0.09667636 -0.01995407 -0.31818616
000380 bc 14 57 be 26 aa 8e bd 05 df 94 bc 95 0c bd bc
       -0.21004003 -0.06966047 -0.01817275 -0.023077289
000390 cd 76 b5 bd 77 11 e7 bd 6a d0 63 3e 0e 3e 49 bd
       -0.0886055 -0.11282628 0.22247472 -0.049131446
0003a0 91 6b 9e bb 32 c2 71 be 21 15 97 bd d4 7a 6a 3d
       -0.0048346003 -0.23609236 -0.07377077 0.057246044
0003b0 f8 cd 56 bd 54 98 9b bd aa 64 de bd 6e 1b d1 bb
       -0.05244252 -0.07597414 -0.10859044 -0.0063814437
0003c0 ff 76 a9 3c fd 6a 03 be b2 ea d5 bc 8e 78 6d 3e
       0.020686625 -0.12833782 -0.026112888 0.23190519
0003d0 cc 84 b9 bd 30 3c 49 3d 48 d8 e8 3c e6 18 c9 3d
       -0.09058532 0.049129665 0.028423443 0.09819202
0003e0 76 5b a7 bd 78 86 af bc ce e5 62 bd b7 43 8a 3d
       -0.08171742 -0.021426424 -0.05539494 0.06751197
0003f0 f1 5b 0b 3e be 6a d2 bd 29 36 f4 3d 22 cc 98 3e
       0.13609292 -0.10274266 0.11924393 0.2984324

0.bias f4 [128]
000000 00 00 00 00 00 00 00 00 00 00 00 00 00 00 00 00
       0.0 0.0 0.0 0.0
000010 00 00 00 00 00 00 00 00 00 00 00 00 00 00 00 00
       0.0 0.0 0.0 0.0
000020 00 00 00 00 00 00 00 00 00 00 00 00 00 00 00 00
       0.0 0.0 0.0 0.0
000030 00 00 00 00 00 00 00 00 00 00 00 00 00 00 00 00
       0.0 0.0 0.0 0.0
000040 00 00 00 00 00 00 00 00 00 00 00 00 00 00 00 00
       0.0 0.0 0.0 0.0
000050 00 00 00 00 00 00 00 00 00 00 00 00 00 00 00 00
       0.0 0.0 0.0 0.0
000060 00 00 00 00 00 00 00 00 00 00 00 00 00 00 00 00
       0.0 0.0 0.0 0.0
000070 00 00 00 00 00 00 00 00 00 00 00 00 00 00 00 00
       0.0 0.0 0.0 0.0
000080 00 00 00 00 00 00 00 00 00 00 00 00 00 00 00 00
       0.0 0.0 0.0 0.0
000090 00 00 00 00 00 00 00 00 00 00 00 00 00 00 00 00
       0.0 0.0 0.0 0.0
0000a0 00 00 00 00 00 00 00 00 00 00 00 00 00 00 00 00
       0.0 0.0 0.0 0.0
0000b0 00 00 00 00 00 00 00 00 00 00 00 00 00 00 00 00
       0.0 0.0 0.0 0.0
0000c0 00 00 00 00 00 00 00 00 00 00 00 00 00 00 00 00
       0.0 0.0 0.0 0.0
0000d0 00 00 00 00 00 00 00 00 00 00 00 00 00 00 00 00
       0.0 0.0 0.0 0.0
0000e0 00 00 00 00 00 00 00 00 00 00 00 00 00 00 00 00
       0.0 0.0 0.0 0.0
0000f0 00 00 00 00 00 00 00 00 00 00 00 00 00 00 00 00
       0.0 0.0 0.0 0.0
000100 00 00 00 00 00 00 00 00 00 00 00 00 00 00 00 00
       0.0 0.0 0.0 0.0
000110 00 00 00 00 00 00 00 00 00 00 00 00 00 00 00 00
       0.0 0.0 0.0 0.0
000120 00 00 00 00 00 00 00 00 00 00 00 00 00 00 00 00
       0.0 0.0 0.0 0.0
000130 00 00 00 00 00 00 00 00 00 00 00 00 00 00 00 00
       0.0 0.0 0.0 0.0
000140 00 00 00 00 00 00 00 00 00 00 00 00 00 00 00 00
       0.0 0.0 0.0 0.0
000150 00 00 00 00 00 00 00 00 00 00 00 00 00 00 00 00
       0.0 0.0 0.0 0.0
000160 00 00 00 00 00 00 00 00 00 00 00 00 00 00 00 00
       0.0 0.0 0.0 0.0
000170 00 00 00 00 00 00 00 00 00 00 00 00 00 00 00 00
       0.0 0.0 0.0 0.0
000180 00 00 00 00 00 00 00 00 00 00 00 00 00 00 00 00
       0.0 0.0 0.0 0.0
000190 00 00 00 00 00 00 00 00 00 00 00 00 00 00 00 00
       0.0 0.0 0.0 0.0
0001a0 00 00 00 00 00 00 00 00 00 00 00 00 00 00 00 00
       0.0 0.0 0.0 0.0
0001b0 00 00 00 00 00 00 00 00 00 00 00 00 00 00 00 00
       0.0 0.0 0.0 0.0
0001c0 00 00 00 00 00 00 00 00 00 00 00 00 00 00 00 00
       0.0 0.0 0.0 0.0
0001d0 00 00 00 00 00 00 00 00 00 00 00 00 00 00 00 00
       0.0 0.0 0.0 0.0
0001e0 00 00 00 00 00 00 00 00 00 00 00 00 00 00 00 00
       0.0 0.0 0.0 0.0
0001f0 00 00 00 00 00 00 00 00 00 00 00 00 00 00 00 00
       0.0 0.0 0.0 0.0

2.weight f4 [128, 128]
000000 3e 55 32 be 95 4a 47 3d 4f 20 13 3e d2 ad 16 3d
       -0.1741533 0.04865511 0.14367794 0.03678686
000010 3a b9 44 3d 13 6a 55 bc 3c 61 a1 3d b2 e0 ca bd
       0.04802821 -0.013025778 0.07879874 -0.099061385
000020 4b 7b 16 be 8f d8 d5 3d bc 74 c9 3c 47 47 c3 bc
       -0.1469547 0.10441696 0.024591796 -0.023837699
000030 d4 2a 89 be cd 62 c4 3d 78 b6 f7 bd a5 d1 8d 3c
       -0.26790488 0.09589157 -0.1209535 0.01731188
000040 e1 7a ac bd ee 05 c0 bd 4f b6 e7 3d b8 a8 23 3e
       -0.08421875 -0.09376131 0.113140695 0.1598233
000050 c0 e7 d6 bd f5 6d 7c bd 27 1c 63 bd 7e 47 59 3e
       -0.104934216 -0.0616283 -0.05544677 0.21218678
000060 b1 3c e9 3c ac 63 56 be bc fa 98 bd 7d 1f 1d 3e
       0.028471323 -0.2093646 -0.07469699 0.15344043
000070 12 94 db bc 9f bd 8d be 50 c4 30 bc ba 48 79 bd
       -0.026804004 -0.27683732 -0.010788992 -0.060860373
000080 07 6a 36 3c 95 eb 16 3b eb d3 40 3b eb 5f c5 be
       0.011133677 0.0023028601 0.0029423188 -0.38549742
000090 e3 27 8a bd 9c 14 8c bd 7a 4b 5b bd 13 7c 48 be
       -0.06745889 -0.068398684 -0.053538777 -0.1957858
0000a0 1c 03 ac bd 77 b1 3d bd 45 9c aa 3d 3a 0c 53 3d
       -0.083990306 -0.04631182 0.08330587 0.051525332
0000b0 3f b3 04 3e 52 4d 64 be 2f 5e c6 3d 99 c0 9c 3d
       0.12959002 -0.2229512 0.09685933 0.076539226
0000c0 11 e1 a5 bd 89 c0 c3 3d 51 c2 b2 3c 0c a5 c9 bb
       -0.08099569 0.095582075 0.021821173 -0.0061537083
0000d0 18 d2 5f 3d 7d 1a 3a be 18 d0 b6 bd f3 ba 78 be
       0.05464372 -0.18174167 -0.089264095 -0.24290065
0000e0 76 5c 3c 3d 79 ee 8d bd c9 d2 11 be f3 55 5b bc
       0.045986615 -0.06930251 -0.14240564 -0.013387191
0000f0 a7 1f c4 3d 84 59 b6 bd 1e 40 68 bc 25 f5 da 3d
       0.0957635 -0.089037925 -0.014175443 0.10691289
000100 f7 14 78 bc e9 88 83 be e6 fa ec 3c 1e 2a 79 3e
       -0.015141717 -0.25690392 0.028928231 0.24332473
000110 0e fe 25 bd 48 dd 0c bd 12 c3 31 3e 2f 35 17 be
       -0.04052549 -0.034390718 0.1735957 -0.14766382
000120 d2 ea 50 be 57 94 39 3d 6f 47 cc 3d da 1f b6 bd
       -0.20402077 0.045307484 0.099745624 -0.08892794
000130 24 93 9e bd 07 c8 4c bd cd 2b 1b 3c aa dc c5 bd
       -0.077429086 -0.04999545 0.009470892 -0.09661229
000140 d9 d9 9f bd 74 ec 8a be 6a 3f c0 bd 4d 9c 1c 3e
       -0.07805223 -0.27133524 -0.09387095 0.15293999
000150 f1 a5 c3 3d fe 84 63 bc 16 0c 96 3c d7 b9 1e 3e
       0.09553135 -0.013886688 0.01831631 0.1550058
000160 fb ea 80 3c 6d 9d 64 bd 29 58 db bd f4 07 3f bd
       0.015737047 -0.055814195 -0.107101746 -0.046638444
000170 15 47 30 3d 35 14 18 be 2c 9b 47 3e c5 59 00 3e
       0.04303654 -0.14851458 0.19492787 0.12534244
000180 a0 75 1c bd ef 66 1c 3e a3 a9 92 bc 97 90 32 bd
       -0.038198113 0.15273641 -0.017903155 -0.043594923
000190 69 8d 99 bd f1 d9 e6 3c 4b 65 f1 bd 92 9d 52 be
       -0.07497675 0.028180094 -0.11786898 -0.20567921
0001a0 bd 37 84 be e3 b7 0d 3e 08 fc 5a be 41 6f 03 be
       -0.25823775 0.13839678 -0.21385205 -0.12835409
0001b0 41 f4 2b bc 49 0f 9b 3e b7 e4 73 bc 8f 42 7c 3e
       -0.010495246 0.302851 -0.014886073 0.24634765
0001c0 19 6f 71 bd bb 7f 1f be bc 0e ad 3d 41 57 2b bc
       -0.05894384 -0.15576069 0.08450076 -0.010457815
0001d0 18 0e 9f 3d e3 17 d1 bd 30 8d eb bd 2d d5 87 3c
       0.0776636 -0.10209634 -0.11501539 0.016581142
0001e0 ea 09 0b be 78 f4 5c bd d5 da b6 bd e8 35 e5 3c
       -0.13578 -0.05394408 -0.08928458 0.027979806
0001f0 05 64 28 be 74 77 39 be f3 3b dd b9 a5 b5 83 3d
       -0.16444404 -0.18111974 -0.0004219707 0.0643113
000200 74 f0 28 3d 4f ed d9 3d 77 23 59 bd 20 b3 37 3d
       0.04124494 0.10640966 -0.053012338 0.04484856
000210 7e a3 f5 bd 2b 85 a4 bd 8f b7 ec 3d 6a 31 4b be
       -0.11994074 -0.08033212 0.115584485 -0.19843069
000220 aa 02 06 3e 1a b1 a0 bd 58 e4 b4 3d 63 0b 37 3e
       0.13086954 -0.078462794 0.088326156 0.17875437
000230 94 8a 7b bc ec 4c 1b be ee b2 b4 bd e8 3e 52 3d
       -0.015352864 -0.15166062 -0.08823191 0.051329523
000240 4d 0a d9 bd 23 c9 2b bd d4 00 10 3e 5c 4a 91 3d
       -0.10597668 -0.041939866 0.14062816 0.07094261
000250 73 40 ac 3d 50 2b 6d be 2b 96 b6 bd ce a2 86 bb
       0.0841073 -0.23161054 -0.08915361 -0.0041087633
000260 d2 dd 89 bc a4 f3 0b 3d ff bc 72 3d c6 7d be 3b
       -0.016829405 0.0341679 0.059262272 0.005813333
000270 62 92 61 3d 43 82 94 3e 63 8f 39 3e 34 33 84 bc
       0.055071242 0.29005632 0.18121104 -0.016137697
000280 d6 5f ba 3c a3 cd 63 be 0a 2e f0 3b 90 1c 03 3e
       0.022750776 -0.22246413 0.007329707 0.12803864
000290 9f 30 89 3d 96 6e 7d bd c3 dc 20 3e 0f af 31 3d
       0.06698727 -0.06187304 0.15709214 0.04337984
0002a0 83 2d 32 ba d5 fe 8b bd fe 71 83 bd b3 09 0d 3e
       -0.0006796943 -0.06835715 -0.06418227 0.13773231
0002b0 bc 58 80 bd e3 22 16 3e be 58 ae bd 2a 2c bb 3d
       -0.06266925 0.14661746 -0.0851302 0.09139283
0002c0 6a 64 f8 bc a3 67 2b 3e 8f 3e 8a bd 17 25 5c be
       -0.030321319 0.16738753 -0.06750213 -0.21498524
0002d0 68 4d 8a bc b1 6f 8e bd 40 55 6e 3e d8 35 0e be
       -0.016882613 -0.06954897 0.23274708 -0.13887727
0002e0 02 a8 15 be 87 53 5c bd ae 22 3e bd 8a ab 06 3e
       -0.14614871 -0.053790595 -0.046419792 0.13151374
0002f0 ff 14 e8 3d 1f 98 09 3e a8 26 db 3d 18 ad 98 3d
       0.1133213 0.13436936 0.107007325 0.0745489
000300 dc 48 a8 3d 14 2b 74 bc 30 7b 51 3e 82 05 3e bd
       0.08217022 -0.014902849 0.20457149 -0.04639197
000310 b2 76 04 bd 88 45 67 3e 43 02 b0 bd ea 80 1b 3e
       -0.03233976 0.22585118 -0.085941814 0.15185896
000320 80 db 47 3e a9 0b 0c 3e ca 96 84 be bc 52 3b bc
       0.19517326 0.13676323 -0.25896293 -0.0114333
000330 8c 0a 4d 3d 46 76 eb 3d d7 af 08 3d b6 1a f2 bd
       0.050058886 0.11497168 0.03337082 -0.11821501
000340 ca c9 ef 3c 88 46 ac bd 8a 9d dc bd c1 aa fd bc
       0.029271025 -0.0841189 -0.10772236 -0.03096521
000350 16 72 94 bd b2 f1 9e 3d f4 85 a0 3c cb 8b 4b 3d
       -0.07248323 0.077609435 0.019595124 0.049693864
000360 59 f8 af 3d 5c 50 b5 be f0 a9 a7 bc 60 8c 1e 3c
       0.085922904 -0.35412872 -0.020466775 0.009677023
000370 62 5b 71 3d 29 ed 86 3c 9a 99 11 be 31 3b 62 3e
       0.05892504 0.016470509 -0.1421875 0.22092892
000380 26 fd 19 bc d2 f4 f5 bc 19 66 c5 bc a9 b8 2e be
       -0.009398734 -0.030023966 -0.024096536 -0.1706263
000390 d0 d4 1a bd 94 93 91 3e f5 2b f9 bc 17 93 66 bd
       -0.03780061 0.28432906 -0.030416468 -0.05629262
0003a0 62 a9 dd be 40 b3 12 bd cf 99 1c 3d 37 c8 38 be
       -0.4329329 -0.035815477 0.03823262 -0.18045126
0003b0 67 7b 74 3e 49 af 11 bd 6c bb 4b 3c 72 ca 1c 3e
       0.238752 -0.035567556 0.012434822 0.15311602
0003c0 ad 3d 6c 3d dd bc c9 3d 2e 55 20 be 89 54 c3 3d
       0.057676006 0.09850476 -0.15657493 0.09537608
0003d0 be 8f 0b be ef fc b2 3d 46 21 64 be 19 b6 3e 3e
       -0.13629052 0.087396495 -0.22278318 0.18624152
0003e0 2a bc 53 bd 52 81 00 3e 1b 9c f5 3c a6 b7 09 be
       -0.05169312 0.12549332 0.029981663 -0.13448963
0003f0 64 23 9c bd 8d 0e 12 bd e2 74 b4 bd f6 da 02 bc
       -0.07623938 -0.035658408 -0.08811356 -0.007986775

2.bias f4 [128]
000000 00 00 00 00 00 00 00 00 00 00 00 00 00 00 00 00
       0.0 0.0 0.0 0.0
000010 00 00 00 00 00 00 00 00 00 00 00 00 00 00 00 00
       0.0 0.0 0.0 0.0
000020 00 00 00 00 00 00 00 00 00 00 00 00 00 00 00 00
       0.0 0.0 0.0 0.0
000030 00 00 00 00 00 00 00 00 00 00 00 00 00 00 00 00
       0.0 0.0 0.0 0.0
000040 00 00 00 00 00 00 00 00 00 00 00 00 00 00 00 00
       0.0 0.0 0.0 0.0
000050 00 00 00 00 00 00 00 00 00 00 00 00 00 00 00 00
       0.0 0.0 0.0 0.0
000060 00 00 00 00 00 00 00 00 00 00 00 00 00 00 00 00
       0.0 0.0 0.0 0.0
000070 00 00 00 00 00 00 00 00 00 00 00 00 00 00 00 00
       0.0 0.0 0.0 0.0
000080 00 00 00 00 00 00 00 00 00 00 00 00 00 00 00 00
       0.0 0.0 0.0 0.0
000090 00 00 00 00 00 00 00 00 00 00 00 00 00 00 00 00
       0.0 0.0 0.0 0.0
0000a0 00 00 00 00 00 00 00 00 00 00 00 00 00 00 00 00
       0.0 0.0 0.0 0.0
0000b0 00 00 00 00 00 00 00 00 00 00 00 00 00 00 00 00
       0.0 0.0 0.0 0.0
0000c0 00 00 00 00 00 00 00 00 00 00 00 00 00 00 00 00
       0.0 0.0 0.0 0.0
0000d0 00 00 00 00 00 00 00 00 00 00 00 00 00 00 00 00
       0.0 0.0 0.0 0.0
0000e0 00 00 00 00 00 00 00 00 00 00 00 00 00 00 00 00
       0.0 0.0 0.0 0.0
0000f0 00 00 00 00 00 00 00 00 00 00 00 00 00 00 00 00
       0.0 0.0 0.0 0.0
000100 00 00 00 00 00 00 00 00 00 00 00 00 00 00 00 00
       0.0 0.0 0.0 0.0
000110 00 00 00 00 00 00 00 00 00 00 00 00 00 00 00 00
       0.0 0.0 0.0 0.0
000120 00 00 00 00 00 00 00 00 00 00 00 00 00 00 00 00
       0.0 0.0 0.0 0.0
000130 00 00 00 00 00 00 00 00 00 00 00 00 00 00 00 00
       0.0 0.0 0.0 0.0
000140 00 00 00 00 00 00 00 00 00 00 00 00 00 00 00 00
       0.0 0.0 0.0 0.0
000150 00 00 00 00 00 00 00 00 00 00 00 00 00 00 00 00
       0.0 0.0 0.0 0.0
000160 00 00 00 00 00 00 00 00 00 00 00 00 00 00 00 00
       0.0 0.0 0.0 0.0
000170 00 00 00 00 00 00 00 00 00 00 00 00 00 00 00 00
       0.0 0.0 0.0 0.0
000180 00 00 00 00 00 00 00 00 00 00 00 00 00 00 00 00
       0.0 0.0 0.0 0.0
000190 00 00 00 00 00 00 00 00 00 00 00 00 00 00 00 00
       0.0 0.0 0.0 0.0
0001a0 00 00 00 00 00 00 00 00 00 00 00 00 00 00 00 00
       0.0 0.0 0.0 0.0
0001b0 00 00 00 00 00 00 00 00 00 00 00 00 00 00 00 00
       0.0 0.0 0.0 0.0
0001c0 00 00 00 00 00 00 00 00 00 00 00 00 00 00 00 00
       0.0 0.0 0.0 0.0
0001d0 00 00 00 00 00 00 00 00 00 00 00 00 00 00 00 00
       0.0 0.0 0.0 0.0
0001e0 00 00 00 00 00 00 00 00 00 00 00 00 00 00 00 00
       0.0 0.0 0.0 0.0
0001f0 00 00 00 00 00 00 00 00 00 00 00 00 00 00 00 00
       0.0 0.0 0.0 0.0
