dheera_v0.3.1/dheera_v3.1/checkpoints/training_ep10_curiosity.pt (torch, 539676 bytes, 24 tensors)

0.weight f4 [128, 64]
000000 99 9b 11 bd ea 78 c2 bd 1d e4 85 3d eb 4d aa bc
       -0.03554878 -0.09495719 0.0653765 -0.020789107
000010 af f2 77 3d 02 ec b3 bd 5b fb 9e bc 47 d1 d3 3d
       0.060534175 -0.08785249 -0.019406965 0.10342651
000020 76 eb 2f bd 21 dc f9 bd d2 68 f4 bd 7f fa af bd
       -0.042949162 -0.122001894 -0.119340554 -0.085927
000030 ed ef 67 bd 9c 14 80 bd f5 13 ef 3c 28 2d a3 bd
       -0.056625295 -0.06253931 0.029184321 -0.07967597
000040 2e c8 8e 3d 5f 03 33 3d 9a 66 9c bc bc a9 8f bd
       0.06971775 0.043704387 -0.019091893 -0.07014796
000050 29 10 e4 3d b7 0c af 3d c5 75 ba 3c eb 71 a1 3c
       0.11135895 0.08547347 0.022761235 0.01970764
000060 c7 3f ce bd e3 0b c9 3c 0b 94 82 3d 14 90 24 3d
       -0.10070758 0.0245418 0.06375893 0.040176466
000070 6c e2 82 3c 96 19 82 bd af 6b 52 3c 36 d8 04 bd
       0.015977107 -0.063525364 0.012843057 -0.032432757
000080 4e 52 b5 bd 66 ef 5b 3d 3b 57 d4 bc 9a 3d b8 3d
       -0.08853589 0.053695105 -0.025920501 0.089961246
000090 53 bf e4 3d 73 05 bb bc 77 b7 b4 bd 94 86 00 be
       0.11169305 -0.022829747 -0.08824056 -0.12551337
0000a0 2a 23 f0 bd 28 f9 e6 3d d0 18 a2 bd 01 4d 79 bd
       -0.11725457 0.112779915 -0.07914889 -0.060864452
0000b0 22 97 27 bc 68 cf 9e 3d 0d 2f 79 3d 92 d8 77 bd
       -0.010228904 0.07754403 0.060835887 -0.060509272
0000c0 6c 24 0a bd 14 ca fc bc 0d 99 f7 bb f4 2f 17 3d
       -0.03372614 -0.030858077 -0.007556087 0.036910966
0000d0 09 47 79 bd f4 99 ef 3d 35 2d 23 bd 85 41 b8 3d
       -0.06085876 0.11699286 -0.039838035 0.08996872
0000e0 ef b5 46 3d 65 a2 d3 3c 26 fe ef bd 3f 49 5b 3d
       0.04851335 0.025834272 -0.11718397 0.05353665
0000f0 f0 87 97 3d 50 ea ca bd 7b 1e c8 bc c5 da 57 bd
       0.07398975 -0.09907973 -0.024428597 -0.05269887
000100 0a 80 1c 3d 48 a9 bc bd 0c 7f df bd f5 12 8f 3d
       0.038208045 -0.09211975 -0.10912904 0.06986038
000110 dc b8 ce bd f1 3f 52 bc dc 70 77 bd 46 72 e1 3d
       -0.10093853 -0.012832628 -0.060410365 0.11008124
000120 e5 cb ce 3c 99 09 e5 bb 80 64 99 3d 92 98 b6 3c
       0.025243709 -0.0069896695 0.07489872 0.022289548
000130 e7 47 ee 3d 74 9f e2 3d b8 49 99 bd 1e 9d 31 bd
       0.11634808 0.110655695 -0.07484764 -0.04336273
000140 b9 66 d7 bd f1 34 55 bd 2a dc 01 3e 6d 80 83 3b
       -0.1051764 -0.052052442 0.12681642 0.0040131123
000150 9d 3d d1 bd a7 6e da bd cf b6 9c 3c 8d 7d a7 3c
       -0.1021683 -0.106656365 0.019130139 0.02044561
000160 21 ee da bd c6 9b d4 bc 68 ff 79 3d b9 b7 ab bc
       -0.10689951 -0.025953185 0.06103459 -0.02096163
000170 b1 54 51 3c 41 5d d8 3d 61 2c 47 3c 7e 26 ad 3d
       0.01277654 0.10564662 0.012156577 0.084546074
000180 e0 e9 8c 3d 98 72 a2 3b 4b 72 8a bd 67 53 6b bd
       0.068805456 0.0049575083 -0.06760081 -0.057452586
000190 02 de 71 3d 2b 9a ab 3b a9 41 a3 bd 95 2f 84 bd
       0.059049614 0.005236884 -0.07971508 -0.06454388
0001a0 fc e8 84 bd 99 c3 17 3d b6 f2 b4 3d 61 a7 a0 bd
       -0.06489751 0.03705177 0.08835356 -0.07844425
0001b0 96 d5 9b bd 0a 15 b0 bc 26 74 b7 bd d9 b6 55 3a
       -0.07609098 -0.021494407 -0.089577004 0.00081525516
0001c0 cc 30 33 bd 64 84 e6 3c 20 8f c7 3c fb 35 83 3d
       -0.04374771 0.0281393 0.02436024 0.0640678
0001d0 9b 73 f3 3d cf ec 0d bd c3 6e f5 3d e8 3c b1 3d
       0.11887284 -0.034649666 0.11984017 0.08654195
0001e0 6c 15 1d bd b5 4d dd bd d1 64 e7 bd 06 fb a6 3c
       -0.038350508 -0.10805837 -0.11298526 0.02038337
0001f0 2b 6a ed 3d e3 84 d9 3d b2 2b dc 3a 59 2a 1d bc
       0.115925156 0.10621049 0.001679769 -0.009592616
000200 72 91 f2 3c 18 a9 85 3d 2e 6c 84 bd 99 6c 9f bc
       0.02961037 0.06526393 -0.06465946 -0.019460963
000210 5d b6 91 bd 55 fe be 3d b0 03 b0 bc f0 ea 7e bc
       -0.07114861 0.09325854 -0.021486133 -0.015558943
000220 df af 8d bd a5 fb 4a bd 2c c2 82 3d 5f 20 04 bd
       -0.069183104 -0.049556393 0.063846916 -0.032257434
000230 a1 c4 27 3d 46 10 01 be 37 d6 1e bd ed b9 d9 3d
       0.040959004 -0.12603864 -0.03877851 0.10631166
000240 d6 23 8f 3c ea f4 26 3d 57 14 f0 bd 4c 7a e1 bd
       0.017473143 0.040760912 -0.117226295 -0.110096544
000250 5f ab be bd 04 4a 7d 3d 66 91 b2 3b 9f 7d 95 bd
       -0.0931003 0.061838165 0.0054494618 -0.07299351
000260 33 8d bd bd 49 67 06 bc 5f f8 1e 3c 55 98 17 3d
       -0.09255447 -0.008203336 0.009702771 0.03701051
000270 a9 b8 86 3c 4b dc 69 bd 84 19 0e bc 12 a8 5f bd
       0.016445475 -0.057094853 -0.008673076 -0.054603644
000280 8d 6c bd bd 33 c2 f0 bd dd 39 f7 bc 06 d0 82 bb
       -0.0924922 -0.117557906 -0.030178959 -0.0039920835
000290 2b 76 37 bd 33 c4 ec bd 3c 7b d9 3d fb f6 85 bc
       -0.044790428 -0.115608595 0.10619208 -0.016353121
0002a0 0f 80 32 bd e1 2d 54 3d d6 ff b3 3b 55 cb e0 bd
       -0.043579157 0.051801566 0.0054931445 -0.109762825
0002b0 93 0d 9d bc 29 d9 20 bd 8e 45 a5 bc f0 c9 db bc
       -0.019171512 -0.0392696 -0.020174768 -0.02682969
0002c0 54 90 00 3e 45 92 a7 bd 21 30 b4 bc 3e dc e2 bd
       0.12555057 -0.081821956 -0.021995606 -0.11077164
0002d0 ab 99 60 3d 47 0d 5c 3d 89 67 70 3d 17 e5 b4 3d
       0.05483405 0.0537236 0.05869249 0.08832758
0002e0 8e 9a 7f bd 5b b8 a8 3d 7d a7 12 bd 80 bc 8a bc
       -0.062403254 0.08238288 -0.03580426 -0.016935587
0002f0 c9 91 cb bc 8d 80 b4 bd 11 4a 2b bd eb 2e e7 bd
       -0.02484979 -0.088135816 -0.041818682 -0.11288246
000300 e8 2f e7 bc 10 fc 59 bd 29 da ec 3b 8e 07 32 bd
       -0.028221086 -0.0532189 0.007228155 -0.043464236
000310 44 90 57 bd 7c b8 9e 3d 91 fb f2 3d fc a8 1f 3d
       -0.052627817 0.07750031 0.11864389 0.038979515
000320 36 6f 72 3d 2c 89 f1 3d 95 6e 9d 3d 8e ff ec 3a
       0.05918809 0.117937416 0.076871075 0.0018081532
000330 e8 c2 24 bd e1 5a 84 bd 23 cc de 3c e3 41 35 bd
       -0.04022494 -0.06462646 0.02719695 -0.044252288
000340 27 8d 8b 3d 0c 5c 91 bd e9 f7 50 3c bf be f2 3d
       0.06814032 -0.07097635 0.012754419 0.11852788
000350 7d 00 97 bd 8e 3f d8 bd 1f 6e 96 bb 30 7f e9 3d
       -0.0737314 -0.10558997 -0.004590764 0.11401212
000360 a8 c1 e4 bd 31 b5 cb bd 5d 3c b2 bd d6 ba 74 bc
       -0.111697495 -0.09946669 -0.0870292 -0.014937123
000370 13 82 62 3d b8 6a 9f bd 3f fd 32 3d 3e dd c8 bd
       0.05529983 -0.07784027 0.043698546 -0.098078236
000380 46 ac 8e 3d d8 1c eb 3d 6e c1 cc bd 60 88 82 bc
       0.06966452 0.11480111 -0.09997831 -0.01593417
000390 10 e0 f3 3d 7f 1d 13 bb 52 c1 00 3c 0e f0 2e bd
       0.11907971 -0.0022448 0.007858591 -0.042709403
0003a0 7b d8 1e 3d 68 4f 11 3d 34 16 34 3d b7 b0 e7 3c
       0.03878067 0.03547612 0.043966487 0.028282506
0003b0 db 06 6b 3c f8 02 b2 3c 35 a6 ea bd 1f 6f f9 3d
       0.014344896 0.021729931 -0.11457483 0.12179398
0003c0 bb 5e 4b bd fe 3c 50 bd a3 a1 8d 3d 9b 18 a5 bd
       -0.04965089 -0.050839417 0.069155954 -0.08061334
0003d0 c3 eb f7 bd 41 37 e0 bd 4d 40 2d bb b0 10 da 3c
       -0.12105515 -0.10948039 -0.0026436031 0.026619285
0003e0 fa e7 92 3d f0 5f ae 3c b9 23 a4 bd da e3 4e 3d
       0.07173152 0.021285981 -0.08014626 0.050510265
0003f0 92 38 09 3d 4a cc 6a 3d d4 6f 02 3e e0 da c2 bc
       0.033501215 0.05732373 0.12737972 -0.023786008

0.bias f4 [128]
000000 5d 4b 60 3d 1e 69 bd bd 73 f6 3d 3d 53 49 1b 3d
       0.054759372 -0.09248565 0.04637761 0.037911724
000010 f5 8f f8 3d 8a 83 b4 bd 20 1f a0 3d 76 d9 b8 3c
       0.121368326 -0.088141516 0.078184366 0.022564631
000020 04 32 e2 3d 4f 36 1c bd 6f b9 df bd 72 5c 43 bd
       0.11044696 -0.03813773 -0.109240405 -0.047695585
000030 6e cf 37 3d 34 9b 1a 3d 50 1e b9 3d 07 ad fa bd
       0.044875555 0.03774567 0.09038985 -0.122400336
000040 84 92 b6 bd c1 2f e9 3d 0c 07 90 3d 2c 11 c7 bd
       -0.089146644 0.113860615 0.07032594 -0.09720072
000050 21 61 36 3c 41 9b d4 3d 00 19 7d 3d 3d 38 23 bc
       0.011131556 0.10381175 0.06179142 -0.009962139
000060 20 52 9b 3d 37 3d d1 3d b3 8a ef 3d 2f 24 3d 3d
       0.075840235 0.10216754 0.11696377 0.046177085
000070 d1 60 e8 bd 8e e5 c5 bd 3a 32 ec 3d 3a a3 a1 bb
       -0.11346591 -0.09662925 0.115330175 -0.004932788
000080 f7 f6 62 bd d6 27 4c 3d a5 79 a8 bd f6 b6 c3 3d
       -0.055411305 0.049842678 -0.08226327 0.095563814
000090 13 08 ac 3d a5 e8 3d 3d a0 d2 b2 3d 14 64 2b bc
       0.083999775 0.046364445 0.0873158 -0.010460872
0000a0 af 2f 81 3d 50 31 b2 bd c3 1c b7 3d 44 c0 53 3d
       0.06307923 -0.08700812 0.08941033 0.05169703
0000b0 f5 19 d7 bd 6b 8b c9 3d 66 5f b5 3d cb 50 be bd
       -0.10502998 0.09841045 0.088560864 -0.09292754
0000c0 b3 a6 a4 bb 5e 82 df bd 6e b3 cd 3d f7 9b a3 3c
       -0.005024755 -0.109135374 0.10043989 0.01997183
0000d0 08 47 ce bd de 87 da 3d 62 0d 71 bd 88 41 d7 bd
       -0.10072142 0.10670446 -0.058850653 -0.10510546
0000e0 9f bb 76 bd d4 58 e5 3d fa a1 fd 3d 8c fe ca 3d
       -0.060237523 0.11198583 0.1238441 0.09911832
0000f0 74 56 7f 3d 06 55 f1 3d 7e 0b 22 bd 37 a0 dc bd
       0.062338307 0.11783795 -0.03956174 -0.10772746
000100 5e 74 a9 3d 35 72 d8 3d d2 ed 03 bd 21 2f ec bb
       0.082741484 0.10568658 -0.032209225 -0.0072077666
000110 68 cf 9f 3d ce a8 9e bd 5a ea 93 bb 2e c2 e2 3d
       0.078032315 -0.07747041 -0.004514021 0.11072193
000120 0b 35 21 3d bc f3 cf bc 30 65 1c 3d be d0 45 bd
       0.039357226 -0.025384776 0.038182437 -0.048294775
000130 2c 64 b0 bd 96 74 ce 3d a3 99 82 bd 56 75 42 3d
       -0.08612856 0.10080831 -0.0637696 0.04747518
000140 f4 43 ac bc 29 ce b5 bd 05 ca 32 3b c0 d0 5f 3d
       -0.021028496 -0.088772126 0.0027281058 0.05464244
000150 45 e9 aa 3d 00 c9 f3 3d 40 68 2e bd bb dd 57 bd
       0.08345274 0.11903572 -0.04257989 -0.052701693
000160 39 ed b4 3c df bf c2 bd 1a 0c 58 bd cc 57 eb bc
       0.022085773 -0.09509253 -0.052745916 -0.028728388
000170 fe 5a 64 bd 92 9d 4d 3d 89 af 8e bd 16 1a a1 3d
       -0.05575084 0.0501991 -0.069670744 0.078663036
000180 7c dd 33 bd 39 0d 8f 3d 0d bf e3 bd 55 5e 5f 3a
       -0.043912396 0.06984944 -0.111204244 0.00085208315
000190 3b 82 a3 3d c9 41 2a bd 4a 8e 1a 3d 44 05 0d bd
       0.07983824 -0.041566644 0.037733354 -0.03442885
0001a0 8e 13 27 3d db 43 b2 3c 62 44 c2 3d 09 9b ea 3c
       0.040790133 0.021760872 0.09485699 0.02863838
0001b0 ab d3 ec 3d a5 05 a6 3d 37 df 7e bd 0f c0 c1 bd
       0.1156381 0.08106545 -0.062224593 -0.094604604
0001c0 4f b3 8b 3d 03 b0 19 bd 07 78 13 3d 84 e6 6f bd
       0.0682131 -0.037521373 0.03600314 -0.058569446
0001d0 e1 d2 e3 3d 6d 19 2c bd 40 04 ce 3b 88 a0 d0 3d
       0.11124206 -0.042016435 0.0062871277 0.10186869
0001e0 4f bd ea 3c f4 87 8f 3d fa 43 e0 3d d5 f8 c8 3d
       0.028654722 0.07008353 0.109504655 0.09813086
0001f0 42 7e 62 3d 71 f0 13 bd 80 4e df 3d de a8 b5 3d
       0.05529619 -0.036117975 0.109036446 0.088700995

2.weight f4 [128, 128]
000000 0c a8 09 bd a9 ed 13 bd 07 fa 33 3c c4 b7 df 3c
       -0.033607528 -0.036115322 0.010984904 0.027309306
000010 0c 15 9f bc cf 5e aa bd 35 71 78 bd 2a 94 9d 3b
       -0.019419216 -0.083188646 -0.060654838 0.0048089223
000020 eb b2 65 3d 52 f5 58 3d 8f 36 96 bd 47 de 2b 3d
       0.056078833 0.05296833 -0.07334625 0.041960027
000030 1d 16 22 bd e5 83 23 bc ac da a9 bd 56 91 2e 3c
       -0.03957187 -0.009980177 -0.082936615 0.010654768
000040 b9 a9 89 3d e7 a2 71 3b d4 b4 59 bd f0 85 af 3d
       0.06721825 0.003687078 -0.053150967 0.085704684
000050 1c 4f 16 bd 59 ab 98 3d e9 44 a2 3c 7e 8f 7c bd
       -0.03669654 0.07454557 0.01980825 -0.061660282
000060 c7 d6 a1 3d 4f 62 1d ba 26 56 92 bd fb 93 87 3d
       0.07902294 -0.0006003724 -0.07145338 0.06620022
000070 74 77 cb 3c 73 c6 9d 3d 3b 85 aa bd 06 0e 07 bd
       0.024837233 0.07703867 -0.08326193 -0.03297236
000080 05 25 39 bd d3 96 3b 3d b9 f8 66 3d 85 02 ac bc
       -0.04520132 0.045798134 0.056389544 -0.020997295
000090 fe d4 1c bd cf 99 95 3d 3a 09 87 3c ac 4b 82 bd
       -0.038289063 0.07304727 0.016483892 -0.063620895
0000a0 01 2f df bc 4e 77 92 bd d0 88 e3 bb 9f 04 af bd
       -0.027244093 -0.07151662 -0.0069437996 -0.08545803
0000b0 c9 c2 31 bd ea 81 6b bd 0c 3a 9b 3b 12 97 68 3d
       -0.043398652 -0.057496943 0.0047371443 0.056784697
0000c0 23 3f 92 bd b4 65 94 bd 10 78 62 bd 68 58 b9 3c
       -0.071409486 -0.07245961 -0.05529028 0.022625163
0000d0 ec 54 ae 3d df 56 87 bd dc 67 88 bd bf 4a 90 3c
       0.08512291 -0.06608366 -0.066604346 0.017613767
0000e0 df d4 35 bd ab c5 21 bd c0 d7 1a bd 54 09 28 3c
       -0.044392463 -0.03949515 -0.03780341 0.01025613
0000f0 59 04 85 3d 12 63 bc 3c f8 30 08 3d 13 57 3a bd
       0.0649497 0.02299646 0.033249825 -0.045493197
000100 36 66 00 bc 62 5b 0a 3d 19 39 7b 3d 58 7b 8e bd
       -0.007836869 0.033778556 0.06133375 -0.0695712
000110 55 26 27 bd 0f 37 ab 3c 12 2f 83 bd 1e 08 0e 39
       -0.04080804 0.020900277 -0.06405462 0.00013545199
000120 19 63 93 3d fe e1 a5 ba dd 5b 70 3d 81 13 b9 3c
       0.07196636 -0.0012655852 0.058681358 0.022592308
000130 b4 76 1a 3c 1d 57 8a 3d 60 ff a6 bd 08 f7 9f 3b
       0.009427715 0.06754897 -0.08154178 0.0048817433
000140 cb 75 b2 3d f7 7f 03 bd 9b 74 44 bd ca 80 fe 3c
       0.087138735 -0.03210446 -0.047962766 0.03106727
000150 c3 60 e9 3c bd 80 20 bd 58 f9 85 bc 86 3a 7b bd
       0.028488522 -0.039185274 -0.016354248 -0.06133511
000160 78 fc 77 3d bc ad ff 3c cc 31 43 bc 86 e7 0a bd
       0.060543507 0.031210773 -0.011913728 -0.033912204
000170 83 0f 92 3d c1 e9 93 3d dd 60 50 3d eb ca 21 3d
       0.07131865 0.072223194 0.050873626 0.03950016
000180 6f f9 cb bb c8 6d e0 bb 62 cd 2a 3d d9 f4 82 bd
       -0.006224803 -0.0068490244 0.041699775 -0.06394357
000190 f5 10 e9 bb 39 1a 5c bd b9 5b a7 bd 96 21 cb 3c
       -0.007112617 -0.053735945 -0.081717916 0.024796288
0001a0 ad be 90 3d 96 48 b5 bd cd cc 89 3d 09 74 2b 3d
       0.070676185 -0.08851735 0.06728516 0.041858707
0001b0 1f 58 77 bd 73 07 49 3d 20 38 ab 3d a3 c8 a2 bd
       -0.060386773 0.04907937 0.08360314 -0.07948425
0001c0 83 33 06 bd d6 f7 a5 bc e2 40 1b 3b 01 d5 ad bd
       -0.03276397 -0.020259779 0.0023689796 -0.08487893
0001d0 4b 19 f6 3c c0 4c 41 bd 53 94 7d bd ad be b3 3b
       0.030041358 -0.047192335 -0.06190903 0.005485377
0001e0 a9 fc 66 3d dd 94 87 bd 59 05 7e bd 18 c4 3d bd
       0.0563933 -0.0662019 -0.06201682 -0.046329588
0001f0 73 ea d9 3c 23 5a 9c 3c 4c 6b 7d bd e2 c8 1c 3d
       0.026601052 0.01908595 -0.061869904 0.038277514
000200 95 85 1b bd ce 2a 34 3d 38 51 3e bc 65 c4 c7 3c
       -0.03796919 0.043986134 -0.011616044 0.02438564
000210 0b 08 a8 3d 0a ef 54 bc 68 c9 5b 3c 2b 4d 47 3d
       0.08204659 -0.0129964445 0.013414718 0.048657577
000220 b9 69 3c 3b 0f e3 16 bd fc c7 85 bc ea 9f 52 3d
       0.002874954 -0.036837634 -0.016330712 0.051422037
000230 b8 27 7b 3c 4c 40 69 bd e0 02 59 bd e3 16 9c 3d
       0.015329294 -0.056946084 -0.052981257 0.07621553
000240 2e 03 b9 bc 58 6e 8e bd 20 78 89 bd a5 29 9f 3d
       -0.022584524 -0.0695464 -0.06712365 0.07771615
000250 d9 cc 18 bc 60 35 61 3d d7 34 97 3c 39 40 9c 3c
       -0.009326183 0.054982543 0.018457813 0.019073592
000260 b3 50 a7 3d bb d7 34 3d 44 0b dd bc 8f 3d 98 3d
       0.08169689 0.04415105 -0.02698291 0.07433616
000270 b7 5f 22 bc 90 d0 69 bd 75 59 94 bd 49 46 02 bd
       -0.0099105155 -0.057083666 -0.07243625 -0.03180531
000280 e8 48 9c 3d 53 8a a2 3d 0c e8 84 bd 2f 89 92 bd
       0.07631093 0.079365395 -0.06489572 -0.07155072
000290 5c 7d 90 bc f6 99 ef 3b 45 47 a5 3d 65 33 69 3d
       -0.017637901 0.0073120547 0.08070234 0.05693378
0002a0 19 80 83 3d 79 36 96 bd b0 5e c6 bb 21 77 06 3d
       0.06420917 -0.073346086 -0.006053768 0.032828454
0002b0 a7 7a 7e 3d 04 d7 33 bd 7e 6b a7 3d 84 45 be bc
       0.06212869 -0.043906227 0.081747994 -0.023226507
0002c0 0c 51 91 3d e6 4b db bc 18 1c 22 3c 71 94 df b9
       0.070955366 -0.02676959 0.009894393 -0.00042644472
0002d0 0b 22 20 bd 27 99 73 bd 98 5e a5 bc 6c c6 8c bd
       -0.039094966 -0.05947223 -0.020186707 -0.068737835
0002e0 c7 17 28 3c 95 20 2f bc a5 03 c4 3c 12 b8 32 3c
       0.010259575 -0.0106889205 0.02392752 0.010908144
0002f0 88 63 43 bd ab 76 4f 3d 9b 61 24 bd 65 88 10 3d
       -0.047702342 0.05065028 -0.040132146 0.035286326
000300 04 6c e3 3c 9a bd 5a 3d 9f 14 8f 3c 3c d8 15 3d
       0.027761467 0.053403474 0.017465888 0.03658317
000310 5c 47 4b ba e2 31 dd 3a 8f 05 2f bd da 82 24 bd
       -0.0007754469 0.0016875828 -0.04272991 -0.040163852
000320 48 ab 1b 3c ee 81 05 3d 06 94 ef 3a 5c 85 07 3d
       0.009501286 0.032594614 0.0018278367 0.033086166
000330 24 6b 62 3d 43 2a 7f bd 46 ce 7f bd 9b 5b 6b bd
       0.05527796 -0.062296163 -0.062452577 -0.05746041
000340 0d c6 b1 3c e2 22 e4 bb 68 21 24 bb c2 33 88 bd
       0.021700883 -0.006962166 -0.0025044326 -0.06650497
000350 1c 4b 43 3d 6b fb 32 3d 6f 10 87 3b 21 ab 82 bd
       0.04767905 0.043696802 0.004121832 -0.063802965
000360 b1 fd 5a 3d 08 87 4f 3c 3d a2 9f 3d a8 be b2 bd
       0.053464595 0.012666471 0.07794616 -0.08727771
000370 05 16 57 bd 6e 11 83 3d 66 fc 86 3c e1 87 b5 bd
       -0.052511234 0.06399809 0.016477775 -0.088638075
000380 7b 4a 68 3d 9f 36 aa bd 43 42 b2 bd 9a 95 2a 3d
       0.056711655 -0.083111994 -0.08704045 0.041646577
000390 55 62 22 3d e1 44 f3 3b 5a 49 51 3d ba 45 8d 3c
       0.039644558 0.0074239825 0.051095344 0.017245162
0003a0 26 33 12 bc 1c 25 43 bd 6b b7 4b bd b9 2a 04 bd
       -0.008923328 -0.047642812 -0.049735468 -0.032267306
0003b0 44 38 34 bd e7 b2 d7 bc c2 b6 8f 3b 93 0f 2a 3d
       -0.04399897 -0.026330424 0.0043858 0.04151876
0003c0 15 ea a6 bd de 33 d4 bc c8 99 1f 3d fd f8 0d bd
       -0.08150116 -0.025903638 0.038965017 -0.03466128
0003d0 7c 93 80 bd e4 00 60 3d 7f be 13 3d 8f 93 e6 bc
       -0.062781304 0.05468835 0.036070343 -0.028146533
0003e0 97 35 a6 3b 05 c4 6d 3d b0 d7 fa bc bb 91 72 bd
       0.0050723064 0.058048267 -0.030620426 -0.05922101
0003f0 42 1a 15 bd a0 43 1d bd f8 c4 be 3c 9e 2e 21 bd
       -0.036401995 -0.03839457 0.023287281 -0.0393511

2.bias f4 [128]
000000 63 81 27 bd 03 13 14 bd db 47 3a bd 71 60 88 bd
       -0.040894877 -0.036150943 -0.045478683 -0.0665902
000010 70 04 93 bc 8d 3d e5 bb 1a 5d a0 3d 0a 40 ed bc
       -0.017946452 -0.006995863 0.07830258 -0.0289612
000020 46 a9 68 3c 78 3c 9e 3c 2b c1 11 bd 07 12 e1 bc
       0.014200514 0.019315943 -0.03558461 -0.027474416
000030 87 3b 1b bc 26 9e d3 bb ca 0a 48 3d 18 c5 94 bd
       -0.009474642 -0.0064580617 0.048838414 -0.07264155
000040 a0 6b 43 3d cd f8 9f bd 37 cb 7c bc 13 4c 17 3c
       0.04771006 -0.07811127 -0.01542931 0.009234446
000050 8e 04 8e bd b6 67 7b 3d 3f e7 b1 3d 1a d6 83 3d
       -0.069344625 0.061378203 0.08686685 0.06437321
000060 4c 99 7e 3c 58 ed 0f bb 1b 2b 97 3d 4d ad 4b 3d
       0.0155394785 -0.0021961536 0.073812686 0.04972582
000070 f9 0a 9d 3d d3 c8 82 3d b1 55 65 3d 79 e6 bc 3d
       0.076681085 0.063859604 0.055989925 0.09223647
000080 3d 8e 90 3d 10 c8 85 3d dd ed d2 3c bd 11 0e bd
       0.0705838 0.065322995 0.025748188 -0.034684885
000090 89 ad db bc 75 aa 43 3d f1 b3 d0 ba 12 5d 68 bc
       -0.026816146 0.047769982 -0.0015922767 -0.014182346
0000a0 37 52 b3 3d 44 5d 5b 3c 42 6d 18 3d 2a 95 17 ba
       0.087559156 0.0133889355 0.03721357 -0.000578242
0000b0 ed 11 ae bd 5f 5b 20 3d 29 ec 49 3c c0 24 b8 bd
       -0.08499513 0.03914964 0.012324371 -0.089913845
0000c0 19 e8 25 3d 69 ed 93 3d e3 40 ea 3c 15 0d 81 3d
       0.04050455 0.07223017 0.028595394 0.06301323
0000d0 7b 26 5a bd 8d a4 41 3d c3 17 12 bd 74 a9 5d bd
       -0.053259354 0.04727607 -0.035667192 -0.05411668
0000e0 84 15 bd bc 8c c7 72 3d 5c 5d 8f 3c 76 bb 15 bc
       -0.023081549 0.059272334 0.017500572 -0.009138932
0000f0 d2 0d bc bc b6 d6 67 3d eb 0f 3e bc ef f3 1e 3d
       -0.022955809 0.05660125 -0.011600475 0.038806852
000100 12 bb 3c bd 56 8c 67 3d 43 34 73 3d d7 33 15 3d
       -0.04607684 0.05653032 0.059376013 0.03642639
000110 f7 f5 23 bc a8 90 a4 bd 3f 9d 79 bd 3a c5 a1 bd
       -0.010007373 -0.080354035 -0.060940977 -0.07898946
000120 4b 0e 3c 3d 9e 32 88 3d 13 14 87 bc 7c 7d a2 3d
       0.04591207 0.066502795 -0.016489064 0.079340905
000130 30 bb 1c bc 5b 1b 24 bd c0 ee 22 3d e2 68 bf bc
       -0.009566113 -0.04006515 0.03977847 -0.023365442
000140 89 21 2e bd 5d c0 1d bd fc 4c b1 bc a7 80 20 3d
       -0.04251245 -0.03851353 -0.021643154 0.039185192
000150 38 e4 18 bd 1b 42 b4 3d 7e dd 51 bd 16 38 1d bd
       -0.03732702 0.08801671 -0.051236622 -0.038383566
000160 b4 27 7a 3d ac d9 29 3c df 18 9a bd 56 9e 9a 3c
       0.06107302 0.010366838 -0.07524275 0.018874329
000170 c0 68 64 3d 3c 37 a6 3d 1f a2 9c bd aa af 95 3d
       0.05576396 0.08116004 -0.0764811 0.07308896
000180 2f 27 ab 3d f8 c4 9e 3c 7e de 52 3d 72 6c 9f 3d
       0.08357083 0.019381031 0.051481716 0.07784356
000190 88 d0 04 bd 2e 9b d0 bb 79 6e 89 3d 3e 63 aa 3d
       -0.032425433 -0.006366155 0.06710524 0.0831971
0001a0 13 27 80 3d 46 6e 8f bc 34 db 4e 3c 9b 5c 6f bd
       0.06257453 -0.017508637 0.012625504 -0.058437925
0001b0 83 24 f0 bc 64 9c 60 3d 4a 65 85 bd d4 92 9a bd
       -0.029314285 0.054836646 -0.0651346 -0.075475365
0001c0 0b 0b 8d bd 83 9e 73 3d 73 6b 74 bd e0 73 1b bd
       -0.06886872 0.05947734 -0.059672784 -0.037952304
0001d0 e3 dc 48 3d 14 c5 61 3d a5 af 9f 3c 0b 1d 96 3d
       0.04903878 0.05511959 0.019492934 0.07329758
0001e0 58 f1 00 3d b7 b3 3b 3d ff 8f 42 3c a1 e4 ee 3c
       0.031480163 0.045825686 0.011875152 0.029161753
0001f0 c5 fa 8f bd 35 0a 19 bd a6 ac 69 bd 97 ad 03 3c
       -0.07030252 -0.03736325 -0.057049416 0.0080369925

4.weight f4 [64, 128]
000000 ff 14 2d 3d f7 1f 89 3d 18 d3 7c 3d 7c 55 45 3c
       0.04225635 0.0669555 0.061724752 0.012044307
000010 f3 5f 98 3d 0c 98 50 3a e3 7d 09 bd fb 82 59 bd
       0.07440176 0.0007957227 -0.03356732 -0.05310343
000020 be 69 66 3d 2c 23 4a 3d 0c 08 fd bc 46 af 54 bd
       0.056253187 0.04934995 -0.030887626 -0.051924966
000030 b4 a4 8f 3d 51 f4 11 3d 9e 3f 35 bd 7d 53 25 3d
       0.070138365 0.03563339 -0.044250123 0.040362824
000040 b8 2e 94 3d 31 ca e5 bc 63 c1 84 bd 9f 8d 5f 3d
       0.072354734 -0.028050514 -0.06482198 0.05457842
000050 65 da f2 3a 6e 09 7a 3d 17 d4 a5 3d ed b1 1c 3c
       0.0018528221 0.06104415 0.080970936 0.009563905
000060 61 80 ba 3c 93 f4 98 bd 24 74 88 3d 18 87 7e bd
       0.022766294 -0.07468524 0.06662777 -0.062140554
000070 c1 0f 60 bd 2f d6 72 bd f0 c8 93 3d c5 e5 9c 3d
       -0.054702524 -0.059286293 0.0721606 0.076610126
000080 03 99 45 bd 5f af 46 bc 50 ee 29 3d 0a 49 5e bd
       -0.048241626 -0.012126773 0.041487038 -0.054268874
000090 55 90 93 3d 82 29 2a 3d 9f f2 17 3c 1f 7c d2 bc
       0.072052635 0.04154349 0.009274154 -0.025693951
0000a0 00 70 9f 3d 94 6f 5d 3d 3e 76 96 bc 80 ca 0a bd
       0.07785034 0.054061487 -0.01836693 -0.033884525
0000b0 8d e7 12 3d e0 b5 00 bd f5 73 a4 bd 59 e5 8f bd
       0.035865355 -0.03142345 -0.080299295 -0.070261665
0000c0 20 e2 f5 3c f0 58 23 3d 05 6a f1 3c af 6d c6 bc
       0.030015051 0.03987974 0.0294695 -0.024222223
0000d0 a1 f9 a5 3d f8 76 90 bd 16 56 2e bd d3 3d 92 bc
       0.081042536 -0.070539415 -0.042562567 -0.017851746
0000e0 c7 c8 a9 bc c2 05 1a bd 65 c9 12 3d f3 bd a0 bd
       -0.02072562 -0.037603147 0.035836596 -0.0784873
0000f0 ab 31 4c 3d e7 1e b7 bb 65 59 1f bd f7 76 50 bd
       0.049852055 -0.0055884006 -0.038903613 -0.050894704
000100 a0 b4 02 3d d0 c5 da 3a 88 d0 a9 3d e6 ae 61 bd
       0.03191054 0.0016691033 0.08291727 -0.055098437
000110 39 6a 3a 3d 70 0d 82 bd 04 9a 7e 3c 0c df a5 bd
       0.045511458 -0.06350219 0.01553965 -0.080991834
000120 c3 d7 61 3c 27 e0 b3 3d ba b3 fc bc 87 72 0a 3d
       0.013784352 0.08782988 -0.030847419 0.033800628
000130 2a fe 10 bd fb c5 95 bd b5 1d b4 3d e1 a4 a7 bc
       -0.03539864 -0.073131524 0.08794729 -0.020464363
000140 2c 18 a9 bd c6 f1 51 3b d9 fa ad bd e2 10 a7 bd
       -0.082565635 0.0032034977 -0.08495111 -0.08157517
000150 80 d0 17 bd 59 8e 22 3d 5f 4e 26 bd b3 d8 07 bd
       -0.037064075 0.039686535 -0.040602084 -0.033165645
000160 22 64 9f bd 6b d9 07 3d 5c 4c 9d 3d f9 c0 e4 3b
       -0.07782771 0.03316633 0.0768058 0.006981012
000170 1b ac 4e bc ed 70 8b bd d0 18 79 bd df aa 83 bd
       -0.012614275 -0.06808648 -0.06081468 -0.064290754
000180 79 91 c1 bb 5f 06 9b 3c b4 fb ac bd 0b 84 86 bd
       -0.0059072343 0.018923936 -0.08446446 -0.06568154
000190 33 e3 aa bd 68 14 fa b8 f9 0a 64 bd 8d 53 5d 3d
       -0.08344116 -0.0001192473 -0.055674527 0.05403476
0001a0 a2 02 5e 3d dd 35 04 3d 5f 4a 7b bd 50 64 4d 3c
       0.05420173 0.03227793 -0.061350223 0.012536123
0001b0 76 37 dd bb 1f e6 2b bc 32 91 69 3d 42 9c 42 bd
       -0.006750996 -0.010491877 0.057023235 -0.0475123
0001c0 9e 8d c3 3b 38 70 95 ba 38 af 8a 3c b3 99 a8 bd
       0.00596781 -0.0011401242 0.016929254 -0.08232441
0001d0 0a d0 ac bd b1 db 42 bc 47 76 8d 3d 6f 22 87 bc
       -0.08438118 -0.011893199 0.06907325 -0.016495911
0001e0 9a 16 8a bc c3 d2 9e 3d e9 05 6e bd 4a f8 a0 bd
       -0.01685648 0.07755043 -0.058111105 -0.078598574
0001f0 fe 77 41 3d 7a b1 00 bd 13 8f 1a 3d ae 92 b4 3d
       0.047233574 -0.031419255 0.037734102 0.088170394
000200 f1 99 a7 3d bf c5 f8 3c 8a de 5b 3d a6 af 74 bc
       0.08183659 0.03036773 0.053679027 -0.014934456
000210 18 1d 6c bc d2 08 44 3d e5 cf d8 3c b1 cd 57 3d
       -0.014411233 0.047859974 0.02646632 0.052686397
000220 c5 cc 51 3c 72 01 f4 bc 90 6a 18 3d c4 7d 70 3d
       0.0128051685 -0.029785845 0.037211 0.05871369
000230 b8 e9 7f bd 24 40 91 bd 8f 9d 5d bb 2f 58 59 bd
       -0.06247875 -0.07092312 -0.0033815836 -0.053062614
000240 41 d9 7a 3d cf fa 9f 3a e9 ff df bc 3d 57 65 3d
       0.061242346 0.0012205484 -0.027343707 0.0559914
000250 59 7f b2 bd 34 23 e8 bc 0a d3 89 bb af 18 76 bd
       -0.08715696 -0.028337099 -0.004206066 -0.060082134
000260 b1 ce 90 bc 06 14 42 3d 53 a7 5b bd e7 62 01 bd
       -0.017676683 0.047382377 -0.05362637 -0.03158846
000270 ae 3b 82 bd 19 68 c5 3c 71 d8 93 bc a3 93 64 3d
       -0.06359039 0.02409749 -0.018047543 0.05580486
000280 8f 68 92 3d 93 b4 89 3d 29 77 0a 3d 5b c3 5b bd
       0.07148849 0.06723895 0.033805046 -0.053653102
000290 b8 05 0a 3d 41 5c a7 3d 0a ab a7 3d 72 f9 7f 3b
       0.03369686 0.08171893 0.0818692 0.0039058593
0002a0 4b 38 10 bd 74 15 83 bd a4 dd 84 bb fd 81 3e 3d
       -0.035209935 -0.06400576 -0.004054742 0.046510685
0002b0 07 4c 94 3c 91 36 ab 3d ff 49 72 3d 78 08 5b 3d
       0.018102659 0.08360017 0.0591526 0.053474873
0002c0 75 cf 0a bd 41 cd 04 3d 70 df bc bd c3 0d 13 bd
       -0.033889253 0.032422308 -0.09222305 -0.035901796
0002d0 c1 f9 3b bd f1 73 3d bd 57 e4 e5 3b ec 2a 9b 3a
       -0.04589248 -0.04625315 0.0070157456 0.0011838353
0002e0 4c 16 93 bd 47 38 ae 3a f7 e2 58 3c f0 0f 88 3c
       -0.07181987 0.0013291918 0.013237706 0.016609162
0002f0 08 d2 a1 3b 8a b7 bb bd 1a a9 07 3c b4 c4 07 3d
       0.0049383678 -0.09165867 0.008280063 0.033146575
000300 32 c1 3b bd 5a a6 2c 3d 9f 25 7e 3d 7e 2e 96 3c
       -0.045838542 0.042150833 0.062047597 0.018332716
000310 e4 0a 9b bd 0b ff 9c 3c 93 9b 6c 3d 43 27 16 bd
       -0.075704366 0.019164583 0.057765555 -0.036658537
000320 4a 38 27 bc ef 04 fa 3c 25 65 9d bc 29 fe 7e 3d
       -0.010206291 0.03051993 -0.019213269 0.062254105
000330 13 fc d6 3b e0 4e a6 bc 6f 8d 67 bd c2 7b 40 3d
       0.0065608113 -0.020301282 -0.056531366 0.046993025
000340 b3 53 10 bd 90 71 d7 bc 1c 61 a4 bd 81 0f 4b bd
       -0.03523607 -0.026299268 -0.08026335 -0.049575333
000350 c0 c9 27 bd 55 3a cc 3c 98 01 9a 3d a8 1d ab 3d
       -0.04096389 0.024930159 0.07519835 0.08355266
000360 d0 d3 68 3d cf d9 b2 bd 63 8a 2c 3b 64 0f b1 ba
       0.056842625 -0.0873295 0.0026327602 -0.0013508615
000370 27 27 b5 bd 83 26 b0 bd 8d f1 97 3b 53 88 34 3b
       -0.08845358 -0.086010955 0.0046369494 0.0027547076
000380 ec d2 a9 bd 90 6d 84 3c 34 ab 56 3d 2c 0c b1 bd
       -0.08292183 0.016165525 0.052409366 -0.086449
000390 6d 9e 64 bc a0 93 da 3c 3d 0f 3a 3d 97 31 8b bd
       -0.013953787 0.026681721 0.04542469 -0.06796568
0003a0 42 27 a2 3d 60 09 29 bc 0c 32 aa 3d 81 da 74 3d
       0.07917644 -0.010317177 0.08310327 0.059778694
0003b0 ff 86 ee bc 0d 83 97 3d 2e 38 6b 3d d0 6a 9a 3d
       -0.029117106 0.07398043 0.057426624 0.07539904
0003c0 cd 63 93 bd 0a df bb ba 4d ea af 3d 73 4c 84 bd
       -0.0719677 -0.0014333439 0.08589611 -0.06459894
0003d0 ae 0e 11 bd 8c 06 03 3d 01 ec 31 bc d4 c1 13 3d
       -0.03541439 0.031988665 -0.01085949 0.03607352
0003e0 17 cd 88 3d e5 30 84 3d 02 1e 8a bd 97 0b ec bc
       0.06679743 0.064546384 -0.06744005 -0.02881412
0003f0 4d 17 9b 3d 89 a5 45 3d d4 37 09 bd 97 50 38 bd
       0.07572804 0.04825357 -0.033500507 -0.04499873

4.bias f4 [64]
000000 d4 49 94 3d c3 10 54 bc f9 b1 97 3c b3 c9 58 3d
       0.07240644 -0.012943449 0.018517481 0.05292673
000010 0c 6d da bc 59 a3 47 3d b1 3b 88 bd 3f b8 2d 3d
       -0.026663326 0.048739765 -0.0665201 0.04241204
000020 97 4f 39 3c d1 ef 8f 3d f1 e4 f9 bc 1f e9 1f bc
       0.01131048 0.07028163 -0.030504676 -0.00976017
000030 37 0d 1f 3d ee 51 a6 3d fa cb 7b 3d a1 fa e8 3c
       0.038830962 0.081210956 0.061473824 0.028439822
000040 92 ac 10 3d dc b9 9c 3c 9e f5 15 bd 20 04 a0 3d
       0.035320826 0.019131593 -0.036611192 0.07813287
000050 aa 56 91 bd f2 06 06 bd ae 8f a2 bd 5c 60 86 3c
       -0.07096608 -0.032721467 -0.07937561 0.01640337
000060 f1 d7 8a 3c 44 a8 62 bd 45 48 aa bd 7d 04 5e bd
       0.016948672 -0.05533625 -0.083145656 -0.0542035
000070 1e 60 65 3d b0 af 93 bd 39 72 c4 bc 3d 31 e0 bc
       0.055999868 -0.07211244 -0.023980247 -0.027367229
000080 15 a1 8e bc 98 41 93 bb 84 9e 49 3d 89 54 a2 3d
       -0.017410794 -0.0044939034 0.049223438 0.0792628
000090 12 e1 8e 3b 3b 98 85 bd 75 62 61 3d 01 ec 0e 3b
       0.0043603266 -0.06523176 0.055025537 0.002180815
0000a0 3d 30 02 bd f1 ea 4a 3c 59 b8 5e bd 88 c7 a5 bd
       -0.031784285 0.012385116 -0.054375026 -0.08094698
0000b0 d5 c9 99 3d 50 c9 58 3d 2e 29 70 3c 3d b5 ad 3d
       0.075091995 0.05292636 0.0146582555 0.08481834
0000c0 26 17 7f bd f8 20 91 3d 56 a7 93 bd e2 97 e6 3c
       -0.062277935 0.070863664 -0.07209651 0.028148595
0000d0 ab 91 82 3d b9 40 cf bc 7b 33 75 3d c5 fa a3 3d
       0.0637544 -0.025299417 0.05986355 0.08006815
0000e0 86 db 45 3c 9e 41 81 bc 20 1a aa bd 42 a3 1c 3d
       0.012076264 -0.015778359 -0.08305764 0.038241632
0000f0 4f 40 e4 3c 45 ee fc bc 9d 01 ff bc 06 e3 8d bc
       0.027862696 -0.030875335 -0.031128699 -0.017320167

0.weight f4 [128, 64]
000000 8c 88 05 be e5 fb 1b 3e d2 64 ce bd 81 fa 25 bd
       -0.1304037 0.15232809 -0.10077824 -0.040522102
000010 27 db d9 bd 94 65 3f 3d a6 e1 d4 bc d8 98 57 3e
       -0.10637503 0.04672773 -0.025986504 0.21054399
000020 7f 59 67 bd eb 47 9b bc fe 84 c0 3d 57 ff 95 3d
       -0.056481835 -0.018955192 0.09400366 0.07324093
000030 54 db ec 3d 0f 43 25 3d e7 49 e8 bd 79 fb 14 be
       0.11565271 0.040347155 -0.11342221 -0.14549054
000040 6f de 43 be 1e 04 1e bd 4b 3f df bd 45 b6 02 be
       -0.1912782 -0.038578145 -0.10900744 -0.12764843
000050 c6 f6 0c 3e b0 88 0d 3e b0 e3 8c 3c d2 56 3d 3e
       0.13766012 0.13821673 0.017198414 0.1849015
000060 80 93 1e be 7e 5a 0e be ee 23 a9 3c f9 2c 4e 3d
       -0.15485954 -0.13901708 0.020647015 0.050335858
000070 fc f1 3a 3e 6e 14 8c bc b3 f4 e3 bb 36 a2 a5 3d
       0.18256372 -0.017099585 -0.0069566607 0.0808758
000080 71 3d 2c bd c7 c8 c5 ba c4 5d d7 bd 1f b8 e8 bd
       -0.042050783 -0.0015089744 -0.10515931 -0.11363243
000090 8e 1b 9d 3d 66 cf 9f ba 01 54 cd bd 92 93 37 be
       0.07671271 -0.0012192547 -0.10025788 -0.17927387
0000a0 eb da 0f be 82 22 08 3d ec a6 e8 3b 4f 3d 2c be
       -0.14048354 0.033236034 0.0070999768 -0.16820262
0000b0 18 22 45 3d 4a 2c fb 3d 74 15 50 3e f6 0d 09 bd
       0.048128217 0.12264307 0.20320684 -0.03346058
0000c0 1a 9f 34 3b 01 32 2b be 2a c2 4e be 31 f3 d4 bb
       0.0027560652 -0.16718294 -0.20191255 -0.0064987172
0000d0 94 e4 39 3c 4e 67 00 bd fd b7 32 be 4f 3c a9 bd
       0.011346001 -0.03134852 -0.17452998 -0.08263456
0000e0 57 43 b6 3d b8 ab 9a bd 34 a7 77 be 7c 5d 87 3d
       0.08899563 -0.07552284 -0.24184877 0.066096276
0000f0 9e 76 b7 bd 50 73 72 3c cc cb de 3d c8 6c b0 3d
       -0.08958171 0.014798 0.10878715 0.086144984
000100 55 52 98 3d 0c 89 a0 3d a0 1a 5a 3e ab fa 7d be
       0.074375786 0.078386396 0.21299219 -0.24802653
000110 09 c6 91 3d 50 96 2c 3d db c2 36 be c8 33 c5 bd
       0.0711785 0.042135537 -0.17847769 -0.09629017
000120 b2 7e c3 3d c2 cd 0b 3e 79 48 8d bc 64 20 09 be
       0.095456496 0.13652709 -0.017246472 -0.13391262
000130 59 64 85 be b3 b2 0b bd 33 8e 06 3e 4f 0a 48 be
       -0.26053122 -0.034105968 0.13140182 -0.19535182
000140 6b 7c 72 3e b8 aa 3b bd c4 5c 9c bd 09 b9 c9 bd
       0.23680274 -0.045817107 -0.07634881 -0.09849746
000150 2b 6a bd bd a8 41 e6 3d 37 00 82 bd 5e cf 1f be
       -0.092487656 0.11242992 -0.06347697 -0.15606448
000160 42 f5 3e bc a8 f1 ab 3c 3a 1d ac bd 22 a3 22 3e
       -0.011655154 0.020989254 -0.08404012 0.15882543
000170 93 f7 5c 3e 6f 42 a4 3d ef b4 d6 3c d3 29 30 bd
       0.21578817 0.08020484 0.026209323 -0.043008637
000180 bf 75 84 3d ac 64 b4 bd 4d f7 13 bd 77 9f e9 bd
       0.06467771 -0.08808264 -0.036124516 -0.11407369
000190 6e ed e6 bd fd 34 8c 3d 49 b7 0a 3e 5d d7 e0 bd
       -0.11275755 0.06846044 0.1354648 -0.10978577
0001a0 b2 30 9a bd fa 69 8e 3d 08 51 83 bd 4b ee 01 be
       -0.07528819 0.06953807 -0.0641194 -0.12688558
0001b0 ce 63 e8 3d 00 fc f4 3d e8 f4 54 be 56 73 66 3c
       0.11347161 0.11962128 -0.2079655 0.014065584
0001c0 4e 5d 10 3d 39 45 96 3c 5e b4 6e 3d 69 9d 12 3e
       0.035245232 0.018343555 0.05827748 0.1431786
0001d0 89 ad 05 be 1b a4 ae bc 00 40 74 3e 06 d2 8e 3b
       -0.1305448 -0.021318486 0.23852539 0.004358533
0001e0 10 97 84 3d 59 2b 07 bd 4e fb 90 bd 0f 57 f5 3d
       0.064741254 -0.033000324 -0.070791826 0.11979496
0001f0 b7 c2 0b 3e 98 cb 65 be f5 97 ea bd 83 98 9b 3d
       0.13648497 -0.22440946 -0.11454765 0.07597449
000200 5e 25 40 3e 7d 85 f0 bd cc 67 27 be 00 20 7b bd
       0.18764254 -0.11744211 -0.16348189 -0.061309814
000210 f2 f6 d6 3c f2 2a cb bd 2a 28 d3 3c 0e 9c a4 3d
       0.0262408 -0.099203005 0.025775988 0.080375776
000220 0c 84 de 3d 30 2a 9b bd 08 c2 d1 3d cb c6 c1 bb
       0.1086503 -0.07576406 0.10242087 -0.0059135905
000230 2f 1c 38 3e 58 22 05 be 32 03 d7 bb f6 38 75 bd
       0.17979501 -0.13001382 -0.00656166 -0.059868775
000240 4d 9e 41 3e 1b ee c4 3d db bc c7 bd 0a 2a 8b 3d
       0.18908043 0.096157275 -0.09752818 0.06795128
000250 36 c3 6d bd e5 25 5f 3e a3 c9 2a bc 14 e0 86 bc
       -0.058047496 0.217918 -0.0104240505 -0.01646427
000260 b2 69 ec bd 6b eb 11 3e 40 57 0e 3e e7 91 28 be
       -0.11543597 0.14249961 0.1390047 -0.16461907
000270 2d a9 70 bd 1f 6d 1f be a1 db d3 3d 83 0c 39 bd
       -0.05875509 -0.1556897 0.10344625 -0.045177948
000280 7f d8 5a bd df 47 01 be d8 bb 7f 3d a3 05 4d 3d
       -0.053429123 -0.12625073 0.062435 0.050054204
000290 2c 9b 52 3d 95 99 7d 3e cb c1 10 3e c7 fc 15 3e
       0.051417515 0.24765618 0.14136426 0.14647208
0002a0 6b a6 f6 bc fb 72 d6 3c 7a 12 92 3d 99 29 27 be
       -0.030108651 0.026177874 0.071324304 -0.16324462
0002b0 32 a1 f7 bc c1 f4 12 bd 52 ef 9f 3e 86 91 58 3d
       -0.030228231 -0.035877947 0.31237274 0.052873157
0002c0 57 95 0a 3e 36 bc b7 3d 03 81 59 3c 38 c8 82 3d
       0.13533531 0.08971445 0.013275388 0.06385845
0002d0 1e 0f 1d be d1 42 5c be 75 66 07 3d 50 2c 3e bd
       -0.15337798 -0.21509863 0.033056695 -0.04642898
0002e0 38 b8 90 bd 48 7f 05 bd 29 4c 05 bd 10 e7 86 3b
       -0.07066387 -0.032592088 -0.032543335 0.0041169003
0002f0 32 2a 0c 3e 48 a0 d0 3c 5f 22 8c bb e7 81 3a bb
       0.13687971 0.025467053 -0.0042765583 -0.0028458775
000300 8b e4 88 bd 5c 84 a2 3d b0 40 37 3d 78 5d 4a 3a
       -0.06684216 0.07935402 0.044739425 0.00077196164
000310 8e 89 30 bd da a5 be bc 50 30 33 bd 09 f4 87 3d
       -0.043099932 -0.023272444 -0.043747246 0.06638343
000320 df e0 e7 bd e9 6a cd 3d af ed 04 be 28 28 16 bd
       -0.11322188 0.10030157 -0.12981294 -0.03665939
000330 c0 1d 98 3d 63 d2 bc bd da 97 13 be fd d1 f0 bd
       0.07427549 -0.092198156 -0.14413396 -0.11758802
000340 d6 24 8d be d9 f3 2b 3e 79 e5 21 3e 33 cd 0a 3d
       -0.27567166 0.16792239 0.15810193 0.0338871
000350 dd 5f 15 bd 61 16 1d bd c0 ed 55 3e f9 a6 a3 bb
       -0.036468375 -0.03835142 0.20891476 -0.00499427
000360 8a 9b fa bc 53 29 b2 bd 0e fa ed bd 86 a9 f4 bc
       -0.030591745 -0.08699288 -0.1161996 -0.029865991
000370 69 00 32 bd db 6e 93 3d 62 97 80 3e 90 9d a3 ba
       -0.043457422 0.071988784 0.25115496 -0.001248287
000380 e7 18 45 be 56 a0 0b 3d ee 08 14 be 2f ad fd bc
       -0.1924778 0.034088455 -0.14456531 -0.03096637
000390 26 70 5f 3e a6 ee 0b be f9 1f c7 3d 02 cf 53 be
       0.21820125 -0.13665256 0.09722895 -0.20684436
0003a0 e7 7a 2d 3e ee b4 0d 3e 30 25 36 be ce c8 d3 bc
       0.16941415 0.1383855 -0.17787623 -0.025852587
0003b0 69 61 35 3d 30 1d c0 bd e5 0b f3 bc 3e b6 64 3c
       0.04428235 -0.09380567 -0.029668758 0.013959466
0003c0 d3 c8 75 3e b0 f9 39 3e b6 f8 58 be 49 6f 41 be
       0.2400239 0.18161654 -0.21188626 -0.18890108
0003d0 6d c0 55 be 34 23 05 be f1 eb 3a bd 1f 7a 0a be
       -0.20874186 -0.1300171 -0.045635168 -0.13523148
0003e0 57 c7 2f 3d 43 32 50 be 61 49 1d 3e 24 87 9e 3c
       0.042914715 -0.20331673 0.15360023 0.01935155
0003f0 10 36 d9 bd a3 f4 0d bd ac 6c ac bd c7 29 46 3e
       -0.10606015 -0.034657132 -0.08419165 0.19351874

0.bias f4 [128]
000000 00 00 00 00 00 00 00 00 00 00 00 00 00 00 00 00
       0.0 0.0 0.0 0.0
000010 00 00 00 00 00 00 00 00 00 00 00 00 00 00 00 00
       0.0 0.0 0.0 0.0
000020 00 00 00 00 00 00 00 00 00 00 00 00 00 00 00 00
       0.0 0.0 0.0 0.0
000030 00 00 00 00 00 00 00 00 00 00 00 00 00 00 00 00
       0.0 0.0 0.0 0.0
000040 00 00 00 00 00 00 00 00 00 00 00 00 00 00 00 00
       0.0 0.0 0.0 0.0
000050 00 00 00 00 00 00 00 00 00 00 00 00 00 00 00 00
       0.0 0.0 0.0 0.0
000060 00 00 00 00 00 00 00 00 00 00 00 00 00 00 00 00
       0.0 0.0 0.0 0.0
000070 00 00 00 00 00 00 00 00 00 00 00 00 00 00 00 00
       0.0 0.0 0.0 0.0
000080 00 00 00 00 00 00 00 00 00 00 00 00 00 00 00 00
       0.0 0.0 0.0 0.0
000090 00 00 00 00 00 00 00 00 00 00 00 00 00 00 00 00
       0.0 0.0 0.0 0.0
0000a0 00 00 00 00 00 00 00 00 00 00 00 00 00 00 00 00
       0.0 0.0 0.0 0.0
0000b0 00 00 00 00 00 00 00 00 00 00 00 00 00 00 00 00
       0.0 0.0 0.0 0.0
0000c0 00 00 00 00 00 00 00 00 00 00 00 00 00 00 00 00
       0.0 0.0 0.0 0.0
0000d0 00 00 00 00 00 00 00 00 00 00 00 00 00 00 00 00
       0.0 0.0 0.0 0.0
0000e0 00 00 00 00 00 00 00 00 00 00 00 00 00 00 00 00
       0.0 0.0 0.0 0.0
0000f0 00 00 00 00 00 00 00 00 00 00 00 00 00 00 00 00
       0.0 0.0 0.0 0.0
000100 00 00 00 00 00 00 00 00 00 00 00 00 00 00 00 00
       0.0 0.0 0.0 0.0
000110 00 00 00 00 00 00 00 00 00 00 00 00 00 00 00 00
       0.0 0.0 0.0 0.0
000120 00 00 00 00 00 00 00 00 00 00 00 00 00 00 00 00
       0.0 0.0 0.0 0.0
000130 00 00 00 00 00 00 00 00 00 00 00 00 00 00 00 00
       0.0 0.0 0.0 0.0
000140 00 00 00 00 00 00 00 00 00 00 00 00 00 00 00 00
       0.0 0.0 0.0 0.0
000150 00 00 00 00 00 00 00 00 00 00 00 00 00 00 00 00
       0.0 0.0 0.0 0.0
000160 00 00 00 00 00 00 00 00 00 00 00 00 00 00 00 00
       0.0 0.0 0.0 0.0
000170 00 00 00 00 00 00 00 00 00 00 00 00 00 00 00 00
       0.0 0.0 0.0 0.0
000180 00 00 00 00 00 00 00 00 00 00 00 00 00 00 00 00
       0.0 0.0 0.0 0.0
000190 00 00 00 00 00 00 00 00 00 00 00 00 00 00 00 00
       0.0 0.0 0.0 0.0
0001a0 00 00 00 00 00 00 00 00 00 00 00 00 00 00 00 00
       0.0 0.0 0.0 0.0
0001b0 00 00 00 00 00 00 00 00 00 00 00 00 00 00 00 00
       0.0 0.0 0.0 0.0
0001c0 00 00 00 00 00 00 00 00 00 00 00 00 00 00 00 00
       0.0 0.0 0.0 0.0
0001d0 00 00 00 00 00 00 00 00 00 00 00 00 00 00 00 00
       0.0 0.0 0.0 0.0
0001e0 00 00 00 00 00 00 00 00 00 00 00 00 00 00 00 00
       0.0 0.0 0.0 0.0
0001f0 00 00 00 00 00 00 00 00 00 00 00 00 00 00 00 00
       0.0 0.0 0.0 0.0

2.weight f4 [128, 128]
000000 71 12 11 be ad c2 17 3c 0c 24 0d 3d e5 1b 81 bd
       -0.14167191 0.009262723 0.034458205 -0.063041486
000010 0c 78 69 bd cd 3a 0a be 22 c4 80 3e 8c 6c 2e 3c
       -0.05699925 -0.13498993 0.25149637 0.010645997
000020 9b 9a c3 3c 03 40 fa 3d a2 a1 df 3d 78 16 cf bd
       0.023877433 0.122192405 0.10919501 -0.101117074
000030 75 19 e5 3d 14 e4 b5 3d b6 c2 c5 3c e8 a8 ec 3d
       0.11186496 0.08881393 0.024140697 0.11555654
000040 44 ef b2 3d 75 82 98 3e e2 11 b8 bc de 69 80 3d
       0.087370425 0.2978703 -0.022469465 0.062701926
000050 09 83 48 be 58 21 db bb f3 70 f8 3c e1 a3 78 be
       -0.19581236 -0.0066873245 0.030327296 -0.24281265
000060 8a 57 28 3e c6 fc 23 3d e8 9d 63 bc 81 bb db 3d
       0.16439644 0.040035985 -0.013892628 0.10729123
000070 5c 8d 17 bb e8 5d c1 3d b3 01 dc bd fc 3f 5a 3d
       -0.0023125028 0.09441739 -0.107425116 0.053283677
000080 fd 7c fe bc 5b 52 2a be 54 47 4d 3d cf 45 c4 3d
       -0.031065458 -0.16632979 0.050116852 0.095836274
000090 17 60 65 3c 96 2e 94 be 47 83 25 be 00 2c 97 3e
       0.01399996 -0.28941792 -0.1616336 0.29525757
0000a0 c8 0b 16 3e 01 4b d2 3b b8 30 a0 bd 2c 6c f3 3c
       0.14652932 0.0064176326 -0.07821792 0.029714666
0000b0 45 39 b0 bd 47 f3 38 be d7 d4 ba 3d 00 2b 1c 3d
       -0.08604673 -0.18061553 0.09122627 0.038126945
0000c0 8d 63 0a 3c 41 8f c2 bd c3 59 ea 3d 13 ac ac 3a
       0.008446586 -0.0949998 0.11442902 0.0013173841
0000d0 9f 2b 7e 3e 9f 94 36 be 77 20 b7 3c 73 ee ec 3d
       0.24821328 -0.17830132 0.022354348 0.11568918
0000e0 3e 1f 80 be 66 1a 0f bd 89 39 93 3c 02 fd 10 bd
       -0.25023836 -0.034937285 0.01797177 -0.035397537
0000f0 25 dc 41 be 63 cf 64 bd f5 8b 16 bd a0 74 6e 3d
       -0.18931635 -0.055861842 -0.036754567 0.05821669
000100 1c d5 44 bd df b0 b2 3d b1 84 b4 3b e1 e4 a8 3d
       -0.0480548 0.08725142 0.005508982 0.0824678
000110 60 3f 48 bd 48 e8 86 bd ab f0 48 3e f8 d1 93 bd
       -0.048888564 -0.06587273 0.19623058 -0.07217783
000120 c8 c4 aa bd 95 48 75 bd ad b3 49 3e bb c2 5d 3e
       -0.08338314 -0.059883673 0.19697447 0.21656315
000130 31 e2 80 3d ac 68 d9 bd f7 e9 ce bc a7 30 5d 3d
       0.062931426 -0.10615668 -0.025258048 0.054001477
000140 18 25 fc 3b 29 ed 1a 3d be 8d 4a be e1 85 a0 bd
       0.0076948516 0.03782383 -0.19780633 -0.078380354
000150 89 be 8d bd 2f e8 aa 3d 5c 0b 81 bd dd 2c 71 be
       -0.06921107 0.08345067 -0.06300995 -0.2355227
000160 ec b9 e6 3b 33 f2 5a be 8c b6 a2 bd 22 75 d3 3d
       0.0070412066 -0.21381454 -0.07944974 0.10325076
000170 a3 81 d9 3c 5a 36 ed bd fc 51 4a 3e 27 1f 03 bd
       0.026551073 -0.11582632 0.19757837 -0.03201213
000180 18 03 b3 bc 4b df f4 3c ac 9b bd 3c 14 03 99 be
       -0.021852061 0.02989163 0.02314552 -0.2988516
000190 21 4d ce 3d dd ab 51 3e 02 bc 4a bd 4e 8a 6b bc
       0.10073305 0.20475717 -0.049495704 -0.014376236
0001a0 71 8c c0 bc 2b 31 7d 3d 08 a9 97 bd 84 bb 8d be
       -0.023504468 0.06181447 -0.07405287 -0.27682126
0001b0 e4 40 3b be d1 d1 d8 bd 56 48 53 3e 25 fd 3a 3e
       -0.18286473 -0.10586894 0.20633063 0.1826063
0001c0 de 4e 18 bd 68 f3 31 be 11 6a 2b 3d b6 d2 7e bd
       -0.03718459 -0.17378008 0.0418492 -0.06221267
0001d0 92 4c c0 3c ff 90 52 3e 0a a2 f6 3b 6e 1b 3c bc
       0.023474012 0.20563124 0.007526641 -0.011481149
0001e0 13 f3 8a be 8d 1f 3a 3e 8b f6 71 bd d4 5c 31 bd
       -0.27138576 0.18176098 -0.059073012 -0.04330142
0001f0 ec d5 d0 bd 93 55 0f 3e c3 8e b3 3d 29 a7 ca bc
       -0.10197052 0.13997488 0.08767464 -0.024737911
000200 3e a3 6f bd 77 ea 99 bc b7 b3 c3 bc 8c 66 83 bd
       -0.05850529 -0.01878856 -0.023889406 -0.06416044
000210 b9 ab 9b 3e 7f bb c5 3c 94 ad 5e 3e ae 09 3e be
       0.3040445 0.024137257 0.21745902 -0.1855838
000220 46 b0 59 3d 43 19 93 3e 68 89 11 bd cd 7f 55 be
       0.053146623 0.2873021 -0.03553143 -0.20849533
000230 94 bb 04 be 38 80 b3 bd 5f 38 23 3e 3c ec 13 bd
       -0.1296218 -0.0876469 0.15939473 -0.036113963
000240 d5 d1 6c be 21 29 4c bd 99 fc 47 3e 43 b8 8e 3c
       -0.2312692 -0.04984391 0.19529952 0.017421847
000250 14 e9 91 bd 5c d0 bd 3d 56 36 a3 3d 7b 8c 8e 3c
       -0.07124534 0.09268257 0.07969348 0.01740097
000260 cc a8 da 3e 75 d2 ce bd 14 ac 47 3e 92 3b ec bd
       0.42706907 -0.10098735 0.19499236 -0.115348
000270 5e 4d 28 be d5 36 04 be bd 12 99 3c f4 1f 74 be
       -0.16435763 -0.12911542 0.018685693 -0.23840314
000280 3f 0a 6b be 8f e6 11 3e b0 95 58 3d d3 2d 29 bd
       -0.22953127 0.14248107 0.052877128 -0.041303467
000290 3e 4f e9 bc f4 b4 fb 3d 55 ec 5f 3e 82 d7 68 bd
       -0.028480168 0.122903734 0.21867497 -0.05684615
0002a0 22 13 62 bb c5 86 24 3e 86 fa b5 bd ca e8 8c 3d
       -0.0034496267 0.16067035 -0.08885674 0.068803385
0002b0 cd 6f 20 3d 30 51 81 3c 82 b0 00 bd 62 9d b4 bc
       0.03916912 0.015785784 -0.03141833 -0.022047702
0002c0 10 ea 38 3d be a0 a3 3d 04 05 e1 3d 84 33 67 bd
       0.045145094 0.079896435 0.10987285 -0.056445614
0002d0 71 95 23 be be 83 4b bd 4a 5d 92 bd 30 2d 16 be
       -0.15974976 -0.049686186 -0.071467 -0.14665675
0002e0 18 e4 eb bd 41 cc 19 bd b1 3c 9a 3c 86 ac 49 bd
       -0.11518115 -0.037548307 0.018827768 -0.049236797
0002f0 79 bf d0 3c 4c 76 bb 3d 8e e0 ff bc 49 0b 07 3d
       0.025481926 0.09153423 -0.031235006 0.032969747
000300 39 8a 4d 3e 52 9a 71 bd ce cd 00 be 3f a9 5f bd
       0.20072259 -0.058985062 -0.12578508 -0.054604765
000310 57 d3 1e be 05 7a 37 3e e3 9e 12 3c a8 78 19 3e
       -0.15510307 0.1791764 0.008949014 0.14987433
000320 97 ff 89 3e 42 b4 f6 3c 13 f7 02 be f0 9c c8 3d
       0.26952812 0.03011525 -0.12789564 0.097955585
000330 69 ef b9 3d 49 ad c8 bd bd a1 95 bd 78 79 cd bd
       0.09078867 -0.097986765 -0.0730624 -0.10032934
000340 e9 a3 79 3e cb f5 f9 3c a2 64 47 3c 61 2a 58 3e
       0.24378933 0.030512711 0.012169989 0.21109916
000350 31 8a ed bd 24 01 d3 bd 30 bb 15 bc af 7a 34 3e
       -0.115986235 -0.10302952 -0.009138867 0.17624925
000360 e5 7f a6 3d 42 b3 f1 3d 7d c9 1e be dc 49 ce 3d
       0.08129863 0.11801769 -0.15506549 0.10072681
000370 85 a6 04 bd 99 a6 fe bd 4f dc 74 3d c9 58 10 be
       -0.032385368 -0.1243412 0.059780415 -0.14096369
000380 88 2d 25 3d c5 87 9d bd 99 b2 33 bd e5 7b 87 3a
       0.040326625 -0.076919116 -0.043871496 0.0010336606
000390 65 04 e9 3d ce e0 52 3e e1 8a 10 3d 7a cb fb 3c
       0.11377791 0.20593569 0.035288695 0.030736674
0003a0 e2 73 36 be 8a 8b 84 3c c4 28 7c bd 3a 52 26 3d
       -0.17817643 0.016179819 -0.061562315 0.04060576
0003b0 9a a8 91 3c 2a e2 47 3e 6a 06 02 be 5a 1a b9 3d
       0.01778059 0.19519868 -0.1269776 0.09038229
0003c0 93 1f 18 3d c7 b4 bf 3d d0 82 0e 3c 82 d2 cf 3d
       0.037139487 0.093606524 0.00869818 0.10147573
0003d0 81 e0 87 bd f5 cd 12 3e 12 71 9e bd 2d ae e6 3d
       -0.066346176 0.14336379 -0.0773641 0.1126369
0003e0 1f 1c 1f be de ff d8 3d 2e de ba 3c 2a df dc bd
       -0.15538071 0.10595678 0.022811022 -0.10784753
0003f0 00 58 01 be f8 e2 2b 3e 27 8d 2f 3e 59 80 24 bd
       -0.12631226 0.167858 0.17143689 -0.040161464

2.bias f4 [128]
000000 00 00 00 00 00 00 00 00 00 00 00 00 00 00 00 00
       0.0 0.0 0.0 0.0
000010 00 00 00 00 00 00 00 00 00 00 00 00 00 00 00 00
       0.0 0.0 0.0 0.0
000020 00 00 00 00 00 00 00 00 00 00 00 00 00 00 00 00
       0.0 0.0 0.0 0.0
000030 00 00 00 00 00 00 00 00 00 00 00 00 00 00 00 00
       0.0 0.0 0.0 0.0
000040 00 00 00 00 00 00 00 00 00 00 00 00 00 00 00 00
       0.0 0.0 0.0 0.0
000050 00 00 00 00 00 00 00 00 00 00 00 00 00 00 00 00
       0.0 0.0 0.0 0.0
000060 00 00 00 00 00 00 00 00 00 00 00 00 00 00 00 00
       0.0 0.0 0.0 0.0
000070 00 00 00 00 00 00 00 00 00 00 00 00 00 00 00 00
       0.0 0.0 0.0 0.0
000080 00 00 00 00 00 00 00 00 00 00 00 00 00 00 00 00
       0.0 0.0 0.0 0.0
000090 00 00 00 00 00 00 00 00 00 00 00 00 00 00 00 00
       0.0 0.0 0.0 0.0
0000a0 00 00 00 00 00 00 00 00 00 00 00 00 00 00 00 00
       0.0 0.0 0.0 0.0
0000b0 00 00 00 00 00 00 00 00 00 00 00 00 00 00 00 00
       0.0 0.0 0.0 0.0
0000c0 00 00 00 00 00 00 00 00 00 00 00 00 00 00 00 00
       0.0 0.0 0.0 0.0
0000d0 00 00 00 00 00 00 00 00 00 00 00 00 00 00 00 00
       0.0 0.0 0.0 0.0
0000e0 00 00 00 00 00 00 00 00 00 00 00 00 00 00 00 00
       0.0 0.0 0.0 0.0
0000f0 00 00 00 00 00 00 00 00 00 00 00 00 00 00 00 00
       0.0 0.0 0.0 0.0
000100 00 00 00 00 00 00 00 00 00 00 00 00 00 00 00 00
       0.0 0.0 0.0 0.0
000110 00 00 00 00 00 00 00 00 00 00 00 00 00 00 00 00
       0.0 0.0 0.0 0.0
000120 00 00 00 00 00 00 00 00 00 00 00 00 00 00 00 00
       0.0 0.0 0.0 0.0
000130 00 00 00 00 00 00 00 00 00 00 00 00 00 00 00 00
       0.0 0.0 0.0 0.0
000140 00 00 00 00 00 00 00 00 00 00 00 00 00 00 00 00
       0.0 0.0 0.0 0.0
000150 00 00 00 00 00 00 00 00 00 00 00 00 00 00 00 00
       0.0 0.0 0.0 0.0
000160 00 00 00 00 00 00 00 00 00 00 00 00 00 00 00 00
       0.0 0.0 0.0 0.0
000170 00 00 00 00 00 00 00 00 00 00 00 00 00 00 00 00
       0.0 0.0 0.0 0.0
000180 00 00 00 00 00 00 00 00 00 00 00 00 00 00 00 00
       0.0 0.0 0.0 0.0
000190 00 00 00 00 00 00 00 00 00 00 00 00 00 00 00 00
       0.0 0.0 0.0 0.0
0001a0 00 00 00 00 00 00 00 00 00 00 00 00 00 00 00 00
       0.0 0.0 0.0 0.0
0001b0 00 00 00 00 00 00 00 00 00 00 00 00 00 00 00 00
       0.0 0.0 0.0 0.0
0001c0 00 00 00 00 00 00 00 00 00 00 00 00 00 00 00 00
       0.0 0.0 0.0 0.0
0001d0 00 00 00 00 00 00 00 00 00 00 00 00 00 00 00 00
       0.0 0.0 0.0 0.0
0001e0 00 00 00 00 00 00 00 00 00 00 00 00 00 00 00 00
       0.0 0.0 0.0 0.0
0001f0 00 00 00 00 00 00 00 00 00 00 00 00 00 00 00 00
       0.0 0.0 0.0 0.0
