dheera_v0.3.0/dheera_v3/checkpoints/dheera_20251224_055932_curiosity.pt (torch, 539982 bytes, 24 tensors)

0.weight f4 [128, 64]
000000 f8 12 de 3d 12 d1 c1 3d 28 c7 a1 3d 32 f0 d7 3d
       0.10843462 0.09463705 0.07899314 0.105438605
000010 66 84 2d 3d d2 b8 08 bd 22 37 ae 3d a8 1a ea bc
       0.042362593 -0.033379383 0.085066095 -0.028577164
000020 2a 31 2a 3d 26 2b 89 bd 5b 86 8f 3d 2e 6d d8 3d
       0.041550793 -0.06697683 0.07008048 0.105676994
000030 78 19 2c bc ac 44 ba bd 16 d2 24 3d ec 85 93 3d
       -0.010504119 -0.09095129 0.040239416 0.07203278
000040 ec ec 89 3d 52 bb 27 bd e2 90 c4 3c 30 3e e9 bb
       0.067346424 -0.040950127 0.023994867 -0.007118009
000050 60 0c 78 bd aa e7 b7 3d a6 e3 fa bd bb 92 6e 3d
       -0.060558677 0.08979733 -0.12250452 0.0582454
000060 2d 77 ae 3c 35 29 de 3d 35 28 42 3d a5 fa 07 bd
       0.021297062 0.10847703 0.047401626 -0.033198018
000070 f4 90 41 3d b1 26 d9 b9 6c fc c1 3d 81 c4 b3 3d
       0.04725738 -0.00041418293 0.09471974 0.087777145
000080 0a bc 3e bd 9a 5d 22 3d 0a 5e f2 3d 56 61 ed 3d
       -0.046566047 0.039640047 0.11834343 0.11590831
000090 4f 73 81 bb 46 33 59 3d a9 3a 98 3d 88 b3 b3 bd
       -0.0039505134 0.053027414 0.074330635 -0.08774477
0000a0 4a b3 f2 3d a8 d4 dd bd f0 ae 46 3d 9a 04 01 bc
       0.11850603 -0.108315766 0.048506677 -0.007874632
0000b0 61 9e b2 bd ce 26 c5 3d 0e 60 b3 bd 23 72 e0 bd
       -0.08721615 0.09626542 -0.08758555 -0.1095927
0000c0 9d 8b a1 3c 58 4d c7 bd c9 f5 8d 3d 52 7e ef 3d
       0.019719893 -0.09731549 0.069316454 0.116940156
0000d0 cc 7d 8a bd be 2d 57 bd 76 13 21 bd 12 19 65 3d
       -0.06762275 -0.052533858 -0.0393252 0.055932112
0000e0 bf 03 d1 bd de 50 4e bb 64 61 bb 3c ca 57 e8 bd
       -0.10205793 -0.0031481306 0.022873588 -0.113448694
0000f0 02 91 1f 3d be f4 9b bd f1 b9 9c 3b 20 12 8c 3d
       0.03895665 -0.0761504 0.004782908 0.068393946
000100 ea a3 25 3d 85 55 d3 bc b5 25 cd bd d0 90 e0 3d
       0.040439524 -0.025797615 -0.10016958 0.10965121
000110 3b fe 7f bd a5 10 10 3d e7 2b 10 3d 65 a5 fa 3d
       -0.062498312 0.035172123 0.03519812 0.12238578
000120 be 1b 90 3d 33 f7 d8 bd bd ea ad bc 65 02 50 3d
       0.070365414 -0.105940245 -0.021230096 0.050783534
000130 2f 08 f3 bd 4a 84 ca bc cc 7a 59 bc 76 f5 cc 3d
       -0.11866795 -0.024721283 -0.013273906 0.100077555
000140 87 8f 0e 3d b3 a7 ba 3d 01 8a e5 3d ea e3 85 3d
       0.034804847 0.09114017 0.11207963 0.06537612
000150 24 70 b4 3d 78 f9 fa 3d 54 4e 9d bd 97 97 0c 3b
       0.088104516 0.12254614 -0.076809555 0.002145266
000160 aa 30 37 bd 7b c9 ac bb 25 fe 15 bd a1 2f 66 3d
       -0.044724144 -0.005273042 -0.036619324 0.056197766
000170 a9 82 f7 3d 15 5c e3 3c ee 00 c4 bc f1 dd c0 3d
       0.12085468 0.02775387 -0.023926225 0.09417332
000180 41 d9 89 3c d8 30 f2 bd c4 96 81 3d 80 98 24 3d
       0.016827228 -0.118257225 0.063275844 0.040184498
000190 8a a8 33 ba 7e f9 ee bd 79 c8 05 3d 54 8b f7 bc
       -0.00068534224 -0.116686806 0.03266189 -0.030217804
0001a0 fc b1 87 bd 10 b2 d7 bd 5d df dd 3d 41 98 bc 3b
       -0.06625745 -0.105320096 0.10833619 0.005755455
0001b0 cf 89 f4 3d 30 c2 99 bd bb 59 c3 bd b4 56 d1 3d
       0.119403474 -0.075077415 -0.09538599 0.102216154
0001c0 4a 7b 82 bc 51 6c 03 3d 5e ee 24 3c 52 c2 a3 3c
       -0.01592793 0.03208572 0.010066597 0.01999012
0001d0 a6 a9 db 3d f0 38 62 3d 31 8e ae 3d c8 2c 34 3d
       0.10725717 0.05523008 0.085232146 0.04398802
0001e0 3c 18 9b bb 82 5d c3 3d 1c 73 48 bd 5c 8d 1e 3d
       -0.0047331136 0.095393196 -0.0489379 0.03870903
0001f0 f4 33 95 3d 80 76 07 bd 39 c5 ec 3c c7 24 c6 bc
       0.072853 -0.033071995 0.028902637 -0.024187459
000200 90 a0 09 bd 90 1c d3 bd 59 68 cc bd de 7e 7f bd
       -0.03360039 -0.10308182 -0.0998084 -0.06237685
000210 88 55 9c 3d 9d b9 f6 bd 90 26 62 3d f3 91 8f ba
       0.07633501 -0.12047122 0.055212557 -0.001095353
000220 cb 85 f2 bd ca 36 f8 3b de 68 2f 3c d6 57 6b bd
       -0.11841925 0.0075748907 0.010706155 -0.057456814
000230 1b 28 e8 bd a5 e2 c8 3d 07 b0 b0 bd 08 0c f5 3c
       -0.113357745 0.09808854 -0.086273246 0.029912964
000240 27 fc 02 bd 8d 7c ae 3d a5 cd a8 bd 59 ba b1 3d
       -0.031978752 0.0851985 -0.082423486 0.08678121
000250 45 d5 16 bd 3a ce a4 bd 9e e1 d9 bd 4a f7 19 bc
       -0.036824483 -0.08047147 -0.10638736 -0.009397337
000260 bd 62 3f 3d 12 32 e4 3d f2 c3 eb bd 98 c6 02 bc
       0.046725024 0.11142363 -0.11511983 -0.007981919
000270 4c 3c 69 3d da 73 ed 3d c1 46 a7 bd fd 45 34 bd
       0.05694227 0.115943626 -0.08167792 -0.04401206
000280 24 45 0f bd d0 21 c1 bd b3 19 e9 bd 54 7e 87 bc
       -0.034978047 -0.09430277 -0.11381855 -0.01653973
000290 8d 55 a6 bd d5 56 95 3d 3d 14 d7 bb 88 b4 1b bd
       -0.08121786 0.072919525 -0.006563692 -0.038013965
0002a0 2c b2 84 bb 7b f2 8f bd 2d 83 c8 3c 06 de df 3d
       -0.00404956 -0.07028671 0.024476612 0.109310195
0002b0 b1 1b 55 bd c4 03 94 3c fe 7a fa bd bd 3e c5 bd
       -0.05202836 0.018068202 -0.1223049 -0.09631107
0002c0 cd a0 f1 3d f5 d1 95 bd 90 a2 56 3d 3f aa b0 3d
       0.117982484 -0.07315437 0.052401125 0.08626222
0002d0 25 d8 92 bd 87 c2 b3 bd 7e 47 aa bd e8 a9 ad 3a
       -0.071701325 -0.087773375 -0.08314417 0.0013249489
0002e0 b1 a8 da 3d 4c 9b c8 bc 75 e6 40 3d d3 94 9c bd
       0.106767066 -0.024488114 0.04709478 -0.076455735
0002f0 07 ec ba 3d ed 46 c4 bd df 4d 3e bd 45 0d 7e 3d
       0.0912705 -0.095838405 -0.046460982 0.062024374
000300 cc 0a 5f 3d 2d b7 14 3a 38 06 57 3d 88 95 2b bd
       0.054453656 0.0005673047 0.052496165 -0.04189065
000310 80 2c c2 3d 36 4c 6c bd 96 59 cf 3d ec f1 14 bd
       0.09481144 -0.057689868 0.10124509 -0.036363527
000320 6a d3 40 bd f6 e5 ca 3d 56 6e b9 3c b1 3a 00 3d
       -0.04707662 0.09907143 0.02263562 0.031305972
000330 d2 4d 48 bd bc b6 1f 3c 91 77 f5 bd 6d 41 a0 3d
       -0.04890234 0.009748157 -0.11985696 0.07824979
000340 52 25 4f bd 21 c1 94 3d 6c 8c 7f 3d 79 d5 a2 3d
       -0.0505727 0.07263399 0.062389776 0.07950873
000350 82 4b 31 bd e4 e0 1e ba e7 c7 41 3b 02 f3 35 bd
       -0.0432849 -0.0006060733 0.0029568614 -0.044421203
000360 28 86 c6 3c 46 40 1b bb 59 e2 83 3c 84 2f f4 3c
       0.024233893 -0.0023689433 0.016099142 0.029807813
000370 8b cb 49 bc 0b 93 fd 3d 5b db cc 3c 5a 8a 97 bd
       -0.012316595 0.12381562 0.02500694 -0.07399435
000380 aa 84 66 3c f3 be c2 3d cf 79 76 bd 82 3c b9 bd
       0.0140697155 0.09509077 -0.06017476 -0.09044744
000390 1b ea 1c 3d 50 d7 7d bd 0b 4c 84 3b e6 36 a2 3d
       0.038309198 -0.061972916 0.0040373853 0.07920627
0003a0 93 9a 1b 3d 83 f2 67 3d 1c cd e0 3c 16 9f e8 bd
       0.03798921 0.05662776 0.027441554 -0.11358468
0003b0 50 ae 7f 3d 00 08 33 bb 33 5b 6a 3b 7d a2 f2 bd
       0.062422097 -0.0027318 0.0035759925 -0.118473984
0003c0 28 27 83 3d b7 56 e6 bd 57 7d 7d 3d 53 e5 d2 bd
       0.06403953 -0.11247008 0.06188711 -0.102976464
0003d0 60 bd ff bc 6c 02 0a bd 8b 8b d4 3d 74 d6 b2 3d
       -0.03121823 -0.033693716 0.10378178 0.0873231
0003e0 e8 0d a5 3d e0 10 fd bd 10 43 57 bd e0 00 c4 3d
       0.08059293 -0.12356734 -0.05255419 0.095704794
0003f0 c0 fe cd bb bc 9a 2e 3d 88 1a 2a bd 18 b6 07 bd
       -0.006286472 0.042628035 -0.04152921 -0.033132643

0.bias f4 [128]
000000 ab 73 b1 3d 4c 83 dc bd 41 39 e7 3d be 09 9b 3d
       0.0866464 -0.107672304 0.11290217 0.075702175
000010 bd 0f 32 3d 35 85 75 bd a7 b9 7b 3d 21 7a 43 3d
       0.04347204 -0.05994149 0.06145635 0.047723893
000020 2f b2 d3 3b fb 48 5d 3d 51 1a ee 3b d6 5e 9b bd
       0.00646045 0.054024678 0.0072663208 -0.07586448
000030 7d d8 07 bd 8a af 4f bc 3a c2 61 3b 12 ee 83 3d
       -0.033165444 -0.012676129 0.0034448043 0.06441893
000040 f7 84 23 3d 2a 07 c0 3d 30 cd 37 3c fe bc 15 3c
       0.039921727 0.093763664 0.011218354 0.0091392975
000050 b8 a9 84 3d 40 9c da 3c 46 82 a0 3d f7 5b c1 bd
       0.06477684 0.026685834 0.07837348 -0.09441369
000060 92 6a e4 bc b9 14 db 3c c8 c7 96 bd b7 8a 8c bd
       -0.027882848 0.02674328 -0.07362324 -0.06862395
000070 d5 52 b6 3d 69 4c e7 3c 8a 59 a1 3d ef cb 97 ba
       0.08902518 0.028234677 0.07878406 -0.0011581163
000080 7a 8e 87 3d 4c a4 49 bd ea 20 7a 3d 1f 29 b1 bd
       0.06618972 -0.04922895 0.061066546 -0.08650421
000090 50 fc a3 3d ae 6d f1 3d 99 b5 f6 3d f1 00 43 3d
       0.08007109 0.11788498 0.12046356 0.04760832
0000a0 29 6b a3 3d d3 5c c7 bd be 53 cd bd 6d f4 16 bd
       0.079794236 -0.09734502 -0.10025738 -0.036854196
0000b0 38 79 2b 3d 30 4d 66 3d 7e f0 2b 3d 6b b7 9a 3c
       0.04186365 0.056225955 0.041977398 0.018886289
0000c0 2b c7 36 bd a3 54 5e bd 22 b1 83 bc 76 e4 d5 bd
       -0.044623535 -0.054279935 -0.016075674 -0.10443966
0000d0 f7 c0 b5 3d dd 16 66 bd 16 bb cc bc 60 7f ad bd
       0.08874696 -0.056174148 -0.024991553 -0.084715605
0000e0 8c 55 80 bd b1 75 87 3d 57 52 3b bd 10 0e 8f bd
       -0.06266317 0.06614245 -0.045732822 -0.06985104
0000f0 3a 16 8b bc aa 58 2a bd 22 ea fa 3d 04 3e f6 bb
       -0.016978372 -0.041588463 0.122516885 -0.007514717
000100 af 9c 5c 3d d7 47 9f bd 12 25 82 3c f9 c1 c7 3d
       0.053860363 -0.07777374 0.015886817 0.09753794
000110 d7 e1 6d 3c 89 0e e9 3c 83 a8 c5 3d 93 22 de bd
       0.014519176 0.028449314 0.09651282 -0.10846438
000120 fb 41 a3 3d fc 14 cf 3d eb fd 11 3d cc 09 db 3d
       0.07971569 0.10111424 0.035642546 0.10695228
000130 d0 a7 0d bd 88 cf 95 bd 3c e3 cd 3d 1e 4f 42 bd
       -0.034583867 -0.07314974 0.10053107 -0.047438733
000140 c6 83 dd bd 41 36 fe bd 1a 01 14 3c 62 59 f8 3c
       -0.108161494 -0.12412692 0.009033466 0.030316059
000150 b4 d2 72 3d be 5a d1 bd 3f 16 7c 3d 7e 47 06 3d
       0.059282973 -0.10222386 0.061544653 0.032783024
000160 39 f1 ca bd c1 69 ce 3d f7 4f d2 bd cf e0 ad 3c
       -0.09909291 0.10078765 -0.10269158 0.021225361
000170 61 9c 92 bd 16 87 c5 3d 46 ea f2 3c 36 2f 00 3e
       -0.07158733 0.09644906 0.029652726 0.1251801
000180 65 3d ec 3d 05 a8 d8 bd e8 76 e4 bd 8f a3 0d bd
       0.115351476 -0.10578922 -0.11155492 -0.03457981
000190 75 c7 b6 3d 0a e6 9a 3c 63 65 2e 3d b4 41 d6 bd
       0.08924762 0.01890852 0.04257716 -0.104617506
0001a0 02 a9 2d 3d cc f4 90 bb e8 cb 49 3d ca 05 fe bd
       0.042397507 -0.0044237133 0.049266726 -0.12403448
0001b0 99 44 83 3d 39 1f 0c bc 7b 85 c2 3c b1 5d b2 bd
       0.06409568 -0.008552366 0.02374529 -0.087092765
0001c0 43 7c 48 3d 82 03 83 bd b5 07 02 3d 57 1b e9 bc
       0.04894663 -0.063971534 0.03174563 -0.02845542
0001d0 5b 12 97 bd 11 78 81 bc c8 2b ba 3d a1 bc 1d 3d
       -0.07376548 -0.015804322 0.09090382 0.03850997
0001e0 c7 e2 74 3d fc 70 7a 3c 36 1e 6c 3d e1 af ed 3d
       0.059786584 0.015285727 0.057646 0.11605812
0001f0 ef 48 4e 3d 0a c6 f7 3c b9 8b 91 3d 54 14 49 3d
       0.050362524 0.0302458 0.07106728 0.049091652

2.weight f4 [128, 128]
000000 af 21 3c bb 8b 75 68 3c d3 58 b1 3d 3c 9f 9e bd
       -0.00287066 0.014188181 0.0865952 -0.07745215
000010 36 ac 28 3d b3 39 2f 3d b6 7c 7c 3d 2e 8f 9f bd
       0.04117986 0.042779636 0.06164237 -0.07790981
000020 9b ab 2a bc 0e 89 2e bd d4 d6 c2 3c 3b ac 24 bd
       -0.0104168905 -0.042611174 0.023784079 -0.040203314
000030 af f7 96 3a a8 21 95 3d 0b e5 65 3c 76 2d df 3c
       0.0011517907 0.0728181 0.014031659 0.027243357
000040 ad 9b 15 3d 2e 81 00 bd e6 6d 9e 3d 68 0c b8 bc
       0.036525417 -0.031373195 0.07735805 -0.022466853
000050 ec 54 53 bd de 3f c9 bb 00 87 32 3c 8f cf fd 3c
       -0.05159466 -0.0061416468 0.010896444 0.03098276
000060 19 ea 11 bd 04 9d 8f 3d 0e 92 a1 3c 6c 69 5c bd
       -0.035623644 0.0701237 0.019722965 -0.053811476
000070 fc c0 65 3b b5 0c 3d 3d b4 09 00 bd b7 9f 3f 3c
       0.0035057655 0.046154696 -0.031259254 0.011695794
000080 20 dd ac 3d 0f 88 55 3c 1d 0f 9d bd 91 50 a3 3c
       0.08440614 0.013032927 -0.07668898 0.019935878
000090 3d d4 41 bd eb df 4c 3d 24 e1 92 bd 8b d0 25 bd
       -0.047321547 0.050018232 -0.071718484 -0.040482085
0000a0 51 54 5d 3d 67 2b 6c bd e6 03 6f 3b 7a 7d 86 bd
       0.05403549 -0.05765858 0.003647083 -0.065669015
0000b0 1d 79 a3 bd 34 17 a9 3d f2 2b b3 bd e6 44 35 3d
       -0.07982085 0.08256379 -0.08748616 0.04425516
0000c0 77 5a 04 3d 67 ea 8a bd cd e4 14 3d e6 75 ed 3c
       0.032312836 -0.0678299 0.036351014 0.028986882
0000d0 ad 14 4d 3d a0 c0 39 bb ff b0 3a bd 05 0e 4c bc
       0.050068546 -0.0028343573 -0.045578953 -0.012454514
0000e0 36 c7 bf 3c ca ae aa bd 43 86 cf 3c c7 99 e4 bc
       0.02341042 -0.083341196 0.025332576 -0.027905358
0000f0 d1 cf 31 bd 83 2f 9f bc 87 fb 8e 3d a2 0c 84 3b
       -0.04341108 -0.019431835 0.06981569 0.0040298263
000100 15 b5 f4 bb d5 07 91 3d 41 43 2a 3d 69 1d 1c bb
       -0.0074678757 0.07081572 0.041568045 -0.002382124
000110 9e 15 ea 3a 11 65 72 3d 5c 38 a0 bd 54 84 60 bd
       0.0017859226 0.059178416 -0.0782325 -0.054813698
000120 1f 90 7a bd 02 b1 84 bd 0b 19 8e bc 25 1a fe bc
       -0.0611726 -0.06479074 -0.017345926 -0.031018326
000130 5d 52 29 3d f5 66 12 bd d1 fb 1d bd 2e 06 aa 3d
       0.041338313 -0.03574272 -0.03857023 0.0830196
000140 ab 40 86 3d ce 02 6d 3d 8e 41 8d 3d c1 e3 92 3d
       0.06555303 0.057864003 0.06897269 0.07172347
000150 d9 30 e3 3b 00 67 a4 bd 7a 32 78 bd dc 48 29 bd
       0.0069333133 -0.08027458 -0.060595013 -0.04132925
000160 44 db a9 bd 75 dd 75 bd 41 fa 0c 3d 11 81 b2 bd
       -0.08293775 -0.06002565 0.03441835 -0.08716024
000170 58 35 8b bd 19 46 65 bd b9 12 b1 bb 41 3e ef bc
       -0.06797284 -0.055975053 -0.0054038432 -0.02920449
000180 f2 8e af 3d 8b 56 b0 bd 0c 90 d5 bc a0 be 35 bd
       0.085721865 -0.08610257 -0.026069663 -0.044371247
000190 de 68 9a bd 1b 77 ef bc b0 3e dd bc 0d 9f 6f 3a
       -0.07539533 -0.029231599 -0.02700743 0.0009140827
0001a0 cf 59 eb 3b 85 fb aa bd 42 e1 af 3c 5c 3c 82 bd
       0.007182337 -0.08348755 0.021469716 -0.06359169
0001b0 b5 b0 2e bb 7b 04 10 bd 6d f3 02 3d be 88 50 bd
       -0.0026655619 -0.035160523 0.03197043 -0.050911658
0001c0 dd bf ab bc 5f 30 7e 3d 5e a7 66 3d c5 49 28 bd
       -0.020965511 0.06205785 0.056311958 -0.041085977
0001d0 92 46 a8 bd 72 67 9e 3d b5 c6 3b bd 70 57 c1 3c
       -0.08216585 0.077345744 -0.0458438 0.023601264
0001e0 b1 64 3e 3d 8b b7 f5 3c 65 ce 86 bc 3b 77 8c 3d
       0.046482746 0.029994747 -0.016455838 0.06858679
0001f0 85 f9 21 bd ef ff 2c bd 6d 53 34 bd 7e 02 67 bd
       -0.0395446 -0.042236265 -0.044024874 -0.05639886
000200 b8 3c 7a 3d f2 90 01 3d 51 72 ad 3d 60 cf 48 bd
       0.061093062 0.03163237 0.0846907 -0.049025893
000210 2f 0c ca bc 81 50 a0 3d 02 4d 65 3d 0f d2 9c 3d
       -0.024664013 0.07827855 0.055981643 0.07657253
000220 b3 74 a0 3c ab 05 92 bc 5e 69 6c bc 3c cf 82 bd
       0.019586897 -0.017824968 -0.014429418 -0.06387183
000230 57 bb 51 bd 76 42 66 bd 5b 0d 02 3b 22 ee 92 bd
       -0.05120405 -0.056215726 0.0019844386 -0.071743265
000240 77 da c3 bc 0a ad ac 3d 39 61 a3 bd 8c c7 97 bc
       -0.023907883 0.08431442 -0.07977528 -0.018527769
000250 52 48 a9 bd a5 91 15 bd e7 bd 40 bc 01 9d 0f 3d
       -0.08265747 -0.03651585 -0.011764026 0.03506184
000260 7f 62 e1 3c 0b 57 52 3d 04 c7 9b 3d e7 a9 8d 3d
       0.027512787 0.051352542 0.076063186 0.06917172
000270 eb b7 80 3d e1 2b 8a bb 6e 48 ae 3d 88 0f 82 3c
       0.062850796 -0.0042166566 0.085099086 0.015876547
000280 b3 3b 67 bd 07 77 a5 bd 30 74 6f bc a7 9e be bc
       -0.056453418 -0.08079343 -0.014615104 -0.02326901
000290 8a ac 89 bd dc 89 79 bb 3e 2c 9c bc 30 f5 e6 bb
       -0.06722362 -0.0038076555 -0.019064065 -0.0070482716
0002a0 cd 7b 84 3c a0 74 c6 3c 2e 42 77 bd f2 57 96 bd
       0.016172314 0.024225533 -0.06036585 -0.07340993
0002b0 ab 2c 1a 3d c3 62 57 3d 7b 5b aa 3c 40 4a 0f bc
       0.037640255 0.05258442 0.020795574 -0.00874573
0002c0 4b c1 4e bd d1 a1 e2 3c 2d 19 ab bb 64 02 3d 3b
       -0.050477307 0.02766505 -0.005221507 0.0028840536
0002d0 d1 00 91 bc df 7b 96 bd 63 b1 a1 3d 96 ec cf bc
       -0.017700585 -0.07347845 0.07895162 -0.025381368
0002e0 22 1d 24 3d 2b 77 f1 bc 26 c6 3b bd 51 e0 15 3d
       0.040066846 -0.029475769 -0.045843266 0.036590878
0002f0 2a 30 3c bd d5 11 93 3d 12 bb fc 3c 9a 0d a6 3d
       -0.04594437 0.071811356 0.03085092 0.08108063
000300 f6 70 4e 3d 78 b1 a9 bd 80 6e 63 3d b6 f0 50 bb
       0.050400697 -0.082858026 0.055525303 -0.0031881756
000310 3c f9 e7 bb 05 08 a2 bd 61 a8 9b 3c 84 d1 26 bd
       -0.0070792716 -0.07911686 0.019001188 -0.040727153
000320 c4 31 62 bc fb 0a 18 bd f1 b7 b2 3b 06 95 6c 3d
       -0.01380581 -0.037119847 0.0054540564 0.057759307
000330 5f 87 48 bc c0 1c 6b 3b 67 52 d5 3b d1 3a 82 bc
       -0.012239306 0.003587529 0.0065100673 -0.015897186
000340 5c c6 ad bd cd cd 02 3d 66 eb d1 3c 66 e4 9d bd
       -0.084851 0.03193455 0.025624942 -0.07709579
000350 15 aa 53 3d 3d 10 af bd 9e 5b 98 bd b4 e9 84 3d
       0.051675875 -0.08548019 -0.074393496 0.06489888
000360 24 c5 16 3c d6 25 94 3d 89 21 86 3d c9 1a 7d 3c
       0.009202275 0.07233779 0.06549365 0.015448281
000370 49 91 33 3c 5e 2d 07 3c aa 19 9c 3d 86 38 91 3d
       0.010959932 0.0082505625 0.076220825 0.07090859
000380 6a 3d 97 bd c5 1e 45 bd 2d 32 a3 bc 8b b2 ed 3c
       -0.07384761 -0.048125047 -0.019921387 0.0290158
000390 31 00 8d 3c 36 64 04 3d 10 a5 9c bd 02 f3 93 3d
       0.017212005 0.03232213 -0.07648671 0.072240844
0003a0 ee 6f 9d bd 96 fd 87 bb a6 ef 94 bd b6 b9 37 3d
       -0.076873645 -0.004150103 -0.07272272 0.044854842
0003b0 33 23 64 bc 5d 95 9d bd 44 6e 19 3d 40 73 62 bd
       -0.013924408 -0.076945044 0.037458673 -0.055285692
0003c0 cb 2f 6c 39 e7 52 96 bd 99 f2 1c 3d 06 f5 8e bd
       0.00022524518 -0.07340031 0.038317297 -0.06980328
0003d0 4f 8c ea 3c b9 90 9e bd f0 96 f6 bc 98 db 78 3c
       0.028631357 -0.077424474 -0.03010127 0.015189074
0003e0 63 8f ae 3d 67 17 aa 3c 06 b3 dc bc 4a 41 69 bd
       0.085234426 0.020763112 -0.026940834 -0.05694703
0003f0 00 e7 81 39 6a 4f 00 bd d6 63 1d bc 92 3d 73 3d
       0.00024776906 -0.031325735 -0.009606322 0.05938489

2.bias f4 [128]
000000 c8 99 4e bd 7f 4c 15 bd c6 a9 86 3c 0f 69 8b bd
       -0.050439626 -0.036449905 0.016438376 -0.06807148
000010 31 60 86 bb 99 61 db 3c 86 3c d3 bc f1 4f 50 bd
       -0.0041008224 0.026779937 -0.025785696 -0.050857488
000020 ff 2c 12 bd 3c ed 82 bd f1 40 55 3d bb bf 95 bd
       -0.035687443 -0.06392905 0.052063886 -0.0731196
000030 32 d7 10 bd c0 63 a6 3d f1 21 3a 3c e8 78 50 bd
       -0.035361476 0.081244946 0.011360631 -0.050896555
000040 e0 76 3c bc c5 94 31 3d b6 c0 78 bd 0d 95 7f 3c
       -0.011502951 0.04335477 -0.06073066 0.015599501
000050 ff f2 c0 3b 66 5b ae bd 74 cf 74 bd a3 e3 38 3d
       0.0058883424 -0.085135266 -0.059768155 0.045138966
000060 f4 2e ac 3d 1a 01 42 bd f7 d7 8a bd f1 f1 04 bd
       0.08407393 -0.04736433 -0.06779473 -0.032457296
000070 3d 9f a7 bd 41 d9 82 bd b8 bd 86 3d 3b 47 4c bd
       -0.08184669 -0.06389094 0.06579155 -0.04987262
000080 91 d7 1c bd 50 ed 3b bc 70 cd a4 3c 4e d6 17 bc
       -0.038291518 -0.011470154 0.020117491 -0.009267403
000090 77 03 d7 3c 3e 04 2e 3d 47 60 43 bd 3f 30 9c bd
       0.02624677 0.042484514 -0.04769924 -0.0762639
0000a0 d9 05 50 bd ef fc e6 bc 7c 52 69 3d 22 e4 6d bd
       -0.050786827 -0.02819678 0.05696343 -0.058078893
0000b0 80 f0 25 bc 26 61 7a 3d f6 40 9d 3d 6b cb a6 3d
       -0.01012814 0.061127804 0.07678406 0.08144268
0000c0 51 b8 23 bd d2 f4 9f bd ed 3e b5 3c 62 92 b5 3d
       -0.0399707 -0.07810368 0.022124732 0.08865811
0000d0 d0 7a ac bd 8c 8c 8b 3d bf d0 38 3c 8f 25 33 bd
       -0.08421862 0.068139166 0.011280238 -0.04373699
0000e0 86 44 95 bd 1b 5d 91 3d a4 44 a3 3c 52 e2 7e bd
       -0.072884604 0.070978366 0.019930191 -0.062227555
0000f0 6d 26 f8 3c bc 70 59 bd 53 45 50 3d 7a 68 c5 bc
       0.03029176 -0.053086028 0.050847363 -0.02409767
000100 1e af a4 3d 2f 94 30 bd e9 ff 41 bd f2 15 4f 3d
       0.080412135 -0.04311007 -0.047363196 0.050558038
000110 41 4e e5 bc a3 ba aa bc 90 f3 8c bc bb 0d 23 3d
       -0.027991416 -0.020840948 -0.017205983 0.039808016
000120 4c d4 7d 3d c2 85 31 3d 6b 7b 9a 3d 04 2e 05 3d
       0.06197004 0.043340452 0.07543071 0.032514587
000130 2e 4f 03 bd 30 2f 69 3d 50 cb aa bd 1a 3d ee 3b
       -0.032057934 0.056929767 -0.0833956 0.0072704675
000140 49 9d 32 bd 74 8d 3d 3d 73 0b 6b 3b 03 6c 02 3d
       -0.04360703 0.04627748 0.0035864979 0.03184129
000150 4d dd a7 bd 6b 36 44 3d 79 be 56 b9 ee d0 5d 3d
       -0.08196507 0.04790346 -0.00020479587 0.05415433
000160 a0 ae c1 3c 60 72 d5 bb 0f a0 a3 bd 4c 7e 8c 3d
       0.023642838 -0.0065138787 -0.07989513 0.06860027
000170 7d da 2b 3d 4d 73 8f bc 68 e8 84 3c 49 ff cb 3b
       0.041956414 -0.017511034 0.016224101 0.0062255007
000180 72 d7 af bd f0 b2 5b 3d 0f 8f b4 3d 14 d8 49 bd
       -0.08586015 0.053637445 0.08816349 -0.049278334
000190 08 59 3d bd 77 17 25 bc 54 47 64 3d 18 a4 9e bd
       -0.046227485 -0.010076395 0.055732086 -0.07746142
0001a0 18 e6 b2 bd 2e 72 61 3d 8b af 4f 3c 12 a1 a9 bd
       -0.08735293 0.05504053 0.01267613 -0.08282675
0001b0 01 fa 68 3d 52 b8 7e bd c1 2a 1a 3d 7a ef 24 bd
       0.056879047 -0.0621875 0.03763843 -0.040267445
0001c0 d0 6b 85 bd 2b c8 bc b9 21 57 83 bd 2c 1a 61 3d
       -0.06514704 -0.0003600729 -0.06413103 0.0549566
0001d0 76 29 39 3d 15 a1 a7 bd 16 0e 65 3c 36 a3 96 3d
       0.045205556 -0.08185021 0.013980409 0.07355349
0001e0 c5 d4 0a 3c 76 0b 42 3d 4e 39 27 b8 f1 a3 78 bc
       0.00847358 0.04737421 -3.9869272e-05 -0.015175805
0001f0 ff 23 89 3d 58 df a4 3d c1 0b a5 3d ab 79 2a bb
       0.06696319 0.08050412 0.080588825 -0.0026012461

4.weight f4 [64, 128]
000000 df 12 a1 3d 28 3d ac 3d 27 3c 09 bd a8 20 9b bc
       0.078649275 0.08410102 -0.03350463 -0.01893647
000010 93 f6 04 3d ea 34 bc 3c b2 21 9d bd 19 c8 1b 3d
       0.032461714 0.02297445 -0.076724425 0.038032625
000020 1a 6c be 3c ab d4 8d bc 85 47 41 3d 52 17 7f bd
       0.023244906 -0.017313322 0.047187347 -0.0622781
000030 9b eb df bc ab 63 2f 3b 30 5e 80 3d 58 fe a3 3c
       -0.027334025 0.0026762288 0.06267965 0.020018741
000040 45 f6 ad bd 49 15 70 3d 67 1f 3b 3d 67 f1 52 3b
       -0.08494238 0.05861405 0.045684244 0.0032187344
000050 c6 df 26 3d e6 45 95 bd 50 e6 b1 3d de 99 81 3c
       0.04074075 -0.07288723 0.08686507 0.01582044
000060 6d 56 ad ba a8 3b 96 bd 42 8b 96 3d 09 1b d7 bc
       -0.001322461 -0.07335597 0.0735078 -0.026258009
000070 5a f5 d6 bc 3f 09 88 bd cd b4 6c 3c 4e f8 62 bd
       -0.02624004 -0.066423886 0.014447403 -0.055412583
000080 e5 f6 e4 3c cc 96 93 bd ae 9a 4e 3c 38 82 5f 3c
       0.02794976 -0.072064966 0.012610121 0.013641886
000090 07 f9 8f bc 7b f1 ad bd 4c 0c 60 3d 74 51 da bc
       -0.0175748 -0.08493324 0.054699227 -0.026650168
0000a0 ae 9b 3f 3d bb 19 47 3d f4 47 9b bd b3 f8 6e 3d
       0.046779327 0.048608523 -0.07582083 0.058342647
0000b0 91 6a b2 3d 8a 4f 67 bd 7e 8d 89 bd 0b 16 af bd
       0.08711732 -0.05647234 -0.067164406 -0.08549126
0000c0 9b 6c 27 3d f2 01 27 3d da e2 af 3d a7 9b b9 bb
       0.04087506 0.04077334 0.085881904 -0.005664307
0000d0 de e4 8f 3b bb 1a dd bc 7a 9f a7 bd b6 1f b1 bd
       0.0043912968 -0.026990285 -0.081847146 -0.086486265
0000e0 62 b2 e6 bc f4 05 e7 bc 3c ce a5 bd 1b 4f aa 3d
       -0.028161231 -0.02820108 -0.08095977 0.083158694
0000f0 61 76 c9 bc a8 24 72 bd 1e b6 19 3c 29 91 48 bc
       -0.02459258 -0.05911699 0.009381799 -0.01224164
000100 73 c4 9a bd 0f c7 51 3d 9c 19 8e 3c 3a 95 3f bd
       -0.07557001 0.051215228 0.017346196 -0.046773173
000110 2c 91 0b ba 96 b9 a3 bd 8d a5 b9 3c b4 c6 e6 3c
       -0.00053240615 -0.07994382 0.022661949 0.02817092
000120 e5 11 13 3c bc 4b b5 bc 87 b8 28 bd bf 48 6e 3d
       0.008976434 -0.02213084 -0.041191604 0.058174845
000130 10 b8 3d 3d 39 ae ae bc 44 85 1e 3b 2f 54 7c bc
       0.046318114 -0.02132331 0.002418832 -0.01540093
000140 a7 64 06 3d 32 4d cc 3c fc 76 8f bc a3 a2 ac 3d
       0.032810833 0.024939153 -0.01751279 0.08429458
000150 c6 f3 5d 3b bc 75 04 3d 04 0b 2b bd 7f fc a2 bc
       0.0033867224 0.032338843 -0.041758552 -0.01989579
000160 82 39 06 bc 68 11 0b 3c b2 0c 84 3a 9e e3 4d bb
       -0.008192422 0.008488037 0.0010074584 -0.0031416188
000170 42 59 01 bd e0 fd 76 3d e3 44 50 bd d6 f8 a8 3d
       -0.031579264 0.060300708 -0.050846945 0.08250587
000180 5e b4 8f 3b 7e 95 7d 3c 03 82 18 bd ee 1d 16 3d
       0.004385515 0.015477536 -0.037233364 0.036649637
000190 53 c5 b1 bc ac bb 6d bd ff 95 8e 3d e0 d2 90 3c
       -0.021700537 -0.058040306 0.06962203 0.017678678
0001a0 b4 05 03 bd b7 48 af 3d 2b e5 8b bd e7 04 93 bd
       -0.03198786 0.08558791 -0.0683082 -0.071786694
0001b0 02 35 ab bd 01 48 92 3d be 92 6c 3d 84 3e ab bc
       -0.0835972 0.0714264 0.05775713 -0.020903833
0001c0 c0 e5 90 bd 1e 64 98 3c 9c a7 4d 3d 3c 5b 14 bd
       -0.07075071 0.018602427 0.050208673 -0.03621982
0001d0 df 01 a0 3d 11 f9 4b 3d fa 7e 19 3d b8 77 01 3c
       0.07812857 0.049798075 0.03747461 0.007902078
0001e0 3a 9e ef bc 90 1f 89 bd e5 42 43 3d 74 e9 16 3b
       -0.029250253 -0.06695473 0.047671217 0.0023027332
0001f0 70 7f f9 3c 22 25 4b bd 7d 6d a5 3d 35 5c 7a 3d
       0.030456275 -0.04959596 0.08077524 0.06112309
000200 ec c2 50 3d fd 5a 51 3d 41 90 60 3d 32 76 7c 3d
       0.050967142 0.051112164 0.05482507 0.061636157
000210 b6 c7 f8 ba 48 fb 59 bd 0c 1d a7 bd 04 bd c7 3c
       -0.0018980417 -0.053218156 -0.08159837 0.024382122
000220 b2 58 12 3d 82 f9 45 bd 83 84 97 3c 33 92 5b 3d
       0.035729118 -0.048333652 0.018495804 0.053606223
000230 c5 7c 9f bd 0a c6 9f 3c cf 37 b4 3d 89 7d d0 bc
       -0.0778747 0.019503612 0.08799707 -0.025450485
000240 4b fa 09 bd d0 26 36 bd 72 ed ad 3c b4 84 d8 bc
       -0.033685964 -0.04447061 0.021231387 -0.026430465
000250 e8 03 29 3d c0 5c 8c 3d f5 b1 50 3d f0 3d af bb
       0.04126349 0.06853628 0.050950963 -0.0053479597
000260 a8 fa bc bb 2b 2d 99 bc 42 85 33 bd 9e 95 ce 3a
       -0.0057671852 -0.018698296 -0.043828256 0.0015761142
000270 0c c4 8b bd 08 98 96 3d 02 e6 b1 bc 4a a5 cc 3c
       -0.06824502 0.073532164 -0.021716122 0.02498116
000280 f9 b2 a8 3d 65 e6 b3 bc ec 03 3f bd 18 5f 89 bc
       0.08237261 -0.021960447 -0.0466346 -0.016768977
000290 81 52 17 3d 04 df b6 3c 49 c0 dc bc 4f 2d 2b bd
       0.036943916 0.022323139 -0.026947157 -0.041791257
0002a0 04 b0 e7 bc bc 20 44 3b f0 26 97 3d e9 9c 5b bd
       -0.028282173 0.0029926738 0.073804736 -0.053616438
0002b0 80 04 dc bb a8 6f 6a bd c6 75 f1 bc e6 ae 25 bd
       -0.0067144036 -0.05723539 -0.029475104 -0.04045
0002c0 b1 d8 01 3d 50 45 db 3b 45 3c 89 3d 9f ba a0 bd
       0.031700794 0.0066916123 0.067009486 -0.07848095
0002d0 31 ab 11 bd 90 11 12 bd 73 61 05 3d 06 49 18 3b
       -0.03556365 -0.03566128 0.032563638 0.0023236885
0002e0 29 d5 1b bc e2 12 b2 bd ec 87 93 3d e2 07 97 3d
       -0.009511271 -0.08695008 0.072036594 0.073745504
0002f0 6a 40 55 bd 96 03 0e 3d 19 88 e3 3c 09 1d 91 bd
       -0.052063383 0.03467139 0.027774857 -0.07085616
000300 ec eb de 3c d1 7d 7f 3d b1 5d b8 bc 11 bf 50 bd
       0.027212106 0.062375847 -0.022505613 -0.050963465
000310 85 ac f7 bc e1 ea 39 bc ec f5 a3 3c 46 9c 8e bc
       -0.03023363 -0.011347503 0.020014726 -0.017408501
000320 c2 e2 a1 3c 44 18 45 bc 0e c5 8b bd 0a 20 0d bd
       0.019761447 -0.012029711 -0.068246946 -0.034454383
000330 d6 95 19 3d 4e 80 80 bd 80 d3 4e bc 19 45 9f 3d
       0.03749641 -0.06274472 -0.012623668 0.07776851
000340 f9 ee 0b bd 5e ac 0e 3b 65 77 a6 bd b1 f8 19 3c
       -0.03416345 0.002177022 -0.081282414 0.009397672
000350 97 50 71 3d 65 e0 7a 3c e0 2e ea 3a d2 00 4a 3c
       0.058914747 0.015312289 0.0017866753 0.012329297
000360 7b 0d 87 bd e0 44 0e 3c 48 bf 57 3c 0e e6 60 3c
       -0.06594368 0.008683413 0.013168164 0.013726724
000370 1c 13 f0 bc 98 fa a5 3d 5f 78 6d bd 10 dd 2a bc
       -0.029305987 0.081044376 -0.057976123 -0.010428682
000380 b6 6c c9 3c 3b 83 96 bd 86 48 21 bd 50 98 5d bd
       0.02458797 -0.07349249 -0.039375804 -0.054100335
000390 0b 63 67 bd b8 c1 69 3c 53 d6 6c bd 4c 76 ee 3c
       -0.05649094 0.014267378 -0.057821583 0.029109143
0003a0 51 7e 4f bd a9 d0 f3 bc a4 62 2a 3c 1e 83 b1 bd
       -0.050657574 -0.029762583 0.010399494 -0.08667587
0003b0 bf 2a 4e bd c6 81 30 3d 6f 20 a3 bd c0 68 5f bd
       -0.050333735 0.04309251 -0.079651706 -0.054543257
0003c0 a2 e4 50 3d bd 73 a9 3d b7 fb 00 bd f1 d1 42 3d
       0.05099929 0.082740285 -0.031490054 0.047563497
0003d0 fc 39 4a 3d 02 9d c6 3b a8 3f 36 bd 6a bc d2 3c
       0.049371704 0.0060611973 -0.0444943 0.025724608
0003e0 4b 6e 39 bd b9 eb b1 3d 83 3d ca 3c 0c 2b 8b bd
       -0.0452712 0.08687539 0.024687534 -0.0679532
0003f0 33 9a 93 bd f8 0f a2 3d 44 98 df 3c 26 eb 2f 3d
       -0.072071455 0.07913202 0.027294286 0.042948864

4.bias f4 [64]
000000 93 b2 fb 3c 45 dd 40 3d 7c 94 9d bd 25 11 92 3d
       0.0307248 0.04708602 -0.07694337 0.07132176
000010 72 82 c2 bc 38 67 02 bd 28 f3 58 3d b2 db 14 bd
       -0.023743842 -0.03183672 0.052966267 -0.03634233
000020 fb 75 21 bd a1 c9 89 3d 91 32 13 3d ad 96 07 3d
       -0.039419156 0.06727911 0.035936896 0.03310268
000030 0a 89 b3 bd ca df ac bd 9c 6f a9 3d c5 4e 8d 3d
       -0.087663725 -0.08441122 0.08273241 0.0689979
000040 7c d6 a4 bd 7c 1f 4b bc ef 36 f1 bc 21 95 ca 3c
       -0.08048722 -0.012397643 -0.02944514 0.024729313
000050 06 59 bc 3c cc e0 0b 3d cd c0 8c bd fe 90 fc 3b
       0.022991668 0.03414993 -0.06872711 0.007707714
000060 ad 66 72 3d 94 12 42 3d 00 28 d6 3c f8 2c 4c bd
       0.05917995 0.047381 0.02614212 -0.049847573
000070 09 3a 99 3d c7 35 a1 3d 85 e0 e6 3a 96 54 87 3d
       0.074817725 0.07871585 0.001761452 0.0660793
000080 e6 f5 a4 3d 85 0d 1c bd 1b 93 2d 3d a2 d6 9d bc
       0.08054714 -0.03809883 0.04237662 -0.019267384
000090 9b 62 7f 3d fa 16 0e bc e8 38 05 3d c9 54 3b bd
       0.062349897 -0.00867247 0.032524973 -0.045735154
0000a0 b4 ef 99 3d bc f5 16 bc 69 f1 7e 3d f4 38 50 3c
       0.07516423 -0.009213861 0.062241945 0.012708891
0000b0 d5 b7 ee 3b df 6f af bc d1 4a 0e 3d 69 56 dd bc
       0.007285098 -0.021415649 0.03473932 -0.027018743
0000c0 f3 60 9e 3d fd 4b ab 3c 6a bc af 3d 64 24 6a 3d
       0.07733335 0.020910257 0.08580859 0.05716361
0000d0 a6 4e 61 bd 3a bb 0a 3d dd f2 80 3c d9 a2 f7 3c
       -0.055006646 0.03386996 0.015740806 0.030229019
0000e0 0e 48 90 bd be 6d a5 3d b3 95 ae bd 1a 03 97 bd
       -0.07044993 0.08077572 -0.085246466 -0.073736385
0000f0 9a 61 f5 3b f7 bf 2e bd 4d b3 98 bc c8 82 71 3c
       0.0074884417 -0.04266354 -0.018640185 0.014740653

0.weight f4 [128, 64]
000000 af 64 09 3e 32 99 cb 3c e4 c1 80 bd 9c 31 3b 3d
       0.13417314 0.024853323 -0.06286982 0.045701608
000010 cd 31 13 be 5c ca 25 3c 0b 27 33 bd 28 c5 f4 3d
       -0.14374466 0.010119047 -0.043738406 0.11951667
000020 85 68 2c 3e 7f d7 71 3e db 6f 6d bd 5f d3 ba 3d
       0.16836746 0.23617361 -0.057968 0.09122347
000030 64 e4 34 be a3 7b 34 3d 34 90 85 3d f6 ac c2 bd
       -0.17665249 0.04406322 0.06521645 -0.09505646
000040 9f 96 fe 3c ca f4 41 3d 7a b8 38 3e 91 20 11 3a
       0.031077681 0.04735259 0.18039122 0.0005536164
000050 36 9a 2f 3e 68 39 22 3d 0b b6 a3 bd cf e2 06 3c
       0.1714867 0.039605528 -0.07993706 0.008232786
000060 40 a3 bb 3c f8 d9 db 3c f9 31 ee bd 05 f5 86 be
       0.022904992 0.026837334 -0.11630625 -0.2635881
000070 5d f2 93 bc 02 43 21 be 3d df a4 bd 76 cd 9d 3d
       -0.018059904 -0.15748218 -0.08050392 0.07705204
000080 70 50 18 3e bc 03 90 3e 2a 2a e6 bc 55 92 8b 3c
       0.14874434 0.2812785 -0.028096277 0.01703755
000090 67 d8 91 bd 9e f3 79 3e 6a db 7d be da fe 0b 3e
       -0.071213536 0.24409339 -0.24790731 0.13671437
0000a0 70 61 a2 3d 02 e4 58 3d 14 36 4b bd 07 33 0d 3e
       0.07928741 0.05295182 -0.04961212 0.13788997
0000b0 b3 1f 82 be ad ed a7 bd f9 36 2a be 93 d2 1c bd
       -0.2541481 -0.0819963 -0.16622533 -0.038286757
0000c0 a6 81 b0 bd 0b 3b c5 bc 6a 72 1f bd b1 8d cd 3d
       -0.086184785 -0.024076005 -0.038927473 0.10036791
0000d0 8b e5 36 3c 8a 08 0d 3e 2d e5 1c bb 05 5c d7 bd
       0.011163126 0.13772789 -0.002394031 -0.10515598
0000e0 f4 09 1c be e5 1e 50 3d ff 16 4a 3e c4 e4 ad 3d
       -0.15238172 0.050810713 0.19735335 0.08490899
0000f0 98 fa b8 3d 92 ee 7e 3d 86 5a bf 3d 76 64 c2 3d
       0.09032172 0.062239237 0.09343438 0.09491818
000100 9a 82 be 3e 13 af 9c bd 79 31 fa 3d b7 cb 83 be
       0.37209016 -0.0765058 0.122164674 -0.2574136
000110 fd 97 37 3e 67 16 ca 3d e5 5a 41 3d 93 c2 73 3d
       0.17929073 0.09867554 0.047205824 0.059511732
000120 72 50 98 3d 17 99 a6 be 29 de d3 3d da 2b 87 3e
       0.07437219 -0.32538673 0.10345108 0.26400644
000130 f2 b5 c4 bd f5 81 84 bd c1 64 3d 3d 6e d4 1e 3e
       -0.09605016 -0.064701 0.046238665 0.15510723
000140 ad 3f d5 bd d3 2a 12 3d ea 62 07 be 29 8a 0c 3e
       -0.10412536 0.03568537 -0.13221326 0.13724579
000150 6d ef 2f bd 81 ce 0c be bd 0b 32 3c 4f c5 ac 3d
       -0.042952944 -0.1375065 0.010867056 0.08436071
000160 60 69 36 3e 52 df cc 3b 90 26 ed bc 82 3e dc bd
       0.17813635 0.006252208 -0.028949052 -0.1075411
000170 7c 02 7f 3c e3 89 cf bd e5 1f 44 3b a3 36 2e 3d
       0.015564557 -0.10133722 0.0029926237 0.042532574
000180 81 00 53 bd 64 94 a8 3d c3 43 cb bd 19 de 12 3e
       -0.051514152 0.08231428 -0.09925034 0.14342536
000190 ef c1 f0 bc 76 6a 51 3e 1c c5 19 3d 09 75 87 3d
       -0.02938935 0.20450768 0.037541494 0.066141196
0001a0 6f fd 33 be f3 a4 b8 3d 28 5e 37 bc bd 0d 12 bc
       -0.17577146 0.090158366 -0.011191882 -0.008914408
0001b0 35 3b 5b 3d 1a f2 01 bd 7d ba db bd a6 ae c3 3d
       0.05352326 -0.031725027 -0.10728929 0.09554796
0001c0 89 5b fd 3d d3 f1 8b 3c 3f 2a 2a bd 4a a0 a5 3d
       0.123709746 0.017083084 -0.041544195 0.08087213
0001d0 03 f6 af bd bf 9e bd bd 0e eb 80 bd 69 c7 f9 bd
       -0.08591845 -0.09258794 -0.06294833 -0.121962376
0001e0 3d 6a a3 3c 29 76 95 3c 83 ff ac 3d 27 a6 36 bd
       0.01994812 0.01824482 0.084471725 -0.04459205
0001f0 22 11 eb bd 0e c5 ad 3d 70 56 ce bc 1d 54 e6 3c
       -0.11477877 0.08484851 -0.025187701 0.02811628
000200 3b 15 52 3e 7b ee 02 be b4 2b 64 3e 5d f6 57 3e
       0.20515911 -0.12786286 0.22282296 0.21090074
000210 3a 9b 7a 3d 2b fc 39 3c d8 21 c3 3c 16 a4 bf 3c
       0.06118319 0.011351625 0.023819849 0.023393672
000220 72 b3 cb 3b 29 5e d6 3d 93 99 49 bd e0 52 07 3c
       0.00621646 0.104671784 -0.049218725 0.008259505
000230 5a d5 21 be 71 33 96 3d e8 55 98 bd 04 47 7a be
       -0.15804043 0.073340304 -0.0743826 -0.24441153
000240 c7 6a 02 bd a3 b0 71 bd 54 9f ea ba 56 6c 78 3d
       -0.031840112 -0.059006345 -0.0017900267 0.060650192
000250 52 a1 14 be 64 20 ea bd aa 05 64 3d b5 ea 8a be
       -0.14514664 -0.11431959 0.055669464 -0.27132192
000260 6e 61 d4 3d f1 e3 c5 3d 15 6f 15 3d 81 66 88 be
       0.10370146 0.09662617 0.03648289 -0.26640704
000270 85 7d 7d 3b 2b 9f ac ba bd ba 03 3d e4 52 cb bd
       0.0038679552 -0.0013169994 0.03216051 -0.099279195
000280 7c 31 b5 3d 8c 5f 2d bd d9 8c 35 3d 19 b7 fe bb
       0.08847329 -0.04232745 0.044323776 -0.007773292
000290 39 4f 59 3d db 28 51 be 6d d5 99 bd 05 ce 2f bd
       0.05305407 -0.20425741 -0.07511411 -0.042921085
0002a0 bd ae 72 bd ff 86 1e 3d bc 20 c6 3d 6a 70 dc 3d
       -0.059248675 0.03870296 0.09674212 0.10763629
0002b0 c1 52 f3 bd 29 d2 4e 3c 5a f2 1a be 7f ec 59 3d
       -0.118810184 0.012623348 -0.15131512 0.053204056
0002c0 0d 38 81 3d 58 89 dd bc 48 6b 13 be ad 1d e0 3d
       0.06309519 -0.02704303 -0.14396393 0.1094316
0002d0 10 1b 12 bd 58 35 ca bd 73 f9 3c 3e 29 c4 13 3e
       -0.03567034 -0.09873456 0.18454532 0.14430298
0002e0 a9 72 6f bd f1 4e 86 3d 73 cc de 3b 3b ae 31 bd
       -0.058458958 0.06558026 0.0067992746 -0.04337905
0002f0 06 a2 fe bd 48 90 35 bd 03 a1 1d 3d d4 e5 59 3d
       -0.12433247 -0.04432705 0.03848363 0.053197697
000300 38 b2 8c bc e0 1f 89 bd 13 a3 91 3d 03 94 45 be
       -0.017174825 -0.06695533 0.07111182 -0.19294743
000310 2d ff 86 be d8 e6 e9 3d a9 d9 2c 3c 22 4a 41 bd
       -0.2636656 0.11420983 0.010549941 -0.04718984
000320 53 c6 34 3e c0 38 15 be 4d 4f bd 3d 05 c1 fd 3c
       0.1765378 -0.1457243 0.09243641 0.030975828
000330 17 3e bc 3d b7 94 62 3e 2a d0 7e bd 9f 7d ce bb
       0.0919153 0.22127043 -0.06221024 -0.0063015963
000340 e0 46 c6 bd 2d 59 44 bc 45 12 d4 bc 8e 5b 25 bd
       -0.09681487 -0.011984152 -0.025887618 -0.040370516
000350 21 50 6d 3c a1 c5 b7 bd 75 14 19 3e 07 0e a7 3d
       0.014484436 -0.089732416 0.1494921 0.081569724
000360 35 07 47 3d fb 6d 65 3d f8 5f e9 3c d2 c0 11 3e
       0.048590858 0.05601309 0.028488144 0.14233711
000370 9d e4 78 be 20 6b 08 be 2a 43 b4 3d a9 0b 22 be
       -0.24305959 -0.13322115 0.08801873 -0.1582476
000380 51 f6 3a 3d 33 b0 4e bd 5d 00 7d bd b5 f1 82 bc
       0.045645062 -0.050461005 -0.061767925 -0.015984396
000390 c9 4e 0b 3e 96 fc c4 3c 68 a7 36 be 0c c3 ea bd
       0.13604273 0.024046224 -0.17837298 -0.114629835
0003a0 82 80 b9 3b 83 47 f6 3d 08 45 92 be f9 bb 1e 3e
       0.0056610713 0.120253585 -0.28568292 0.15501393
0003b0 df f1 13 bd 9c cf e5 3c 99 32 23 3e 79 12 e4 bd
       -0.036119338 0.028053097 0.1593727 -0.11136336
0003c0 8b 32 bf 3d 3b 1b 62 be 14 aa 22 be 6c a5 64 3d
       0.09335812 -0.220807 -0.15885192 0.05582182
0003d0 7f d2 49 3d 38 c8 2c bd d6 10 9a bd 96 02 01 3e
       0.04927301 -0.04218313 -0.075227425 0.12598643
0003e0 f8 41 2a 3d b0 3d d7 bd 99 8a 81 bd 4b 27 a3 3d
       0.04156682 -0.10509813 -0.063252635 0.07966479
0003f0 70 be 10 bc b2 74 dc 3d ed c0 7c 3e ae cb 1c be
       -0.008834466 0.10764445 0.2468297 -0.15312073

0.bias f4 [128]
000000 00 00 00 00 00 00 00 00 00 00 00 00 00 00 00 00
       0.0 0.0 0.0 0.0
000010 00 00 00 00 00 00 00 00 00 00 00 00 00 00 00 00
       0.0 0.0 0.0 0.0
000020 00 00 00 00 00 00 00 00 00 00 00 00 00 00 00 00
       0.0 0.0 0.0 0.0
000030 00 00 00 00 00 00 00 00 00 00 00 00 00 00 00 00
       0.0 0.0 0.0 0.0
000040 00 00 00 00 00 00 00 00 00 00 00 00 00 00 00 00
       0.0 0.0 0.0 0.0
000050 00 00 00 00 00 00 00 00 00 00 00 00 00 00 00 00
       0.0 0.0 0.0 0.0
000060 00 00 00 00 00 00 00 00 00 00 00 00 00 00 00 00
       0.0 0.0 0.0 0.0
000070 00 00 00 00 00 00 00 00 00 00 00 00 00 00 00 00
       0.0 0.0 0.0 0.0
000080 00 00 00 00 00 00 00 00 00 00 00 00 00 00 00 00
       0.0 0.0 0.0 0.0
000090 00 00 00 00 00 00 00 00 00 00 00 00 00 00 00 00
       0.0 0.0 0.0 0.0
0000a0 00 00 00 00 00 00 00 00 00 00 00 00 00 00 00 00
       0.0 0.0 0.0 0.0
0000b0 00 00 00 00 00 00 00 00 00 00 00 00 00 00 00 00
       0.0 0.0 0.0 0.0
0000c0 00 00 00 00 00 00 00 00 00 00 00 00 00 00 00 00
       0.0 0.0 0.0 0.0
0000d0 00 00 00 00 00 00 00 00 00 00 00 00 00 00 00 00
       0.0 0.0 0.0 0.0
0000e0 00 00 00 00 00 00 00 00 00 00 00 00 00 00 00 00
       0.0 0.0 0.0 0.0
0000f0 00 00 00 00 00 00 00 00 00 00 00 00 00 00 00 00
       0.0 0.0 0.0 0.0
000100 00 00 00 00 00 00 00 00 00 00 00 00 00 00 00 00
       0.0 0.0 0.0 0.0
000110 00 00 00 00 00 00 00 00 00 00 00 00 00 00 00 00
       0.0 0.0 0.0 0.0
000120 00 00 00 00 00 00 00 00 00 00 00 00 00 00 00 00
       0.0 0.0 0.0 0.0
000130 00 00 00 00 00 00 00 00 00 00 00 00 00 00 00 00
       0.0 0.0 0.0 0.0
000140 00 00 00 00 00 00 00 00 00 00 00 00 00 00 00 00
       0.0 0.0 0.0 0.0
000150 00 00 00 00 00 00 00 00 00 00 00 00 00 00 00 00
       0.0 0.0 0.0 0.0
000160 00 00 00 00 00 00 00 00 00 00 00 00 00 00 00 00
       0.0 0.0 0.0 0.0
000170 00 00 00 00 00 00 00 00 00 00 00 00 00 00 00 00
       0.0 0.0 0.0 0.0
000180 00 00 00 00 00 00 00 00 00 00 00 00 00 00 00 00
       0.0 0.0 0.0 0.0
000190 00 00 00 00 00 00 00 00 00 00 00 00 00 00 00 00
       0.0 0.0 0.0 0.0
0001a0 00 00 00 00 00 00 00 00 00 00 00 00 00 00 00 00
       0.0 0.0 0.0 0.0
0001b0 00 00 00 00 00 00 00 00 00 00 00 00 00 00 00 00
       0.0 0.0 0.0 0.0
0001c0 00 00 00 00 00 00 00 00 00 00 00 00 00 00 00 00
       0.0 0.0 0.0 0.0
0001d0 00 00 00 00 00 00 00 00 00 00 00 00 00 00 00 00
       0.0 0.0 0.0 0.0
0001e0 00 00 00 00 00 00 00 00 00 00 00 00 00 00 00 00
       0.0 0.0 0.0 0.0
0001f0 00 00 00 00 00 00 00 00 00 00 00 00 00 00 00 00
       0.0 0.0 0.0 0.0

2.weight f4 [128, 128]
000000 63 8f b1 bd a5 d5 1e bc ef 97 79 bd 58 bf 86 bd
       -0.08669927 -0.0096944915 -0.06093591 -0.06579465
000010 12 e8 03 be 75 65 01 bc 53 79 5b 3d ea 5b 97 3c
       -0.12881497 -0.007897724 0.0535825 0.018476445
000020 65 15 1b 3d b3 8e d3 3d d2 fe ba 3d 29 03 0f be
       0.0378622 0.10329952 0.09130634 -0.13966049
000030 f0 6c 1f 3e f7 50 35 3e 67 8b 3f 3e 2b b3 62 bd
       0.155689 0.17706667 0.18705522 -0.05534665
000040 e1 6b cc bd 1a e2 c5 3b d8 75 07 3e 66 2c 4b bd
       -0.09981514 0.0060389163 0.13228548 -0.04960289
000050 02 89 73 be 31 41 09 3e 83 65 82 3d f7 8c 64 bd
       -0.23782733 0.13403775 0.06367018 -0.055798497
000060 7c e3 e0 3b b4 73 97 bd a6 7a 8c 3d 4f 0b 94 3d
       0.0068630558 -0.073951155 0.06859331 0.072287194
000070 91 4e 72 be c0 ee 29 bc c6 35 3b be 32 bd 28 bb
       -0.23662783 -0.010371864 -0.18282232 -0.0025747535
000080 08 90 20 be a7 26 49 3d 03 ff 65 be 8c 90 29 3d
       -0.15679944 0.049109127 -0.2246056 0.041397616
000090 77 c4 28 be 25 e2 44 be b3 24 0f be 42 0e ee 3b
       -0.16481195 -0.19226892 -0.13978843 0.0072648833
0000a0 b4 c7 2e 3d e4 e7 41 be 39 11 8a 3d fa 07 17 3e
       0.04267092 -0.18936116 0.06741566 0.14749137
0000b0 cf 62 df bd 6c c2 64 bd 42 ed 93 3d d2 fe 3f bd
       -0.10907518 -0.055849478 0.07222988 -0.046873875
0000c0 a9 32 bb bd 3a 78 50 bd b6 b9 a8 be a6 0f a3 bc
       -0.09140522 -0.050895907 -0.32954186 -0.019904923
0000d0 c3 c3 aa bd 59 82 51 be 94 ed 91 3c 37 7f a3 3c
       -0.0833812 -0.2045988 0.017813481 0.019958122
0000e0 7c 59 53 bd 9b 84 22 be 13 e1 20 be 60 85 ad 3d
       -0.05159901 -0.15870897 -0.15710859 0.08472705
0000f0 13 4e 91 bc ef 49 57 3e f0 e1 20 be f8 a1 84 3d
       -0.017737424 0.21024297 -0.15711188 0.064762056
000100 70 45 dd bd 22 54 82 3d d3 66 e3 3d 0e 65 22 be
       -0.1080426 0.06363703 0.111035965 -0.15858862
000110 ec 65 74 3e fc 4a 0d 3c 27 64 24 3c fa 69 6c bd
       0.23867005 0.008623835 0.010033644 -0.057718255
000120 fa 3c da 3d e6 ad ac bd 07 5f 0c be 5d ad 11 be
       0.106561616 -0.08431606 -0.13708125 -0.14226289
000130 9d 83 a8 3c 5f 48 84 3e 1a 66 bd bd 3b 5a 66 bd
       0.02057057 0.25836465 -0.0924799 -0.056238394
000140 05 48 dc 3d 23 09 35 be a2 ce 34 bd 65 63 62 3c
       0.10755924 -0.17679267 -0.044142373 0.013817643
000150 84 a2 26 3e 61 51 bf bd b2 a1 01 3e ad 2b 28 3e
       0.16272932 -0.09341694 0.12659338 0.16422911
000160 e5 ae 09 be 20 50 34 be 88 d4 a8 3d 40 38 ac 3d
       -0.13445623 -0.1760869 0.08243662 0.08409166
000170 e0 89 0f 3e 7a a8 80 bd a6 59 0c bd 46 e8 31 3d
       0.14017439 -0.06282134 -0.034265183 0.043434404
000180 a5 77 e1 bb a7 e4 17 be 6e 71 c8 3c 93 b7 fb 3d
       -0.006880718 -0.14833318 0.02446815 0.122908734
000190 47 31 85 bd 33 9e 20 3e 4f 79 a2 bd c0 72 b0 3c
       -0.065035395 0.15685348 -0.07933294 0.021539092
0001a0 a8 8c fd bd ce f8 25 3e 49 70 e0 3b 71 ac 4d 3e
       -0.12380344 0.16208193 0.006849323 0.20085312
0001b0 d0 54 04 3b 16 a0 3d 3d 31 b8 35 bd 79 ad 0f be
       0.0020192154 0.046295248 -0.04436511 -0.14031018
0001c0 34 87 fd 3d 84 9c 66 bd 80 88 5c 3e b6 ce 6a 3d
       0.123793036 -0.05630161 0.21536446 0.05732604
0001d0 df 57 c2 bc 68 54 4b 3e eb a3 19 3e 31 37 ee 3d
       -0.02372354 0.19856417 0.15003936 0.11631621
0001e0 6a ee c3 3c 1d 3b a1 3e 3d 78 0a 3d 14 93 12 be
       0.023917396 0.31490412 0.033806074 -0.14313918
0001f0 ec e7 e8 bd c5 19 82 bd 24 85 88 be 1f 52 84 3e
       -0.113723606 -0.063525714 -0.26664078 0.25843903
000200 ce 2f 54 be fd b5 03 3e ff 58 5d be 32 59 36 be
       -0.20721361 0.12862392 -0.2161598 -0.17807463
000210 72 a6 08 be eb fa 75 3d 93 20 44 3d 3b 8b 09 3d
       -0.13344744 0.060053747 0.047882628 0.033580046
000220 53 62 81 bd c9 84 88 bd 7a 19 ef bd 50 e4 9a 3d
       -0.06317582 -0.06665952 -0.11674781 0.075630784
000230 91 8b f3 3d 76 2a a4 be 84 3e d4 3d 6a 5a 1a be
       0.118918546 -0.32063645 0.103634864 -0.15073553
000240 99 5b ce bd 69 3b fc bd a4 35 38 bd 9a bc 91 3e
       -0.100760646 -0.12316019 -0.04497303 0.28464204
000250 5a d0 8b 3d ed 2b 13 3e bc fa 61 3c 57 45 b4 bc
       0.06826849 0.14372225 0.01379269 -0.02200572
000260 d4 7e 16 3e 92 04 44 bd 99 ef 86 bd dc e4 91 3e
       0.14696819 -0.04785592 -0.065886684 0.28494918
000270 31 e1 df 3d 08 07 da bd 48 a1 b7 bd d3 4a 03 be
       0.10931624 -0.10645872 -0.08966309 -0.12821512
000280 d2 0c 47 3d 62 00 e9 bb 9d 9d 3a 3d 1c f5 8c be
       0.04859621 -0.0071106413 0.045560468 -0.27530754
000290 43 40 45 bd b1 53 89 bd 63 49 33 3e ae ff cf 3d
       -0.048156988 -0.06705416 0.17508464 0.10156189
0002a0 68 d7 a2 3c cc 27 b8 3d fa 19 64 be db d3 d0 3d
       0.019878104 0.08991966 -0.22275534 0.10196658
0002b0 7b e0 fb bd 53 97 21 3d 07 83 bb 3b 50 a0 52 3e
       -0.122986756 0.039450955 0.005722407 0.20568967
0002c0 ca ac 97 bd cc 8b ba 3c 37 b3 30 be fc 0f 67 be
       -0.07406004 0.022771738 -0.17255865 -0.22564691
0002d0 16 13 58 3d b9 9c ce bd bc 37 81 bc c1 81 28 3d
       0.052752577 -0.10088486 -0.015773647 0.041139368
0002e0 97 0c 5c 3c d9 db c2 3d 64 14 81 3b 78 62 8a 3d
       0.013430736 0.09514589 0.0039391983 0.06757063
0002f0 0e c0 eb bc fa 7b 68 bd 46 1b 99 bd a0 69 f5 bd
       -0.028778102 -0.05675886 -0.07475905 -0.11983037
000300 7b a5 8e 3e d9 f2 9f 3d 6f 33 7b bd 85 94 45 3e
       0.27860627 0.078099914 -0.061328348 0.19294937
000310 44 a9 25 3e c7 36 94 be 5b a9 10 3e 93 5c 8c bb
       0.16177851 -0.28948042 0.14127104 -0.0042834966
000320 6a 5f 74 3b 76 a2 5e bd f8 f4 fa 3d 81 86 b6 bc
       0.0037288317 -0.054354154 0.12253755 -0.022280933
000330 b0 86 45 be 13 6d 01 3d 35 d8 2e bd b6 4c f2 bd
       -0.1928966 0.031598162 -0.04268666 -0.11831038
000340 23 26 6f 3c 5c 26 06 bd 31 9e 2c bd 80 ea 0d be
       0.014596495 -0.032751426 -0.04214305 -0.13858986
000350 5f a3 0b be 6c 97 a3 bd 38 44 5a 3d bf 15 69 bd
       -0.1363654 -0.07987866 0.053287715 -0.056905504
000360 fd 25 22 3e 82 8c 1a bd f3 27 79 bd a6 23 d0 bd
       0.15834804 -0.037731655 -0.060829114 -0.101630494
000370 cf 6e 1c be be 68 58 3c 66 d8 0c 3e c4 bb 8c 3d
       -0.15276645 0.013208566 0.13754424 0.06871751
000380 3e ee 86 bd b3 ae 2e 3e 8d 24 e3 3d b5 cd 8a 3e
       -0.0658841 0.1705883 0.11090956 0.27110067
000390 0d f1 ec 3b e6 08 ec 3d cf d2 bc 3d 57 b1 5d be
       0.007230884 0.11525135 0.09219896 -0.21649681
0003a0 ec e5 07 bc f0 02 2b be 99 45 7d be b0 dd 89 bc
       -0.008294564 -0.1670034 -0.2473358 -0.016829342
0003b0 23 35 62 3e ab d3 de bd 07 d0 11 3e c9 48 84 3d
       0.22090583 -0.10880216 0.14239512 0.06459195
0003c0 62 e2 04 3e 6e 83 1b bd 73 9c 3c 3d ec e7 00 3e
       0.12976983 -0.037967138 0.04604764 0.12588471
0003d0 09 60 b6 3d 38 4c c6 3d 3e 81 53 3e 6d d6 55 3d
       0.08905036 0.09682506 0.2065477 0.052206445
0003e0 db 52 63 bc b0 bd 73 bd 42 5d 18 be 6f c9 85 3d
       -0.013874735 -0.059507072 -0.14879325 0.06532561
0003f0 10 6c c5 bd 53 24 55 bd b2 a9 86 bc 7f 89 be bc
       -0.09639752 -0.052036595 -0.016438339 -0.023258923

2.bias f4 [128]
000000 00 00 00 00 00 00 00 00 00 00 00 00 00 00 00 00
       0.0 0.0 0.0 0.0
000010 00 00 00 00 00 00 00 00 00 00 00 00 00 00 00 00
       0.0 0.0 0.0 0.0
000020 00 00 00 00 00 00 00 00 00 00 00 00 00 00 00 00
       0.0 0.0 0.0 0.0
000030 00 00 00 00 00 00 00 00 00 00 00 00 00 00 00 00
       0.0 0.0 0.0 0.0
000040 00 00 00 00 00 00 00 00 00 00 00 00 00 00 00 00
       0.0 0.0 0.0 0.0
000050 00 00 00 00 00 00 00 00 00 00 00 00 00 00 00 00
       0.0 0.0 0.0 0.0
000060 00 00 00 00 00 00 00 00 00 00 00 00 00 00 00 00
       0.0 0.0 0.0 0.0
000070 00 00 00 00 00 00 00 00 00 00 00 00 00 00 00 00
       0.0 0.0 0.0 0.0
000080 00 00 00 00 00 00 00 00 00 00 00 00 00 00 00 00
       0.0 0.0 0.0 0.0
000090 00 00 00 00 00 00 00 00 00 00 00 00 00 00 00 00
       0.0 0.0 0.0 0.0
0000a0 00 00 00 00 00 00 00 00 00 00 00 00 00 00 00 00
       0.0 0.0 0.0 0.0
0000b0 00 00 00 00 00 00 00 00 00 00 00 00 00 00 00 00
       0.0 0.0 0.0 0.0
0000c0 00 00 00 00 00 00 00 00 00 00 00 00 00 00 00 00
       0.0 0.0 0.0 0.0
0000d0 00 00 00 00 00 00 00 00 00 00 00 00 00 00 00 00
       0.0 0.0 0.0 0.0
0000e0 00 00 00 00 00 00 00 00 00 00 00 00 00 00 00 00
       0.0 0.0 0.0 0.0
0000f0 00 00 00 00 00 00 00 00 00 00 00 00 00 00 00 00
       0.0 0.0 0.0 0.0
000100 00 00 00 00 00 00 00 00 00 00 00 00 00 00 00 00
       0.0 0.0 0.0 0.0
000110 00 00 00 00 00 00 00 00 00 00 00 00 00 00 00 00
       0.0 0.0 0.0 0.0
000120 00 00 00 00 00 00 00 00 00 00 00 00 00 00 00 00
       0.0 0.0 0.0 0.0
000130 00 00 00 00 00 00 00 00 00 00 00 00 00 00 00 00
       0.0 0.0 0.0 0.0
000140 00 00 00 00 00 00 00 00 00 00 00 00 00 00 00 00
       0.0 0.0 0.0 0.0
000150 00 00 00 00 00 00 00 00 00 00 00 00 00 00 00 00
       0.0 0.0 0.0 0.0
000160 00 00 00 00 00 00 00 00 00 00 00 00 00 00 00 00
       0.0 0.0 0.0 0.0
000170 00 00 00 00 00 00 00 00 00 00 00 00 00 00 00 00
       0.0 0.0 0.0 0.0
000180 00 00 00 00 00 00 00 00 00 00 00 00 00 00 00 00
       0.0 0.0 0.0 0.0
000190 00 00 00 00 00 00 00 00 00 00 00 00 00 00 00 00
       0.0 0.0 0.0 0.0
0001a0 00 00 00 00 00 00 00 00 00 00 00 00 00 00 00 00
       0.0 0.0 0.0 0.0
0001b0 00 00 00 00 00 00 00 00 00 00 00 00 00 00 00 00
       0.0 0.0 0.0 0.0
0001c0 00 00 00 00 00 00 00 00 00 00 00 00 00 00 00 00
       0.0 0.0 0.0 0.0
0001d0 00 00 00 00 00 00 00 00 00 00 00 00 00 00 00 00
       0.0 0.0 0.0 0.0
0001e0 00 00 00 00 00 00 00 00 00 00 00 00 00 00 00 00
       0.0 0.0 0.0 0.0
0001f0 00 00 00 00 00 00 00 00 00 00 00 00 00 00 00 00
       0.0 0.0 0.0 0.0
