dheera_v0.3.0/dheera_v3/checkpoints/dheera_20251212_103032_curiosity.pt (torch, 270210 bytes, 12 tensors)

0.weight f4 [128, 64]
0	0xbd95633c	-0.07294318
1	0x3c974248	0.018464223
2	0xbdab695e	-0.083697066
3	0x3dcd2220	0.100162745
4	0x3da4e6d4	0.080518395
5	0xbd2cc408	-0.042179137
6	0x3bde7c00	0.0067896843
7	0xbda2c004	-0.0794678
8	0x3d22031c	0.039553747
9	0xbdb17c66	-0.08666305
10	0xbced92a8	-0.029000595
11	0xbde2311a	-0.11044522
12	0xbd9bb7d8	-0.07603425
13	0x3d9c62e8	0.07636052
14	0x3dd63a66	0.10460357
15	0x3d09ea6c	0.033670828
16	0xbc975c50	-0.018476635
17	0xbdda0bd0	-0.10646784
18	0x3d76af50	0.060225785
19	0x3de36382	0.11102964
20	0x3d9eccfe	0.07753943
21	0x3cdc62a0	0.026902497
22	0x3db68bac	0.08913359
23	0x3d28365c	0.041067466
24	0x3dad73b8	0.08469337
25	0xbdff8f78	-0.12478536
26	0x3db1fcf2	0.086908236
27	0xbd319e30	-0.04336375
28	0xbd246064	-0.040130988
29	0xbde658a2	-0.11247374
30	0x3d6789a4	0.05652775
31	0xbcef2ff0	-0.029197663
32	0x3d04dd20	0.032437444
33	0xbd3e1d78	-0.046414822
34	0x3dbc31c4	0.091891795
35	0xbddb7b46	-0.10716872
36	0x3de80f54	0.113310486
37	0xbdf4d24e	-0.11954175
38	0x3bdb6b80	0.0066961646
39	0x3b5cea80	0.0033709109
40	0x3c0531c0	0.008129537
41	0xbdbb93c6	-0.09159045
42	0x3d77e9c0	0.060525656
43	0xbd4eb610	-0.050466597
44	0xbd8afe1c	-0.06786749
45	0xbd966536	-0.07343523
46	0xbccc5690	-0.02494362
47	0xbd2b1820	-0.041771054
48	0x3cb44980	0.022007704
49	0x3dc6fdbc	0.09716365
50	0x3dc322b2	0.09528102
51	0x3d8be0c4	0.0682998
52	0xbdf5fc0a	-0.12010963
53	0x3da7b302	0.0818844
54	0xbce26130	-0.027634233
55	0xbc0a29a0	-0.008432776
56	0xbdbba960	-0.09163165
57	0xbd934044	-0.07189992
58	0x3db565e6	0.08857326
59	0xbd8433d6	-0.064551994
60	0xbde8eab0	-0.11372888
61	0x3cbcd908	0.023052707
62	0xbd2ecffc	-0.042678818
63	0xbd824054	-0.06359926
64	0x3dbee6c8	0.09321362
65	0xbd93f962	-0.072253
66	0x3cfb3e30	0.030669302
67	0x3d98ea50	0.074665666
68	0xbdc91320	-0.09818101
69	0xbdaedfa6	-0.08538751
70	0x3de44268	0.111454785
71	0xbb9992c0	-0.0046866834
72	0xbd9e0a96	-0.07716863
73	0x3cc80990	0.024418622
74	0xbdfa32da	-0.122167304
75	0xbcee41e8	-0.02908416
76	0x3d8053d0	0.06265986
77	0xbdae389c	-0.08506891
78	0xbc86cab8	-0.016454086
79	0x3c961a50	0.018323094
80	0xbddd5f1e	-0.10809158
81	0x3d2bc540	0.04193616
82	0xbd9250bc	-0.07144305
83	0xbd929ca8	-0.07158786
84	0x3d066f48	0.03282097
85	0x3dcc4218	0.09973544
86	0x3d0c0ae0	0.03419006
87	0xbdda3568	-0.10654718
88	0xbd6cdc98	-0.057827562
89	0x3dc2edf8	0.09518045
90	0x3dca83f8	0.09888452
91	0xb815e000	-3.5732985e-05
92	0x3d5c5d0c	0.053799674
93	0xbdb5eabc	-0.08882663
94	0xbd90b534	-0.07065812
95	0xbdc6fb58	-0.09715909
96	0x3db9cc92	0.09072222
97	0xbcdb8390	-0.026796132
98	0x3de3dbb4	0.111258894
99	0xbc068600	-0.008210659
100	0x3da99fa6	0.08282404
101	0x3d673424	0.05644621
102	0x3df328f8	0.118730485
103	0x3cc8e648	0.02452387
104	0x3dc668fe	0.096879944
105	0x3d85826a	0.06519015
106	0xbd9e609e	-0.07733272
107	0xbdf9e00a	-0.12200935
108	0x3d9d619a	0.07684632
109	0xbd18ae30	-0.037275493
110	0xbde2850e	-0.110605344
111	0x3cc84850	0.024448544
112	0xbd95bf08	-0.07311827
113	0xbd634904	-0.055489555
114	0x3dd03fc2	0.10168411
115	0x3dc5c9f6	0.096576616
116	0xbd03d0d8	-0.03218159
117	0x3dfedb06	0.12444119
118	0x3d3e8650	0.04651481
119	0xbd420410	-0.047367156
120	0x3d52e5c4	0.051488653
121	0xbcf88520	-0.030336916
122	0x3dbc9bba	0.0920939
123	0x3d195ecc	0.03744392
124	0xbd870328	-0.06592399
125	0xbdb777a8	-0.089583695
126	0xbd838caa	-0.06423314
127	0x3d6ba628	0.057531506
128	0xbd82d97a	-0.063891366
129	0xbc0db060	-0.008648008
130	0x3dd1932e	0.102331504
131	0xbd9549f6	-0.072894976
132	0xbdcaa730	-0.0989517
133	0xbdef116c	-0.11673245
134	0xbd3cf348	-0.04613045
135	0xbd47ef10	-0.048811972
136	0x3dc13efa	0.0943584
137	0x3c528930	0.012850091
138	0xbdbb69ee	-0.09151064
139	0x3dfd3970	0.12364471
140	0x3d331e5c	0.043730125
141	0xbd20af94	-0.039229944
142	0xbd84f3fc	-0.06491849
143	0xbdfcb5f0	-0.12339389
144	0x3c0aa130	0.008461282
145	0xbd9cf266	-0.07663421
146	0x3d818d6e	0.06325804
147	0xbcfea868	-0.031086162
148	0x3de57b02	0.112051025
149	0xbc39e300	-0.011345625
150	0x3dd58eb4	0.10427609
151	0x3da245da	0.079234794
152	0x3c4a8810	0.012361541
153	0x3d62b688	0.055349857
154	0xbd895ab6	-0.06706755
155	0x3c372100	0.011177301
156	0xbcbe4740	-0.023227334
157	0x3d2a1054	0.041519478
158	0x3da86936	0.082231924
159	0x3ce3d550	0.027811676
160	0x3c7c46d0	0.015397742
161	0x3d496190	0.04916531
162	0x3dc7ab14	0.097494274
163	0xbd27da9c	-0.040979967
164	0xbda4002e	-0.08007847
165	0x3d5afdb8	0.05346462
166	0x3dc11dac	0.094294876
167	0x3d9cc2d4	0.07654348
168	0x3d7d12b4	0.061785415
169	0x3d3429b4	0.043985084
170	0x3de54be6	0.11196117
171	0x3a983500	0.0011612475
172	0xbdca25d8	-0.09870499
173	0x3d43750c	0.047719046
174	0x3d9820b0	0.0742811
175	0x3dbdeba2	0.09273459
176	0xbdb05d82	-0.08611585
177	0xbd19e55c	-0.03757225
178	0xbd7ab114	-0.06120403
179	0x3db9cf88	0.090727866
180	0xbc874480	-0.016512156
181	0x3d7d2940	0.061806917
182	0xbd109670	-0.03529972
183	0x3dcd3908	0.100206435
184	0xbd9e885a	-0.07740851
185	0xbd5def24	-0.05418314
186	0x3da142d4	0.078740746
187	0x3df03438	0.1172871
188	0x3d8de58a	0.06928547
189	0xbdb739b2	-0.089465514
190	0x3d144bcc	0.036205098
191	0xbb5a2cc0	-0.0033290833
192	0x3d8ab42e	0.06772648
193	0xbd38ea3c	-0.04514526
194	0x3d1c1d5c	0.038113937
195	0x3c153810	0.009107605
196	0x3db289ee	0.08717714
197	0xbd8f331a	-0.06992169
198	0x3dfd3320	0.12363267
199	0x3bfccf40	0.007715136
200	0x3ddc9fae	0.10772644
201	0xbd37b3e4	-0.04484929
202	0x3de0928c	0.109654516
203	0x3d9f72c8	0.07785565
204	0x3d802688	0.06257349
205	0xbde6c1ea	-0.11267455
206	0xbdb32080	-0.08746433
207	0xbdef7854	-0.11692873
208	0xbdf3df02	-0.1190777
209	0xbd6910e4	-0.056900874
210	0xbb8fa1e0	-0.0043833107
211	0xbd02620c	-0.031831786
212	0x3da2c554	0.079477936
213	0x3db4b278	0.08823103
214	0x3c45b9b0	0.012068197
215	0xbdde0e7a	-0.10842605
216	0x3bc088c0	0.005875677
217	0xbdbdfab0	-0.092763305
218	0x3d9ba412	0.07599653
219	0x3d1df3ac	0.03856246
220	0xbd8f9f18	-0.070127666
221	0xbd28d090	-0.041214526
222	0xbd577f88	-0.052611858
223	0xbdf7733a	-0.120825246
224	0xbda4e70e	-0.08051883
225	0xbd7f2a94	-0.062296465
226	0x3df7e9f2	0.121051684
227	0xbd93a1da	-0.07208605
228	0xbd14a130	-0.036286533
229	0x3cf95cf0	0.030439824
230	0x3dc15a02	0.09440996
231	0xbd896124	-0.06707981
232	0x3d4eebd0	0.050517857
233	0xbda45a18	-0.080249965
234	0xbddfece4	-0.10933855
235	0xbc27ec00	-0.010249138
236	0xbdddaf1a	-0.108244136
237	0xbdceb58a	-0.100932196
238	0xbdd59644	-0.104290515
239	0x3d017038	0.03160116
240	0x3d4d6574	0.05014558
241	0x3d0e4a78	0.034738988
242	0xbdbb87f4	-0.091567904
243	0xbcfc3798	-0.030788228
244	0x3b4cc400	0.0031244755
245	0x3d145ac8	0.03621939
246	0xbd0af328	-0.033923298
247	0x3cb3d998	0.021954343
248	0xbdec438e	-0.115363225
249	0x3d928ee0	0.071561575
250	0x3c854778	0.01626943
251	0x3da99ec0	0.08282232
252	0xbda65b48	-0.08122879
253	0xbd3df140	-0.046372652
254	0x3cb17890	0.021663934
255	0xbd80e636	-0.06293909

0.bias f4 [128]
0	0x3dfbd77e	0.12296961
1	0xbde41a2a	-0.11137803
2	0xbdf9884c	-0.121842
3	0x3d94929e	0.072545275
4	0xbd6c319c	-0.0576645
5	0x3cc47190	0.023979932
6	0xbd80d368	-0.062903225
7	0xbcd69a78	-0.026196703
8	0x3d72b0b0	0.059250534
9	0xbc01df50	-0.007926777
10	0x3d135d18	0.035977453
11	0x3d9701c4	0.07373384
12	0xbcc56af8	-0.024098858
13	0xbcc20b38	-0.02368699
14	0xbde8ad3e	-0.11361168
15	0x3cf9d398	0.030496404
16	0x3db3dea8	0.08782703
17	0xbd720d88	-0.059094936
18	0x3d29aaa4	0.0414225
19	0xbb1920c0	-0.0023365468
20	0x3dc30ce4	0.09523943
21	0x3ddfc7fe	0.10926817
22	0x3dcc1972	0.09965791
23	0xbd26c858	-0.040718406
24	0xbdbfa0bc	-0.093568295
25	0xbdadb676	-0.08482067
26	0xbda57180	-0.08078289
27	0x3d45ae4c	0.048261926
28	0xbd9c415a	-0.07629652
29	0xbdb1e972	-0.08687104
30	0x3b12e980	0.002241701
31	0x3d9a0158	0.075197875
32	0xbd50bd2c	-0.05096166
33	0xbd2f8704	-0.04285337
34	0x3dc04a4e	0.093891725
35	0x3de5fabc	0.112294644
36	0xbdbd6eea	-0.09249671
37	0x3d87070a	0.065931395
38	0x3d6bac30	0.057537258
39	0xbd80f91a	-0.06297512
40	0x3afd8c80	0.001934424
41	0xbd614d0c	-0.05500512
42	0x3de8801c	0.1135256
43	0xbd3ce560	-0.046117187
44	0x3c5c18d0	0.01343365
45	0xbd570aec	-0.05250065
46	0xbc1e8eb0	-0.009677574
47	0xbc5fffe0	-0.013671845
48	0x3df591f0	0.11990726
49	0xbd721954	-0.059106186
50	0x3c0b9d40	0.008521378
51	0x3dcbdfa2	0.09954764
52	0x3da09d08	0.07842451
53	0x3d2406e8	0.04004565
54	0xbd3f6d2c	-0.046734974
55	0xbd89ef70	-0.06735122
56	0xbd8191ee	-0.06326662
57	0xbdce6bce	-0.10079156
58	0xbdf33d7c	-0.118769616
59	0x3d934e1c	0.071926326
60	0xbd8b4510	-0.06800282
61	0x3d4b54fc	0.049641594
62	0x3c3b6920	0.011438638
63	0x3d3380ec	0.04382412
64	0xbd94bb9e	-0.07262348
65	0x3cdb15e0	0.02674383
66	0x3c074520	0.008256227
67	0xbd89a174	-0.06720248
68	0x3d931c12	0.07183088
69	0x3d35d8c0	0.044396162
70	0x3da374e6	0.07981281
71	0x3d149040	0.03627038
72	0xbdd39e36	-0.10332911
73	0xbdec2628	-0.11530715
74	0x3c3dff20	0.011596471
75	0xbc43a730	-0.011941716
76	0x3df53d3e	0.11974572
77	0xbd03b0f0	-0.032151163
78	0x3df5b222	0.11996867
79	0x3d06ccc0	0.03291011
80	0x3ba51da0	0.005038932
81	0x3dc4abf2	0.096031085
82	0x3dfc6e0e	0.12325679
83	0xbdad5828	-0.0846408
84	0xbd5329b8	-0.051553458
85	0xbd9781d2	-0.07397808
86	0xbc95cbf0	-0.018285722
87	0xbde84644	-0.11341527
88	0x3b1a51c0	0.0023547262
89	0x3dfaff6e	0.122557506
90	0xbd2d8178	-0.0423598
91	0xbd4b3104	-0.04960729
92	0xbc908b50	-0.017644554
93	0xbd25cf24	-0.040480748
94	0xbd99ed02	-0.07515909
95	0xbdb6a17c	-0.089175195
96	0xbdbc4c34	-0.09194222
97	0x3dc783c2	0.09741928
98	0x3c086d30	0.008326814
99	0xbbe35000	-0.006937027
100	0x3d0ffc7c	0.035152897
101	0xbd86627e	-0.06561755
102	0x3d5c620c	0.053804442
103	0x3d8ff33c	0.07028815
104	0x3b57c5c0	0.0032924265
105	0xbaaf7e00	-0.0013388991
106	0x3c953248	0.018212453
107	0xbd4d4ef4	-0.050124124
108	0xbce41238	-0.027840719
109	0xbd8420f2	-0.06451596
110	0xbda28a78	-0.07936567
111	0x3cfe11b8	0.031014308
112	0x3d872650	0.065991044
113	0x3dd17252	0.10226883
114	0xbd20ce88	-0.039259464
115	0x3dbf045a	0.09327002
116	0xbd97a5f6	-0.074047014
117	0x3c761cf0	0.015021548
118	0xbbed9c40	-0.0072512925
119	0xbd9cb93e	-0.0765252
120	0xbdc07cc0	-0.09398794
121	0x3de24904	0.11049083
122	0xbd142af8	-0.03617379
123	0x3dc1947c	0.09452149
124	0x3de6b9ea	0.11265929
125	0x3d08350c	0.033253714
126	0x3c753940	0.014967263
127	0xbc9e4400	-0.019319534

2.weight f4 [128, 128]
0	0x3d377bba	0.04479573
1	0xbc9578f4	-0.018246152
2	0xbdac854c	-0.08423862
3	0xb9b6b100	-0.0003484562
4	0x3da6da49	0.08147103
5	0x3d77578a	0.060386218
6	0x3d427fd6	0.047485195
7	0x3d96bd7b	0.07360359
8	0x3d1fa08e	0.038971476
9	0xbc467438	-0.01211267
10	0xbd24ea98	-0.04026279
11	0x3c6b6fc8	0.014369912
12	0x3d9c9c3f	0.07646989
13	0x3c02b888	0.007978566
14	0xbd86d15d	-0.065829016
15	0xbda9e1e5	-0.08295039
16	0x3d95bc6f	0.073113315
17	0xbd8e07e2	-0.06935097
18	0xbd97697d	-0.07393167
19	0xbd17b56b	-0.037038248
20	0xbd8b1556	-0.06791179
21	0xbb866d60	-0.004102394
22	0x3d87fe9f	0.06640362
23	0xbda3f7ea	-0.0800627
24	0xbd700d6a	-0.058606543
25	0xbd39d4f3	-0.0453691
26	0xbd29eb4c	-0.041484162
27	0xbd7cb2a6	-0.06169381
28	0x3d96fcd7	0.07372444
29	0xbb8bf020	-0.0042705685
30	0xbdb22b33	-0.08699646
31	0x3c99b924	0.01876504
32	0xbccee8a8	-0.025257424
33	0xbd94c6ae	-0.07264458
34	0xbd0012a4	-0.031267777
35	0x3b991f40	0.0046729147
36	0x3d09b83c	0.033622965
37	0xbc7528b8	-0.014963321
38	0xbc94fec0	-0.01818788
39	0xbdb30be5	-0.08742503
40	0x3cb6f71c	0.022334628
41	0x3b915840	0.004435569
42	0xbd8a94df	-0.06766676
43	0xbce5e846	-0.028064858
44	0xbd87c007	-0.06628423
45	0xbc38cf38	-0.011279874
46	0xbd5a27d6	-0.053260647
47	0xbcf5cece	-0.030005839
48	0xbd50f698	-0.05101642
49	0x3d92f5cd	0.07175789
50	0x3ba0da20	0.004908815
51	0xbcea0610	-0.028567344
52	0xbda133db	-0.07871219
53	0xbbd76540	-0.0065733492
54	0xbc452e98	-0.012035035
55	0x3ce3b978	0.0277984
56	0x3c9ae1ac	0.018906437
57	0x3db4ac4b	0.08821925
58	0x3d80c41f	0.06287407
59	0xbd978efb	-0.07400318
60	0xbbb4f4c0	-0.0055223405
61	0x3d04f422	0.032459386
62	0xbd3603dc	-0.044437274
63	0xbd0b594b	-0.034020703
64	0xbd9ec660	-0.07752681
65	0xbd9c7fd3	-0.07641568
66	0x3cfa1c20	0.03053099
67	0xbdb0f03b	-0.0863957
68	0xbd3e96e0	-0.046530604
69	0xbc8f52ac	-0.017495476
70	0xbd649c63	-0.055813204
71	0x3dae1b53	0.085013054
72	0xbd69fda2	-0.05712665
73	0xbd5cb596	-0.05388411
74	0x3d051ebc	0.032500014
75	0x3d8273d5	0.063697495
76	0xbca715b0	-0.020396084
77	0xbdb2000f	-0.086914174
78	0x3c76f3c0	0.015072763
79	0x3da3a035	0.079895414
80	0x3b2be420	0.0026228502
81	0xbac2c880	-0.0014860779
82	0xbc9585e0	-0.018252313
83	0xbd0fa297	-0.035067167
84	0xbcfefaae	-0.031125393
85	0x3db0410f	0.08606159
86	0xba213900	-0.0006150156
87	0xbd140ec5	-0.036146898
88	0x3d9190eb	0.07107719
89	0xbb550b00	-0.0032507777
90	0x3cad2bb0	0.021138996
91	0xbd9f6094	-0.07782093
92	0x3c976d28	0.018484667
93	0x3d94c121	0.07263399
94	0xbd2141ff	-0.03936958
95	0x3d5496c6	0.0519016
96	0x3d892505	0.06696514
97	0xbb903750	-0.004401125
98	0xbd3ef28e	-0.046618037
99	0xbd7a62a4	-0.061129227
100	0x3d8657cb	0.06559714
101	0xbd8d5832	-0.069015875
102	0xbd117bae	-0.03551834
103	0x3d948efd	0.07253835
104	0x3d3265f2	0.043554254
105	0xbd1ec9e1	-0.038766745
106	0xbcd508f0	-0.026005238
107	0x3d98b12f	0.0745567
108	0xbd959f40	-0.07305765
109	0xbaf08500	-0.0018350184
110	0x3a188f00	0.00058196485
111	0xbce188e8	-0.027531102
112	0x3d828ef5	0.06374923
113	0xbc96bb88	-0.018399969
114	0x3ca7bb38	0.020475015
115	0xbd24175b	-0.040061336
116	0xbcbe2c70	-0.023214549
117	0xbd044dff	-0.032300945
118	0xbc8bb610	-0.017054588
119	0x3d6145f2	0.054998346
120	0x3d9eb1d7	0.07748764
121	0x3da44cb1	0.0802244
122	0xbc432a38	-0.011911921
123	0x3c9bec44	0.019033559
124	0x3d335cbe	0.043789618
125	0x3cde925c	0.027169399
126	0x3d4e50ba	0.050369956
127	0x3c1811a0	0.009281546
128	0xbd8255db	-0.06364032
129	0xbcb74988	-0.02237393
130	0x3b55a760	0.0032600984
131	0xbd467810	-0.048454344
132	0xbd534c85	-0.051586647
133	0x3d9955d3	0.07487073
134	0xbd7a211a	-0.061066724
135	0xbd8deed3	-0.06930318
136	0x3c6c7118	0.0144312605
137	0xbd3ab8a3	-0.04558624
138	0xbdad9e1e	-0.08477424
139	0xbda295f9	-0.07938761
140	0xbc2dbee8	-0.010604598
141	0xbcdde418	-0.027086303
142	0xbcc467ac	-0.023975216
143	0x3c07bf80	0.008285403
144	0x3d7ea9de	0.062173717
145	0x3d0ed51c	0.034871206
146	0xbdaa6a87	-0.083211
147	0xbd7fbc46	-0.06243541
148	0x3d4aef02	0.04954434
149	0x3d8946f5	0.06702987
150	0x3d9c503f	0.07632493
151	0xbd586ddc	-0.052839145
152	0xbcb1b9dc	-0.02169507
153	0x3ccd2f4c	0.025046967
154	0x3d06afe8	0.0328826
155	0x3d3a640e	0.045505576
156	0xbdaeca18	-0.0853464
157	0xbc6433c0	-0.013928354
158	0xbc425638	-0.011861376
159	0x3d32e1d6	0.043672405
160	0xbda7ed8a	-0.08199604
161	0x3d066e7a	0.032820202
162	0xbcc9520c	-0.024575256
163	0x3d38934a	0.04506234
164	0x3d38807e	0.045044415
165	0x3d4245ea	0.047429956
166	0x3c82aed0	0.015952498
167	0x3d323872	0.04351086
168	0xbc806edc	-0.015677862
169	0xbd70f4f2	-0.058827348
170	0xbd2eb50b	-0.042653125
171	0x3d7dbe6a	0.06194917
172	0x3d9e4707	0.07728391
173	0x3bd804f0	0.0065923855
174	0xbd823462	-0.063576475
175	0x3d75c3ce	0.060001187
176	0x3d9cca61	0.07655788
177	0xbd997bcd	-0.07494316
178	0x3daaa10b	0.08331498
179	0x3d8905e1	0.066905744
180	0xbd5c44ce	-0.053776555
181	0x3c714808	0.014726646
182	0xbd7dc51a	-0.06195555
183	0xbd64ab4b	-0.05582742
184	0x3d343bb2	0.044002242
185	0x3d8fc0d5	0.07019202
186	0xbdb0400a	-0.086059645
187	0x3d875267	0.06607514
188	0xbc85c468	-0.016329005
189	0x3d77fac2	0.060541876
190	0x3d2507b2	0.040290542
191	0x3d9b144f	0.07572233
192	0xbd238c33	-0.039928626
193	0xbc88a0f4	-0.01667831
194	0x3d517646	0.051138185
195	0xbc8d4c54	-0.01724831
196	0x3cc3d824	0.023906775
197	0xbda2bda7	-0.079463296
198	0x3cc08a7c	0.023503534
199	0xbd5ef83c	-0.054435953
200	0xbdacc0ab	-0.08435186
201	0x3ad9af00	0.001660794
202	0xbbffb3e0	-0.007803425
203	0x3bdbf780	0.006712854
204	0xbd6d9eea	-0.05801288
205	0x3d5be406	0.053684257
206	0xbd51aff5	-0.051193196
207	0x3c5881d0	0.013214543
208	0x3d05a108	0.032624274
209	0x3cea7a1c	0.02862268
210	0xbd836b99	-0.06417007
211	0xbd9cb06f	-0.076508395
212	0x3d348e62	0.0440811
213	0xbcadcda0	-0.021216214
214	0xbcd3fb48	-0.025876656
215	0x3ca1a110	0.01973012
216	0xbd663bb7	-0.056209292
217	0x3d29cdf6	0.041456185
218	0xbca2d1dc	-0.01987546
219	0xbd5ea964	-0.054360762
220	0xbd1dfd97	-0.03857192
221	0x3c82d258	0.01596944
222	0x3c138870	0.009004697
223	0xbabde140	-0.0014486685
224	0xbcfdbac2	-0.030972842
225	0xbd99d4b3	-0.07511272
226	0x3c9571a4	0.018242665
227	0xbd2b5cf6	-0.0418367
228	0xbd635b05	-0.055506725
229	0xbd09deb7	-0.033659663
230	0xbd22c0b8	-0.039734572
231	0xbd44ced9	-0.048048828
232	0xbbe08ee0	-0.0068529695
233	0xbd7751ec	-0.06038086
234	0x3d2c9866	0.042137526
235	0x3d524592	0.05133588
236	0x3c2a0960	0.010378212
237	0xbd0bafb4	-0.03410311
238	0x3d51f106	0.05125525
239	0xbda9764c	-0.082745165
240	0x3d999d45	0.075007
241	0x3d637cd2	0.05553896
242	0xbd7b314c	-0.06132631
243	0xbda67110	-0.08127034
244	0x399b8900	0.00029665977
245	0xbd9fc6aa	-0.07801564
246	0x3d95e257	0.073185615
247	0x3d9aa71f	0.07551407
248	0x3cf26240	0.029587865
249	0xbd8dab50	-0.06917441
250	0x3d7c0a52	0.06153328
251	0x3d4ae4d6	0.04953464
252	0xbd7e2fa8	-0.062057167
253	0xbd080390	-0.033206522
254	0xbd2cf9f7	-0.042230573
255	0xbd9d6932	-0.0768608

2.bias f4 [128]
0	0x3da0e9eb	0.07857116
1	0xbda5e848	-0.08100945
2	0x3befb610	0.0073154047
3	0x3d08723e	0.033312075
4	0xbd076964	-0.033059493
5	0x3d419cca	0.047268666
6	0xbcd00930	-0.025395006
7	0x3d175296	0.036943994
8	0xba151e00	-0.0005688369
9	0xbd1ae8e1	-0.037819747
10	0xbd801568	-0.06254083
11	0x3db45a69	0.08806307
12	0xbd6de282	-0.058077343
13	0xbc3cac20	-0.011515647
14	0x3bcc1330	0.0062278733
15	0x3d0918ac	0.033470795
16	0x3d5d6dce	0.054059796
17	0xbd909a59	-0.070606895
18	0xbd564acd	-0.05231743
19	0xbd47d0c1	-0.048783068
20	0xbdadfdd9	-0.08495683
21	0xbd5e5120	-0.054276586
22	0x3d56ee62	0.052473433
23	0xbd8aaa98	-0.067708194
24	0x3d2a14c2	0.041523702
25	0xbd5056ab	-0.050863903
26	0x3d5def0a	0.054183044
27	0x3d29d416	0.041462027
28	0xbbf626d0	-0.007511951
29	0xbd3d5b2d	-0.04622953
30	0xbd801006	-0.06253056
31	0xbc1e1f90	-0.00965108
32	0xbcbae868	-0.022815898
33	0x3da99cbd	0.082818486
34	0xbd376233	-0.044771384
35	0x3cdc6fac	0.026908718
36	0x3d79ff82	0.061034687
37	0xbd86f6d5	-0.06590048
38	0x3daaffaf	0.08349549
39	0xbc89cdb0	-0.016821712
40	0x3b9b3180	0.0047361255
41	0x3da67913	0.08128562
42	0xbc246758	-0.010034405
43	0xbd9815b9	-0.07426018
44	0xbc7d7480	-0.01546967
45	0x3b145380	0.0022632778
46	0xbbf46df0	-0.0074593946
47	0xbd9c7042	-0.07638599
48	0xbd956006	-0.07293706
49	0x3c4212d0	0.011845306
50	0x3d307ece	0.04308968
51	0xbd632539	-0.05545542
52	0x3d9ccef1	0.076566584
53	0x3ca71df8	0.020400032
54	0xbc987488	-0.018610254
55	0xbcfdc996	-0.030979913
56	0x3cc656e4	0.024211355
57	0x3d849885	0.06474403
58	0x3d97d229	0.07413132
59	0xbd81ba14	-0.0633432
60	0x3beb2b30	0.007176779
61	0xbd07d753	-0.033164334
62	0x3d9c5943	0.07634213
63	0xbc142268	-0.009041406
64	0xbda03bd4	-0.07823911
65	0xbd79c528	-0.06097904
66	0x3c4fafa0	0.01267615
67	0xbcf63138	-0.030052766
68	0x3d541882	0.051781185
69	0xbda2fa17	-0.07957857
70	0x3d622bd2	0.05521757
71	0x3d3c9a0e	0.046045355
72	0x3d952da7	0.07284098
73	0xbd245053	-0.040115666
74	0x3d88eb6f	0.066855304
75	0x3d8fc4b9	0.07019944
76	0x3d32478a	0.043525256
77	0x3d1139f0	0.035455644
78	0xbd3771de	-0.044786327
79	0xbd3664d3	-0.044529747
80	0x3d9fef67	0.07809334
81	0x3c7c91d8	0.015415631
82	0xbdae89ab	-0.08522352
83	0x3d70f90e	0.058831267
84	0x3c1f7b28	0.009733953
85	0x3da8679b	0.08222886
86	0xbd907a18	-0.070545375
87	0xbca6d0e0	-0.020363271
88	0xbd8fde79	-0.07024855
89	0x3ce7620c	0.028244995
90	0x3d0fe1ae	0.035127334
91	0xbd81b1cc	-0.0633274
92	0x3db48997	0.08815306
93	0x3b40f980	0.0029445589
94	0x3d93a47d	0.07209108
95	0x3c1788b8	0.009248905
96	0x3d2c67ee	0.042091303
97	0x3d906ecd	0.070523836
98	0x3cc78f4c	0.024360321
99	0xbd176927	-0.036965515
100	0xbd928830	-0.07154882
101	0x3d07db50	0.033168137
102	0xbd989293	-0.07449832
103	0xbd04b897	-0.0324026
104	0xbbf702f0	-0.007538192
105	0xbb89fc90	-0.004211016
106	0xbd9fd6b5	-0.07804624
107	0x3a7a7000	0.00095534325
108	0xbd3149c5	-0.043283243
109	0x3d90bf9f	0.07067799
110	0x3d9eaecb	0.07748183
111	0x3ca89e88	0.020583406
112	0xbd33cbb6	-0.043895446
113	0xbce94512	-0.028475318
114	0xbd950c52	-0.072777405
115	0xbc43aac8	-0.011942573
116	0x3d93c7ab	0.07215818
117	0xbd93fea7	-0.072263055
118	0xbd9a2506	-0.07526593
119	0x3cd9b68c	0.026576303
120	0x3d97ff29	0.07421715
121	0x3d5e5b62	0.05428637
122	0x3daebf61	0.085325964
123	0x3d3363fe	0.04379653
124	0x3d4be88e	0.04978233
125	0xbd9149d0	-0.07094157
126	0x3d63e056	0.055633865
127	0xbcd9bd5c	-0.026579551

4.weight f4 [64, 128]
0	0x3ba48400	0.0050206184
1	0x3d53c242	0.05169893
2	0x3d0c536a	0.034259237
3	0x3d8ce6c9	0.06879956
4	0x3cea04a8	0.028566673
5	0x3d910055	0.070801415
6	0xbd0443b8	-0.032291144
7	0x3c362238	0.011116557
8	0xbd7133f4	-0.058887437
9	0x3d48144a	0.048847474
10	0xbd7f8746	-0.062384866
11	0xbd884d3c	-0.06655356
12	0x3d29a3f2	0.041416116
13	0xbd49c087	-0.049255874
14	0xbd5d5198	-0.054032892
15	0x3cbc575c	0.022990875
16	0xbd204e01	-0.03913689
17	0x3cae03f4	0.02124212
18	0xbdb07053	-0.08615174
19	0xbc6f1ca8	-0.0145942345
20	0x3cf30714	0.029666461
21	0x3d9255b3	0.07145252
22	0xbd04423a	-0.03228972
23	0xbbfa8430	-0.0076451525
24	0x3db15059	0.08657903
25	0xbda12238	-0.07867855
26	0x3dacc15f	0.0843532
27	0xbd2090ab	-0.039200466
28	0xbd4c403f	-0.049865957
29	0xbd95010c	-0.0727559
30	0xbba705b0	-0.0050971135
31	0xbc9b85a0	-0.018984616
32	0x3d4b3ad2	0.049616642
33	0x3d20f61a	0.0392972
34	0xbd2924c4	-0.041294828
35	0x3d278d9e	0.04090654
36	0x3d5b983e	0.053611986
37	0x3d8447d3	0.06459012
38	0x3b120be0	0.002228491
39	0x3cb958d0	0.022625357
40	0xbb8ac560	-0.0042349547
41	0x3d7a8072	0.06115765
42	0x3dadc277	0.08484357
43	0x3d7811d6	0.060563885
44	0x3d8f7b71	0.070059665
45	0x3d4487ea	0.04798118
46	0xbda76c67	-0.08174973
47	0xbbad53b0	-0.0052895173
48	0x3bc64860	0.0060511082
49	0xbd5c115d	-0.053727496
50	0x3c2b5f58	0.010459743
51	0x3cdeba0c	0.027188323
52	0x3d382f26	0.04496684
53	0x3d083a1e	0.03325855
54	0xbd45cab0	-0.048289
55	0xbd1fbc3d	-0.038997877
56	0x3cfa18d8	0.030529425
57	0x3d90d729	0.070722885
58	0xbda6c487	-0.08142953
59	0x3d6e38d2	0.058159657
60	0x3c425968	0.011862136
61	0x3d028772	0.031867452
62	0x3dab6915	0.08369652
63	0xbd914eec	-0.07095131
64	0x3da44351	0.08020652
65	0xbd07142c	-0.03297822
66	0xbcd352bc	-0.025796287
67	0xbd941ce9	-0.07232077
68	0x3d2f0dd2	0.04273779
69	0xbd81f8d8	-0.06346291
70	0x3d041cc6	0.032254003
71	0x3d6ae63e	0.057348482
72	0xbd8cb162	-0.068697706
73	0x3c9a6f88	0.01885201
74	0x3d5e91da	0.054338314
75	0x3d452866	0.04813423
76	0x3cb87470	0.02251646
77	0x3d13e830	0.036110103
78	0xbca57708	-0.02019836
79	0x3c4cdeb0	0.012504265
80	0x3d8a2c5d	0.06746743
81	0xbd127e3f	-0.03576493
82	0xbc003418	-0.00782492
83	0xbd17c607	-0.037054088
84	0xbd922672	-0.07136239
85	0xbdae4e25	-0.08510999
86	0xbd6e96e6	-0.058249377
87	0xbd400d28	-0.046887547
88	0x3be31c00	0.006930828
89	0xbceb3328	-0.028710917
90	0xbd7a2bc4	-0.061076894
91	0x3c527bf8	0.012846939
92	0xbd8a2a68	-0.067463696
93	0x3d4b8bae	0.049693756
94	0xbd612bd4	-0.05497344
95	0xbd415108	-0.047196418
96	0x3c6c55f8	0.014424793
97	0xbdab1cfe	-0.08355139
98	0x3d221eba	0.039580084
99	0x3b3e16e0	0.0029005334
100	0xbd772978	-0.060342282
101	0xbc18a908	-0.009317644
102	0x3c117000	0.008876801
103	0x3d8305f3	0.06397619
104	0xbd5a8c22	-0.053356297
105	0x39051a00	0.00012693554
106	0x3c0a9b80	0.008459926
107	0xbc511008	-0.01276017
108	0x3ba9da90	0.0051835254
109	0x3d866477	0.06562131
110	0x3ccb5014	0.024818458
111	0xbd465688	-0.048422366
112	0x3db00281	0.085942276
113	0x3cfabb80	0.030606985
114	0x3d589946	0.052880548
115	0x3db3e881	0.08784581
116	0x3d70d78a	0.058799304
117	0xbd896644	-0.06708959
118	0xbd7e9c1c	-0.062160596
119	0x3c6f7780	0.014615893
120	0xbd888430	-0.06665838
121	0xbd4d4f6f	-0.050124582
122	0xbda7a128	-0.08185035
123	0x3da34779	0.07972617
124	0xbdaa2c36	-0.08309214
125	0x3d7806a6	0.060553215
126	0xbd9f6de8	-0.07784635
127	0xbd60792d	-0.054803062
128	0xbd97aaf9	-0.07405657
129	0x3da8ffa3	0.08251884
130	0x3d97e495	0.074166454
131	0xbd7e8e60	-0.062147498
132	0xbda608ff	-0.081071846
133	0xbcea5d9c	-0.02860909
134	0xbca36568	-0.019945815
135	0x3c17ed78	0.009272926
136	0x3da7fb1b	0.082021914
137	0x3dab3569	0.083597966
138	0x3da10e51	0.07864059
139	0x3d8e520b	0.06949242
140	0x3d3f548a	0.046711482
141	0x3da24ea7	0.07925158
142	0x3d0b3220	0.03398335
143	0xbccaf9b8	-0.024777278
144	0x3d414b8a	0.04719118
145	0x3d19f18e	0.03758388
146	0xbd3b026f	-0.045656618
147	0xbd607371	-0.054797594
148	0xbd4f0f88	-0.05055192
149	0x3d99db61	0.07512546
150	0xbda336c7	-0.07969432
151	0x3be89210	0.00709749
152	0x3ce3e07c	0.027817003
153	0xbd8a0015	-0.06738297
154	0xbd7945f4	-0.060857728
155	0xbd074aff	-0.033030506
156	0x3dafc599	0.08582611
157	0x3d6003de	0.054691188
158	0xbda5040d	-0.08057413
159	0xbce85900	-0.028362751
160	0xbc9e4b3c	-0.019322984
161	0xbc390598	-0.011292838
162	0x3b55fbc0	0.0032651275
163	0xbd0e991e	-0.034813993
164	0x3ca01318	0.019540355
165	0xbc429b90	-0.011877909
166	0x3d3df6b6	0.04637786
167	0x3d2c506e	0.04206889
168	0x3d337c4e	0.043819718
169	0x3ca8def8	0.020614132
170	0x3ad16080	0.0015974194
171	0x3cdb885c	0.02679842
172	0x3c25ebe8	0.010127045
173	0x3c5b6fd8	0.013393365
174	0xbd01f346	-0.031726144
175	0x39d91900	0.00041408092
176	0x3c891a64	0.016736217
177	0xbd5c6629	-0.053808365
178	0x3c9c7364	0.019097991
179	0xbd9a4d84	-0.07534316
180	0x3b8b7fd0	0.00425718
181	0x3d7eb32a	0.062182583
182	0x3d551a12	0.052026816
183	0xbcb170bc	-0.021660201
184	0x3da0f077	0.07858365
185	0xbda46a75	-0.080281176
186	0x3d5723aa	0.052524246
187	0xbb5d0f20	-0.003373094
188	0xbd7db572	-0.061940618
189	0x3d5c30d2	0.053757496
190	0x3c0c15d8	0.00855013
191	0xbd88a9d5	-0.06673018
192	0xbd2f325e	-0.042772643
193	0xbd8604f4	-0.065439135
194	0x3d5fbe02	0.054624565
195	0x3cf32788	0.029681936
196	0x3d87cd43	0.066309474
197	0xbd765678	-0.060141057
198	0xbd180c35	-0.037121017
199	0xbc908fa0	-0.01764661
200	0xbd32672a	-0.043555416
201	0x3cc9b244	0.024621136
202	0xbd9dd67c	-0.07706925
203	0x3c2d2188	0.0105670765
204	0x3cb5f23c	0.022210233
205	0x3d993a59	0.07481832
206	0x3d778ec2	0.06043888
207	0xbd330186	-0.043702625
208	0x3c2774c0	0.010220706
209	0xbcc408cc	-0.023929976
210	0xbd6946a8	-0.05695215
211	0x3c70e900	0.014703989
212	0xbda0af88	-0.0784598
213	0xbc478cd8	-0.012179576
214	0x3d6cc06a	0.057800688
215	0xbd8951ad	-0.067050315
216	0x3c2e0188	0.010620482
217	0x3cc4b868	0.024013713
218	0xbc7e7ff0	-0.015533432
219	0xbbde4990	-0.0067836717
220	0x3da831ab	0.082125984
221	0xbdb006fa	-0.08595081
222	0xbd8c2b4e	-0.06844197
223	0xbccf0498	-0.025270745
224	0xbdaef457	-0.08542698
225	0x3c63fd90	0.0139154345
226	0x3d136572	0.035985418
227	0xbbe08230	-0.006851457
228	0x3db31b99	0.08745498
229	0xbc456448	-0.012047835
230	0x3cdd7ed8	0.027038023
231	0x3aa1a5c0	0.0012332723
232	0xbd987688	-0.07444483
233	0xbc89bfdc	-0.016815118
234	0x3d92f491	0.071755536
235	0xbd5db140	-0.054124117
236	0x3c9b7ea4	0.018981285
237	0xbd2658d5	-0.04061206
238	0x3bec3c60	0.0072093457
239	0x3d9c471d	0.07630751
240	0xbd9cbc42	-0.07653095
241	0xbd641845	-0.055687208
242	0xbcab1648	-0.020884648
243	0xbc74b020	-0.01493457
244	0xbd6d14eb	-0.057881277
245	0xbda917c7	-0.08256488
246	0x3da52c53	0.08065095
247	0x3be26230	0.0069086775
248	0x3c35c718	0.011094831
249	0xbd7cf654	-0.061758354
250	0x3d331f52	0.04373104
251	0xbcee852a	-0.029116232
252	0x3c9783f8	0.018495545
253	0x3ce875c8	0.028376475
254	0xbbdfe5d0	-0.0068328157
255	0xbd95b897	-0.07310598

4.bias f4 [64]
0	0x3d8513bd	0.064979054
1	0xbc8e8254	-0.01739613
2	0xbd851318	-0.064977825
3	0x3cc2a718	0.023761317
4	0x3daa6fd1	0.083221085
5	0xbd82949f	-0.063760035
6	0xbc9b866c	-0.018984996
7	0x3c4ba7c8	0.012430139
8	0xbd1f74bb	-0.038929682
9	0x3d819445	0.06327108
10	0x3d162f56	0.036666237
11	0x3d9f8417	0.07788866
12	0x3db2a5a5	0.087230004
13	0x3da6bc11	0.081413396
14	0x3d96608b	0.07342633
15	0xbcbf90ec	-0.023384534
16	0xbd895dbf	-0.06707334
17	0x3d87fd2b	0.06640085
18	0xbd46245f	-0.04837453
19	0x3d49fef2	0.0493154
20	0x3bf16bf0	0.0073676035
21	0xbcadef5c	-0.0212323
22	0x3cd3a1a4	0.025833912
23	0xbc3d72f0	-0.011563048
24	0x3c05b348	0.00816042
25	0x3cab4f98	0.020911977
26	0x3d19266e	0.037390165
27	0xbc52cfe8	-0.0128669515
28	0xbbf41900	-0.0074492693
29	0x3d252cde	0.04032599
30	0x3bcee900	0.006314397
31	0x3d089200	0.03334236
32	0xbd13d0c6	-0.036087774
33	0x3d9b0285	0.0756884
34	0x3cde623c	0.027146451
35	0x3b9002b0	0.0043948516
36	0x3d8e1c17	0.069389515
37	0xbd6d56d8	-0.05794415
38	0xbcecfa18	-0.028927848
39	0xbd9a5bc7	-0.075370364
40	0x3d731172	0.05934281
41	0x3c6b1fc0	0.0143508315
42	0xbcf4f5c4	-0.029902346
43	0x3dae4115	0.08508507
44	0x3d5cc8e2	0.053902514
45	0xbd9d8abb	-0.07692476
46	0xbdb2cc7e	-0.0873041
47	0xbc8f0198	-0.017456815
48	0xbd24025d	-0.040041316
49	0xbd5f80dc	-0.05456625
50	0x3bd247e0	0.0064172596
51	0xbb8b7f70	-0.004257135
52	0xbc83df34	-0.016097642
53	0xba9165c0	-0.0011092946
54	0x3d8a8d57	0.0676524
55	0xbda75c28	-0.08171874
56	0x3d7094fe	0.05873584
57	0xbc6bf9e8	-0.014402844
58	0xbd3d7184	-0.046250835
59	0x3d33d09a	0.04390011
60	0x3cc7ba94	0.02438096
61	0xbc62c3c8	-0.013840623
62	0xbd90f720	-0.07078385
63	0xbc368fb0	-0.011142656

0.weight f4 [128, 64]
0	0xbdece640	-0.11567354
1	0xbe24729e	-0.16059348
2	0xbded58a3	-0.11589172
3	0xbd39ba10	-0.04534346
4	0xbd96e286	-0.07367425
5	0xbe0cef6f	-0.13763212
6	0xbdb4840b	-0.08814248
7	0x3d6c0b81	0.05762816
8	0x3e3d0496	0.1845878
9	0xbd7b3809	-0.061332736
10	0x3dbb6811	0.091507085
11	0xbcd0bc7f	-0.025480507
12	0xbe85c9b0	-0.26130438
13	0x3e82b555	0.2552897
14	0xbdf20a27	-0.11818343
15	0x3e1ef6c2	0.15523818
16	0x3d7fefb3	0.062484454
17	0x3e53f538	0.20699012
18	0xbe5ce5cc	-0.21572036
19	0x3db6dcde	0.08928846
20	0x3dc5ce9d	0.09658549
21	0xbdfa0741	-0.12208415
22	0x3dcd9b67	0.10039406
23	0xbde27ac0	-0.11058569
24	0xbd1df86a	-0.038566984
25	0xbdfe1841	-0.1240697
26	0xbd42d8ba	-0.047569968
27	0xbda5a2ee	-0.08087717
28	0x3b9ae048	0.0047264434
29	0xbdb35ff0	-0.08758533
30	0x3df12140	0.1177392
31	0x3d89019a	0.066897586
32	0x3de23ba4	0.11046532
33	0xbdfb79ca	-0.12279089
34	0xbdc58ba8	-0.09645778
35	0x3d29d238	0.041460246
36	0x3c6ac8be	0.014330087
37	0x3a7dd4a6	0.0009682871
38	0x3deabbe4	0.114616185
39	0x3c9d2336	0.019181829
40	0xbe0c25d9	-0.13686313
41	0xbe606d9b	-0.21916811
42	0x3c8e06d3	0.017337238
43	0xbe1a2a2c	-0.1505515
44	0x3e144356	0.14478812
45	0x3e27f3f7	0.16401659
46	0xbe2beff4	-0.16790754
47	0xbd31d8ac	-0.043419525
48	0xbd729e07	-0.059232738
49	0x3cd71e55	0.02625958
50	0xbd0a4644	-0.033758417
51	0xbe421426	-0.18952999
52	0xbd3e54e6	-0.046467684
53	0x3cd85455	0.0264074
54	0x3d02e42d	0.031955887
55	0xbe00cc37	-0.12577902
56	0x3d5e8bea	0.05433265
57	0xbd8c34b6	-0.06845991
58	0xbde2fdc8	-0.11083561
59	0xbe20f971	-0.15720154
60	0xbbc71863	-0.006075905
61	0xbe104386	-0.14088258
62	0xbdd7971a	-0.10526867
63	0xbe659b2c	-0.22422475
64	0x3dbb2b8e	0.09139167
65	0xbd4cd0ad	-0.050003696
66	0xbc5f9d1c	-0.013648298
67	0xbe06d65d	-0.1316771
68	0xbd88c66c	-0.06678471
69	0xbdcbdc67	-0.09954148
70	0xbe8a05d4	-0.26957572
71	0x3d90bba9	0.07067043
72	0xbd8db827	-0.0691989
73	0x3d38ae0b	0.045087855
74	0xbe155278	-0.1458224
75	0xbc2b0327	-0.010437763
76	0x3e023cbf	0.12718485
77	0xbe808707	-0.25103018
78	0xbe85e896	-0.2615401
79	0xbdb655ee	-0.089031085
80	0x3c432575	0.011910786
81	0xbe27b06b	-0.16375892
82	0x3debcc94	0.115136296
83	0xbe3f83a2	-0.18702558
84	0x3d32ff93	0.043700766
85	0xbe3f0eb9	-0.1865796
86	0x3ea2a910	0.3176961
87	0xbdca8472	-0.09888543
88	0xbd71be48	-0.059019357
89	0xbdb29c7d	-0.08721254
90	0xbcfa9617	-0.030589147
91	0x3e2ef503	0.17085652
92	0xbdae02c1	-0.08496619
93	0xbda8f135	-0.082491316
94	0xbd807586	-0.06272416
95	0x3d66b0c4	0.05632092
96	0xbde5c8fc	-0.11219975
97	0x3d100b15	0.03516682
98	0x3e1ef512	0.15523174
99	0x3e4b2b5f	0.19840764
100	0x3cfa6768	0.030566886
101	0x3de3e650	0.11127913
102	0xbe1e3dfb	-0.15453331
103	0x3e19d8d0	0.15024114
104	0xbe319a39	-0.17343988
105	0x3daf17bc	0.08549449
106	0xbd18e244	-0.03732516
107	0x3d1b3237	0.037889685
108	0xbd8c568c	-0.06852445
109	0x3d03191c	0.032006368
110	0xbe980601	-0.2969208
111	0xbda85984	-0.08220199
112	0x3dcc3a25	0.09972028
113	0x3c7fc7fe	0.015611647
114	0xbcb63e8e	-0.022246625
115	0xbdbf9f36	-0.09356539
116	0xbd9dd246	-0.07706122
117	0x3d943644	0.07236913
118	0x3c76406a	0.015030006
119	0x3d904c53	0.07045808
120	0x3d059afa	0.0326185
121	0xbe6c939d	-0.23103185
122	0x3cb41f7a	0.021987665
123	0xbe304694	-0.17214423
124	0x3ea062d8	0.31325412
125	0x3dc870af	0.09787118
126	0x3d7792c9	0.06044272
127	0x3d10b665	0.035330195
128	0x3e339b9b	0.17539828
129	0x3e1165e9	0.14199032
130	0xbde714bb	-0.11283251
131	0xbe376919	-0.17911185
132	0xbd581570	-0.05275482
133	0x3e3b0b4e	0.18266031
134	0x3cdce006	0.026962291
135	0x39d8a180	0.00041319057
136	0x3e0e44e3	0.13893466
137	0xbe0bb169	-0.13641895
138	0xbcd9181a	-0.02650075
139	0x3da9c0ee	0.082887515
140	0xbdccd91c	-0.10002348
141	0xbe496490	-0.19667268
142	0x3c65bd38	0.014022164
143	0xbe5e1658	-0.21688211
144	0xbe816322	-0.25270945
145	0xbdcc87a6	-0.099868104
146	0xbdfaebb7	-0.1225199
147	0xbe2b5f30	-0.1673553
148	0x3c2fb584	0.010724429
149	0x3cbd5837	0.023113353
150	0x3d818bf6	0.063255236
151	0x3c1b529c	0.009480145
152	0x3e8ea018	0.27856517
153	0x3dbae449	0.09125573
154	0xbd380dab	-0.04493491
155	0xbdbaed98	-0.09127349
156	0x3d87b639	0.06626553
157	0x3d8c9f45	0.06866316
158	0x3e049f6e	0.12951443
159	0x3e2f8b96	0.17143092
160	0x3e3b3f36	0.18285832
161	0xbd31bb95	-0.043391783
162	0xb9de2d86	-0.00042377057
163	0x3d05e9f2	0.03269381
164	0xbd9f33ac	-0.077735275
165	0xbe0f2724	-0.13979775
166	0x3e92b08a	0.28650314
167	0xbd7d5fbe	-0.061858885
168	0x3e2f62f4	0.17127591
169	0xbdd0e453	-0.101997994
170	0x3bdc3964	0.0067207087
171	0x3e6fcfd9	0.23419131
172	0xbd4217b8	-0.0473859
173	0x3c9adde4	0.018904634
174	0xbd5cd4fa	-0.053914048
175	0x3da10aa3	0.07863357
176	0x3e014a8f	0.12626098
177	0xbdd06057	-0.10174625
178	0x3d05f33d	0.032702673
179	0xbd2ebd78	-0.04266116
180	0xbda98c91	-0.08278764
181	0xbc59f1f9	-0.01330232
182	0x3dd39d43	0.1033273
183	0xbe4beb73	-0.19914035
184	0xbe0e8e11	-0.13921382
185	0xbdf88000	-0.12133789
186	0xbdff7292	-0.124730244
187	0xbd9dcf31	-0.07705534
188	0x3dca7767	0.098860554
189	0xbca8ab4f	-0.020589499
190	0x3dacf47d	0.0844507
191	0x3e46b66a	0.19405523
192	0x3e133e43	0.1437922
193	0xbe96fda9	-0.29490402
194	0x3e4a1753	0.1973546
195	0x3d42ae4d	0.047529507
196	0xbde1bdd9	-0.11022539
197	0x3e227865	0.1586624
198	0xbb9421c8	-0.0045206286
199	0xbe764e2b	-0.24053256
200	0x3dbea1f8	0.09308237
201	0xbda0f1cf	-0.07858621
202	0x3e68a846	0.22720441
203	0xbd617a8d	-0.055048514
204	0x3cd02a5d	0.025410825
205	0x3e534a4e	0.20633814
206	0xbe6a9486	-0.2290822
207	0xbe0378e2	-0.12839082
208	0x3e0ab423	0.13545279
209	0xbd516cc8	-0.051129133
210	0xbc999405	-0.018747339
211	0xbcecb12b	-0.028893074
212	0x3b17ce43	0.0023163713
213	0xbd9d3552	-0.07676186
214	0xbc2576a2	-0.010099085
215	0x3d8fe7f7	0.07026666
216	0xbd5a59db	-0.05330835
217	0xbe84b968	-0.25922704
218	0xbd9ffeda	-0.07812281
219	0xbdd90f6f	-0.10598647
220	0x3d9195a7	0.07108622
221	0xbe0fadcb	-0.1403114
222	0xbde61750	-0.11234915
223	0xbd16a262	-0.036775954
224	0xbe3f4dc7	-0.18682013
225	0xbcff60f0	-0.031174153
226	0x3e493a52	0.19651154
227	0xbc94bf59	-0.018157648
228	0x3e2d177d	0.16903491
229	0x3d194b5c	0.037425384
230	0x3dfdb132	0.12387313
231	0x3dad034e	0.08447896
232	0xbe2a0cbc	-0.1660642
233	0x3d502601	0.050817493
234	0x3cc17127	0.023613526
235	0xbcf2467d	-0.029574627
236	0xbd8c2862	-0.0684364
237	0xbe1d076e	-0.15334865
238	0xbe2b1240	-0.1670618
239	0x3ebd3895	0.3695723
240	0x3dd08231	0.10181082
241	0xbdc1082c	-0.09425387
242	0xbdd7abc5	-0.10530809
243	0x3e808496	0.25101155
244	0xbc9e2ea2	-0.019309346
245	0xbd92aae4	-0.07161501
246	0x3e3aaa1e	0.18228957
247	0xbd1bf538	-0.038075656
248	0x3e0ba14f	0.13635753
249	0xbd8f585f	-0.06999277
250	0xbcd2ebf2	-0.025747273
251	0x3dc4c09a	0.09607048
252	0xbe2046d2	-0.15652016
253	0xbd51cc73	-0.05122037
254	0xbd40680f	-0.046974238
255	0xbe0a01b8	-0.13477218

0.bias f4 [128]
0	0x00000000	0.0
1	0x00000000	0.0
2	0x00000000	0.0
3	0x00000000	0.0
4	0x00000000	0.0
5	0x00000000	0.0
6	0x00000000	0.0
7	0x00000000	0.0
8	0x00000000	0.0
9	0x00000000	0.0
10	0x00000000	0.0
11	0x00000000	0.0
12	0x00000000	0.0
13	0x00000000	0.0
14	0x00000000	0.0
15	0x00000000	0.0
16	0x00000000	0.0
17	0x00000000	0.0
18	0x00000000	0.0
19	0x00000000	0.0
20	0x00000000	0.0
21	0x00000000	0.0
22	0x00000000	0.0
23	0x00000000	0.0
24	0x00000000	0.0
25	0x00000000	0.0
26	0x00000000	0.0
27	0x00000000	0.0
28	0x00000000	0.0
29	0x00000000	0.0
30	0x00000000	0.0
31	0x00000000	0.0
32	0x00000000	0.0
33	0x00000000	0.0
34	0x00000000	0.0
35	0x00000000	0.0
36	0x00000000	0.0
37	0x00000000	0.0
38	0x00000000	0.0
39	0x00000000	0.0
40	0x00000000	0.0
41	0x00000000	0.0
42	0x00000000	0.0
43	0x00000000	0.0
44	0x00000000	0.0
45	0x00000000	0.0
46	0x00000000	0.0
47	0x00000000	0.0
48	0x00000000	0.0
49	0x00000000	0.0
50	0x00000000	0.0
51	0x00000000	0.0
52	0x00000000	0.0
53	0x00000000	0.0
54	0x00000000	0.0
55	0x00000000	0.0
56	0x00000000	0.0
57	0x00000000	0.0
58	0x00000000	0.0
59	0x00000000	0.0
60	0x00000000	0.0
61	0x00000000	0.0
62	0x00000000	0.0
63	0x00000000	0.0
64	0x00000000	0.0
65	0x00000000	0.0
66	0x00000000	0.0
67	0x00000000	0.0
68	0x00000000	0.0
69	0x00000000	0.0
70	0x00000000	0.0
71	0x00000000	0.0
72	0x00000000	0.0
73	0x00000000	0.0
74	0x00000000	0.0
75	0x00000000	0.0
76	0x00000000	0.0
77	0x00000000	0.0
78	0x00000000	0.0
79	0x00000000	0.0
80	0x00000000	0.0
81	0x00000000	0.0
82	0x00000000	0.0
83	0x00000000	0.0
84	0x00000000	0.0
85	0x00000000	0.0
86	0x00000000	0.0
87	0x00000000	0.0
88	0x00000000	0.0
89	0x00000000	0.0
90	0x00000000	0.0
91	0x00000000	0.0
92	0x00000000	0.0
93	0x00000000	0.0
94	0x00000000	0.0
95	0x00000000	0.0
96	0x00000000	0.0
97	0x00000000	0.0
98	0x00000000	0.0
99	0x00000000	0.0
100	0x00000000	0.0
101	0x00000000	0.0
102	0x00000000	0.0
103	0x00000000	0.0
104	0x00000000	0.0
105	0x00000000	0.0
106	0x00000000	0.0
107	0x00000000	0.0
108	0x00000000	0.0
109	0x00000000	0.0
110	0x00000000	0.0
111	0x00000000	0.0
112	0x00000000	0.0
113	0x00000000	0.0
114	0x00000000	0.0
115	0x00000000	0.0
116	0x00000000	0.0
117	0x00000000	0.0
118	0x00000000	0.0
119	0x00000000	0.0
120	0x00000000	0.0
121	0x00000000	0.0
122	0x00000000	0.0
123	0x00000000	0.0
124	0x00000000	0.0
125	0x00000000	0.0
126	0x00000000	0.0
127	0x00000000	0.0

2.weight f4 [128, 128]
0	0xbd98c47c	-0.074593514
1	0x3d01cfdc	0.03169237
2	0x3ce79457	0.028268976
3	0x3ca3605f	0.019943414
4	0xbe69d357	-0.22834526
5	0x3d362711	0.04447085
6	0xbd171647	-0.03688648
7	0x3df71083	0.12063696
8	0x3e4777a8	0.19479239
9	0x3c83eeab	0.016105017
10	0xbd1427a4	-0.036170617
11	0xbcd5c9b0	-0.026097149
12	0xbce8b4e8	-0.028406575
13	0x3e0f1b0d	0.13975163
14	0xbd98cba3	-0.074607156
15	0x3e394e1f	0.18096207
16	0xbe5558c7	-0.20834647
17	0xbd0e111c	-0.034684286
18	0xbe5633fc	-0.20918268
19	0x3d868aaf	0.065694205
20	0x3deaf4ed	0.11472497
21	0x3d848a6f	0.064717166
22	0xbddd133c	-0.10794684
23	0x3dfaafc0	0.12240553
24	0x3da82f79	0.0821218
25	0xbd0157a9	-0.03157774
26	0xbe3fb22a	-0.18720308
27	0xbe4517ab	-0.1924731
28	0x3d86ffef	0.06591784
29	0x3b9adefe	0.00472629
30	0x3e6d0f39	0.23150338
31	0x3e3042e0	0.17213011
32	0xbe770959	-0.2412466
33	0x3e0f1ff8	0.13977039
34	0xbe7fffb4	-0.24999887
35	0xbd99be8a	-0.075070456
36	0xbe418206	-0.18897256
37	0xbd94c447	-0.072639994
38	0x3dae6a4c	0.08516368
39	0x3c6f5e5a	0.0146098975
40	0x3ce6e371	0.028184624
41	0x3dff7e71	0.12475289
42	0xbd0bdc13	-0.034145426
43	0xbbe5d47a	-0.0070138546
44	0xbe9d1109	-0.3067706
45	0x3db148df	0.08656477
46	0x3dd9cd80	0.10634899
47	0x3e391423	0.18074088
48	0x3e4648b4	0.19363672
49	0x3d916938	0.07100147
50	0xbd231184	-0.039811626
51	0xbd64e25c	-0.055879936
52	0x3c1694a9	0.009190717
53	0x3ec10fa9	0.3770726
54	0xbd582f53	-0.052779507
55	0x3d7302c9	0.059328828
56	0x3c84e4a6	0.01622231
57	0xbe77f46b	-0.24214332
58	0x3dd6c653	0.10487046
59	0xbdd8b7f9	-0.10581965
60	0xbd872a57	-0.065998726
61	0x3dbad6bf	0.09122991
62	0x3e60f75c	0.2196936
63	0x3e6e7f71	0.23290803
64	0x3bd96975	0.006634886
65	0x3dd5ff7c	0.104491204
66	0x3d10a91a	0.035317518
67	0x3de94328	0.11389762
68	0x3d5c3b19	0.053767297
69	0x3e0c7dbf	0.13719843
70	0x3d46bc95	0.04851969
71	0x3d6c4943	0.057687055
72	0xbe77efe9	-0.24212612
73	0xbdb62506	-0.088937804
74	0xbd078ff7	-0.03309628
75	0xbdfd34d3	-0.12363591
76	0x3d1994ba	0.037495352
77	0xbca6b94a	-0.020352025
78	0x3e005946	0.12534055
79	0xbd1661ac	-0.03671424
80	0xbdf4b5cc	-0.119487375
81	0xbde95ffe	-0.11395262
82	0xbdaffec6	-0.08593516
83	0xbd1b006c	-0.0378422
84	0x3d1b8b20	0.037974477
85	0xbd8f3ab1	-0.06993616
86	0x3e1318b0	0.14364886
87	0x3d092d61	0.033490542
88	0x3e215f7a	0.15759078
89	0xbe9c88d1	-0.30573133
90	0x3e1ba7bd	0.15200706
91	0xbd210aec	-0.039317057
92	0x3daaf42f	0.083473556
93	0xbd567b1f	-0.05236351
94	0x3d540511	0.051762644
95	0x3d08a301	0.033358578
96	0xbe2624a0	-0.16224909
97	0x3e1b1c63	0.15147547
98	0x3c6e971b	0.014562394
99	0x3c84a653	0.01619259
100	0x3d739185	0.05946495
101	0x3e531992	0.20615223
102	0xbd7582c3	-0.059939157
103	0xbdd9dd08	-0.106378615
104	0x3e0256cd	0.12728424
105	0x3df2cb37	0.118551664
106	0xbcaeff79	-0.021362053
107	0xbe039955	-0.1285146
108	0xbaf2e0c7	-0.0018530124
109	0x3ccb2122	0.024796072
110	0xbadd9cbc	-0.0016907672
111	0x3e0efa2a	0.13962618
112	0xbd5e1c03	-0.054225933
113	0x3e0170c4	0.12640673
114	0x3d587568	0.052846342
115	0xbd4c21ce	-0.049836926
116	0xbda197aa	-0.07890256
117	0xbda96db0	-0.08272874
118	0xbdcbbb7d	-0.0994787
119	0xbd38853c	-0.045048937
120	0xbdfda066	-0.12384109
121	0xbcdd1092	-0.02698544
122	0xbdcedcf2	-0.10100736
123	0x3dd2a9eb	0.102863155
124	0x3e7626bf	0.24038218
125	0x3e054d14	0.13017684
126	0xbe17a949	-0.14810671
127	0x3e3cadc0	0.18425655
128	0xbd19fbae	-0.037593536
129	0xbc07fc48	-0.008299895
130	0xbd6325e1	-0.055456046
131	0xbd27ee23	-0.04099859
132	0xbc03e2e2	-0.008049699
133	0xbde40a75	-0.11134807
134	0x3e129de9	0.1431805
135	0x3df7c558	0.12098187
136	0x3da3f4c9	0.080056734
137	0xbd18bbda	-0.037288524
138	0x3d451f7f	0.04812574
139	0xbd92a3f0	-0.07160175
140	0xbe72cfb3	-0.23712043
141	0xbe25be41	-0.16185857
142	0xbe816212	-0.25270134
143	0xbe24c8ad	-0.16092177
144	0x3d2e3916	0.04253491
145	0x3dedd412	0.11612715
146	0x3e0ac3f7	0.13551317
147	0x3cfc0a70	0.030766696
148	0xbe021c5f	-0.12706135
149	0xbd29c3ca	-0.041446485
150	0xbe854cf3	-0.2603527
151	0x3db6dab2	0.089284316
152	0xbc08dc8d	-0.008353365
153	0x3bdc3a9f	0.0067208554
154	0x3cb6f107	0.022331728
155	0x3e50394b	0.20334356
156	0xbdc17e48	-0.09447914
157	0x3e2e3b28	0.17014754
158	0x3e0db3ee	0.13838169
159	0x3de57c89	0.11205394
160	0x3e2459f1	0.16049935
161	0x3e1c3857	0.15255867
162	0xbd389248	-0.04506138
163	0xbdf05e0a	-0.117366865
164	0xbcf603a0	-0.030031025
165	0xbd4c15d4	-0.049825504
166	0x3c3cec80	0.011530995
167	0xbc782217	-0.015144846
168	0x3e1a1520	0.15047121
169	0x3d127856	0.035759293
170	0xbe15f359	-0.14643611
171	0x3d3b5924	0.045739308
172	0xbda5f6f4	-0.08103743
173	0x3c740833	0.014894533
174	0x3da92db3	0.082606696
175	0xbd161e27	-0.03664985
176	0x3c9436ad	0.018092478
177	0x3e514bbc	0.20439047
178	0x3c1d82c2	0.009613695
179	0x3d43d5df	0.047811385
180	0xbdafc783	-0.08582976
181	0xbd698d29	-0.057019386
182	0xbd1c4147	-0.03814819
183	0x3db0f78d	0.086409666
184	0xbdb84430	-0.08997381
185	0xbe35918f	-0.17731307
186	0x3d488153	0.04895146
187	0xbaba02a3	-0.001419146
188	0xbdef22e0	-0.11676574
189	0x3db8e858	0.09028691
190	0xbcb8f64b	-0.02257838
191	0xbdd71ef7	-0.10503953
192	0xbe0fbf60	-0.14037848
193	0x3e2a6c20	0.16642809
194	0x3dfcb0ce	0.1233841
195	0xbd965dff	-0.07342147
196	0x3d9d31a7	0.07675486
197	0x3d510824	0.051033154
198	0x3e19d6df	0.15023373
199	0x3dc8526a	0.09781344
200	0x3d233949	0.039849553
201	0xbe461cf4	-0.19346982
202	0xbddc2951	-0.10750068
203	0x3de5f5e3	0.1122854
204	0xbe035fe0	-0.12829542
205	0x3e21c3a6	0.1579729
206	0xbd39136d	-0.04518454
207	0x3d35a5bd	0.044347513
208	0xbd83709a	-0.064179614
209	0x3ecf82cb	0.40529475
210	0xbdfb924a	-0.12283762
211	0x3e2c20c4	0.16809374
212	0x3decafa6	0.1155694
213	0x3d1e667e	0.038671963
214	0xbe02eb3c	-0.12785047
215	0x3e3acd8b	0.18242471
216	0x3e044639	0.12917413
217	0xbe0d94d4	-0.13826305
218	0xbe06baba	-0.13157168
219	0x3df01ef6	0.11724655
220	0xbe3d960a	-0.18514267
221	0xbc24d16c	-0.010059696
222	0x3e2a09c4	0.16605288
223	0xbd8e51b1	-0.06949175
224	0x3db299c9	0.087207384
225	0x3e675329	0.22590317
226	0xbc2c3fbf	-0.010513245
227	0xbda4fd0e	-0.08056079
228	0xbe86d40f	-0.26333663
229	0xbd27ba31	-0.04094905
230	0xbd9bed62	-0.076136366
231	0x3dbb5a13	0.0914804
232	0xbd00a88a	-0.03141073
233	0x3e009f20	0.12560701
234	0xbdbdc4fe	-0.09266089
235	0x3ea67e9a	0.32518464
236	0xbd6f749f	-0.058460828
237	0x3d7ec072	0.06219525
238	0xbd82801f	-0.063720934
239	0x3bdddead	0.00677093
240	0xbdfe5f95	-0.124205746
241	0xbda9c46f	-0.0828942
242	0x3e3f74b1	0.18696858
243	0x3e118318	0.14210165
244	0x3e42a898	0.19009626
245	0xbd8cceec	-0.06875405
246	0x3e17cede	0.14825007
247	0xbd4eef16	-0.05052098
248	0x3e038f4d	0.12847634
249	0x3da8adda	0.082362846
250	0x3e442a16	0.1915668
251	0xbd42f98e	-0.047601275
252	0x3da2865a	0.07935782
253	0xbe768be3	-0.240768
254	0xbe746c9e	-0.23869559
255	0x3d45f20a	0.04832653

2.bias f4 [128]
0	0x00000000	0.0
1	0x00000000	0.0
2	0x00000000	0.0
3	0x00000000	0.0
4	0x00000000	0.0
5	0x00000000	0.0
6	0x00000000	0.0
7	0x00000000	0.0
8	0x00000000	0.0
9	0x00000000	0.0
10	0x00000000	0.0
11	0x00000000	0.0
12	0x00000000	0.0
13	0x00000000	0.0
14	0x00000000	0.0
15	0x00000000	0.0
16	0x00000000	0.0
17	0x00000000	0.0
18	0x00000000	0.0
19	0x00000000	0.0
20	0x00000000	0.0
21	0x00000000	0.0
22	0x00000000	0.0
23	0x00000000	0.0
24	0x00000000	0.0
25	0x00000000	0.0
26	0x00000000	0.0
27	0x00000000	0.0
28	0x00000000	0.0
29	0x00000000	0.0
30	0x00000000	0.0
31	0x00000000	0.0
32	0x00000000	0.0
33	0x00000000	0.0
34	0x00000000	0.0
35	0x00000000	0.0
36	0x00000000	0.0
37	0x00000000	0.0
38	0x00000000	0.0
39	0x00000000	0.0
40	0x00000000	0.0
41	0x00000000	0.0
42	0x00000000	0.0
43	0x00000000	0.0
44	0x00000000	0.0
45	0x00000000	0.0
46	0x00000000	0.0
47	0x00000000	0.0
48	0x00000000	0.0
49	0x00000000	0.0
50	0x00000000	0.0
51	0x00000000	0.0
52	0x00000000	0.0
53	0x00000000	0.0
54	0x00000000	0.0
55	0x00000000	0.0
56	0x00000000	0.0
57	0x00000000	0.0
58	0x00000000	0.0
59	0x00000000	0.0
60	0x00000000	0.0
61	0x00000000	0.0
62	0x00000000	0.0
63	0x00000000	0.0
64	0x00000000	0.0
65	0x00000000	0.0
66	0x00000000	0.0
67	0x00000000	0.0
68	0x00000000	0.0
69	0x00000000	0.0
70	0x00000000	0.0
71	0x00000000	0.0
72	0x00000000	0.0
73	0x00000000	0.0
74	0x00000000	0.0
75	0x00000000	0.0
76	0x00000000	0.0
77	0x00000000	0.0
78	0x00000000	0.0
79	0x00000000	0.0
80	0x00000000	0.0
81	0x00000000	0.0
82	0x00000000	0.0
83	0x00000000	0.0
84	0x00000000	0.0
85	0x00000000	0.0
86	0x00000000	0.0
87	0x00000000	0.0
88	0x00000000	0.0
89	0x00000000	0.0
90	0x00000000	0.0
91	0x00000000	0.0
92	0x00000000	0.0
93	0x00000000	0.0
94	0x00000000	0.0
95	0x00000000	0.0
96	0x00000000	0.0
97	0x00000000	0.0
98	0x00000000	0.0
99	0x00000000	0.0
100	0x00000000	0.0
101	0x00000000	0.0
102	0x00000000	0.0
103	0x00000000	0.0
104	0x00000000	0.0
105	0x00000000	0.0
106	0x00000000	0.0
107	0x00000000	0.0
108	0x00000000	0.0
109	0x00000000	0.0
110	0x00000000	0.0
111	0x00000000	0.0
112	0x00000000	0.0
113	0x00000000	0.0
114	0x00000000	0.0
115	0x00000000	0.0
116	0x00000000	0.0
117	0x00000000	0.0
118	0x00000000	0.0
119	0x00000000	0.0
120	0x00000000	0.0
121	0x00000000	0.0
122	0x00000000	0.0
123	0x00000000	0.0
124	0x00000000	0.0
125	0x00000000	0.0
126	0x00000000	0.0
127	0x00000000	0.0
