dheera_v0.3.0/dheera_v3/checkpoints/dheera_20251224_040022_curiosity.pt (torch, 540046 bytes, 24 tensors)

0.weight f4 [128, 64]
0	0xbdc2e2a0	-0.095158815
1	0x3d0da1dc	0.03457819
2	0x3df15d48	0.1178537
3	0x3de75baf	0.11296784
4	0xbc77de2b	-0.015128653
5	0xbd10e330	-0.035372913
6	0x3d52ab0a	0.051432647
7	0xbdc2a758	-0.095045745
8	0x3d1618e3	0.036644828
9	0x3ca128fb	0.019672861
10	0x3d82f156	0.063936874
11	0xbdf1e1bd	-0.11810634
12	0xbd8b23ee	-0.067939624
13	0xbd43e92a	-0.047829784
14	0xbdaf1f11	-0.08550847
15	0xbd6c0cd0	-0.057629406
16	0xbc09c80f	-0.008409514
17	0x3de1e22a	0.110294655
18	0x3d35c0bd	0.044373263
19	0xbb8d9b22	-0.004321472
20	0xbc683757	-0.01417335
21	0xbb19338a	-0.0023376667
22	0x3d81cd8e	0.063380346
23	0xbdef296f	-0.11677825
24	0xbacc1991	-0.0015571584
25	0x3dae67ee	0.08515917
26	0xbdfa5796	-0.12223737
27	0x3d605642	0.05476976
28	0xbd4f470c	-0.050604865
29	0xbdedf304	-0.11618617
30	0x3de14801	0.11000062
31	0xbdbdfa00	-0.09276199
32	0x3da44151	0.080202706
33	0x3db0b6d5	0.086286224
34	0xbd9dce9f	-0.077054255
35	0xbb40b227	-0.0029403062
36	0xbdcc337b	-0.099707566
37	0x3de5d4e5	0.11222247
38	0x3cc9cbbf	0.024633287
39	0x3dac6832	0.08418311
40	0xbd87a12a	-0.066225365
41	0xbc766938	-0.015039735
42	0x3cb89cb5	0.022535661
43	0x3ccad74d	0.024760867
44	0xbba902e7	-0.0051578167
45	0x3c0564d7	0.008141718
46	0xbd939aae	-0.07207237
47	0x3da45e1e	0.08025764
48	0xbb9a4d36	-0.0047089113
49	0xbd58146f	-0.052753862
50	0xbdc70e53	-0.09719529
51	0xbdf301b3	-0.118655585
52	0xbda43121	-0.08017183
53	0xbc045f19	-0.008079314
54	0x3d125361	0.035724048
55	0x3cfddfb2	0.030990455
56	0xbd8e924e	-0.06961499
57	0xbdecb6cd	-0.11558304
58	0xbde11f57	-0.10992306
59	0xbd610de5	-0.05494489
60	0x3d422697	0.047400083
61	0x3db67659	0.08909292
62	0xbd6d2141	-0.05789304
63	0xbcbe6b15	-0.02324442
64	0xbcf950de	-0.030434068
65	0x3c16723f	0.009182512
66	0xbd9b97c0	-0.075973034
67	0x3c73c7cb	0.014879177
68	0xbdda9974	-0.106738
69	0x3dce28e4	0.10066393
70	0x3dd0345c	0.10166237
71	0x3df10c2d	0.117699005
72	0xbd889685	-0.06669334
73	0xbd4df489	-0.050282035
74	0x3d929f69	0.07159311
75	0x3c5bef90	0.013423815
76	0xbdae613d	-0.085146405
77	0xbb88b948	-0.004172478
78	0x3ddc9aba	0.10771699
79	0xbd52b044	-0.05143763
80	0x3c528efb	0.012851472
81	0xbd96199d	-0.07329104
82	0x3dc2506f	0.09487998
83	0xbc7c5813	-0.015401858
84	0x3df0d941	0.11760188
85	0x3d8019e7	0.062549405
86	0x3ddb31a7	0.1070283
87	0xbdc81103	-0.0976887
88	0x3d83f771	0.0644368
89	0xbd0cf1cc	-0.034410283
90	0x3d3686e0	0.04456222
91	0xbdb4691c	-0.088091105
92	0xbcabe202	-0.020981792
93	0xbd527208	-0.05137828
94	0xbdf46641	-0.11933566
95	0xbdafb198	-0.08578795
96	0xbdb0ca85	-0.086323775
97	0xbddc24d9	-0.10749216
98	0x3d932d32	0.07186355
99	0xbd0ea201	-0.034822468
100	0xbdcb43e1	-0.09925056
101	0x3d93b136	0.07211535
102	0x3dd28f43	0.10281231
103	0x3dfc00b1	0.123048194
104	0xbde0b577	-0.10972112
105	0x3d2650e7	0.0406045
106	0x3d858a96	0.06520574
107	0x3d916a7d	0.07100389
108	0x3d2f9c2c	0.042873546
109	0x3d030b53	0.03199322
110	0x3dbf6d96	0.09347074
111	0x3dd1fed6	0.10253684
112	0x3d7868f0	0.06064695
113	0x3de3c1d3	0.111209534
114	0xbdec5b8a	-0.11540897
115	0xbca489c7	-0.020085229
116	0x3d0fd49b	0.035114866
117	0x3d30093f	0.042977568
118	0xbdb3bb7d	-0.08775995
119	0xbd743d7c	-0.05962895
120	0x3c2a9a2f	0.010412737
121	0x3d9d5992	0.076831
122	0xbd83699c	-0.06416628
123	0xbcd7e61a	-0.026354838
124	0xbd727b35	-0.05919953
125	0xbd708bc1	-0.05872703
126	0xbd564931	-0.052315895
127	0x3d94158a	0.07230671
128	0xbdd6958c	-0.104777426
129	0x3dddf345	0.108374156
130	0x3de8b351	0.11362327
131	0x3d01b710	0.031668723
132	0x3da1065d	0.07862542
133	0xbd961411	-0.07328046
134	0xbc53419e	-0.012894062
135	0x3dd7decb	0.10540541
136	0xbd10217f	-0.035188194
137	0xbd1b4e22	-0.03791631
138	0xbbc32d23	-0.0059563085
139	0x3da2f869	0.07957537
140	0x3d5ac509	0.053410564
141	0xbd60d684	-0.054892078
142	0xbd6a6b75	-0.057231385
143	0x3c962ec5	0.018332848
144	0xbdda9518	-0.106729686
145	0xbdc5ce2c	-0.09658465
146	0xbdfec0ee	-0.12439142
147	0x3bf4b791	0.007468172
148	0x3d32178d	0.04347949
149	0xbdb45df2	-0.08806981
150	0x3d0e0ba4	0.03467907
151	0xbd19e2ca	-0.0375698
152	0x3d04a6f6	0.03238579
153	0x3d08f884	0.033440128
154	0xbdd560d7	-0.10418861
155	0x3d29593d	0.04134487
156	0x3daa87fd	0.08326719
157	0xbdec15a2	-0.11527564
158	0x3d4f8424	0.05066313
159	0x3d5ef94d	0.05443697
160	0xbd87852d	-0.06617198
161	0x3c7ddda7	0.015494741
162	0xbdbd1492	-0.09232439
163	0xbddf65b0	-0.10908067
164	0xbd33c9b3	-0.043893527
165	0x3cc9ff0f	0.024657754
166	0x3d825568	0.06363946
167	0xbd8394c9	-0.06424863
168	0x3debb2b1	0.11508692
169	0xbd772060	-0.06033361
170	0x3daf5662	0.08561398
171	0x3d86066b	0.06544193
172	0x3df36e2b	0.11886247
173	0xbdc2034a	-0.094732836
174	0xbd90cd4b	-0.070704065
175	0xbd3ece5e	-0.046583526
176	0x3c30c182	0.010788323
177	0x3df16a3a	0.11787839
178	0x3d729b3d	0.059230078
179	0xbdcfbe0f	-0.10143673
180	0x3d7e8668	0.0621399
181	0x3dc60f5a	0.09670897
182	0xbc89ede3	-0.016837066
183	0xbd8637f8	-0.06553644
184	0xbd3d9121	-0.046280984
185	0xbd8fe61c	-0.07026312
186	0xbd65fef8	-0.05615136
187	0x3d2f6410	0.042820036
188	0x3d295ab8	0.04134628
189	0xbdb28dc2	-0.087184444
190	0xbce73359	-0.028222727
191	0x3db482c8	0.08814007
192	0xbdf4ecd0	-0.11959231
193	0xbdc6f88c	-0.09715375
194	0x3d954d16	0.072900936
195	0x3d5abf1f	0.053404924
196	0xbd25cb73	-0.040477227
197	0xbd8c29a7	-0.06843882
198	0xbde91070	-0.11380088
199	0x3d060e03	0.032728206
200	0x3df6eefd	0.12057302
201	0x3de153d7	0.11002319
202	0x3dfdcacb	0.12392195
203	0x3d478421	0.048709992
204	0x3d689dbc	0.056791052
205	0xbd88a946	-0.06672911
206	0x3d8a3046	0.06747489
207	0xbd9f685a	-0.07783575
208	0xbcf78230	-0.030213445
209	0xbdea1eac	-0.114316314
210	0xbc92844e	-0.017885353
211	0xbdb63bfd	-0.088981606
212	0x3db15653	0.08659043
213	0xbc894093	-0.016754424
214	0xbd375b78	-0.044764966
215	0x3aab3331	0.0013061521
216	0xbd5c4d67	-0.053784754
217	0x3d65a50c	0.056065604
218	0x3dcd7cc7	0.10033565
219	0xbdc067de	-0.09394811
220	0xbc37eb3e	-0.01122552
221	0xbdf12199	-0.11773986
222	0xbd46061d	-0.048345674
223	0x3d99b9cd	0.07506142
224	0x3d95f14a	0.07321413
225	0xbda15591	-0.078776486
226	0x3c051389	0.008122333
227	0xbb879f47	-0.0041388604
228	0x3be2fa90	0.006926842
229	0xbd6a7f19	-0.057250116
230	0xbd687094	-0.056747988
231	0xbb8ff61b	-0.0043933517
232	0xbc802bd5	-0.0156459
233	0x3d6cfea0	0.057860017
234	0x3c38ba79	0.011274927
235	0x3d09095a	0.033456184
236	0x3ca908d2	0.020634089
237	0xbd8afd90	-0.067866445
238	0x3d2a2ac7	0.041544702
239	0xbd976fbb	-0.07394358
240	0x3c3584fc	0.011079069
241	0xbdbe8da2	-0.09304358
242	0xbd8f147c	-0.06986329
243	0x3c811512	0.015757117
244	0xbce7f92b	-0.028317055
245	0xbd368781	-0.04456282
246	0x3d6cb332	0.05778808
247	0x3d1dfd9b	0.038571935
248	0xbda468e7	-0.08027821
249	0xbde330ae	-0.11093269
250	0xbb309c8e	-0.0026948783
251	0x3c88d065	0.016700933
252	0xbddb37e6	-0.10704021
253	0xbd39785d	-0.045280803
254	0xbd6e6ef9	-0.0582113
255	0x3dde77e6	0.108627126

0.bias f4 [128]
0	0xbdf0b88d	-0.1175395
1	0x3cc4ee3c	0.02403938
2	0x3ce62f49	0.02809872
3	0xbd9354e9	-0.0719393
4	0xbdc4c3a3	-0.09607627
5	0x3d04241d	0.032261003
6	0xbd60a838	-0.054847926
7	0x3d007e40	0.0313704
8	0xbb40892a	-0.002937863
9	0x3df41157	0.1191737
10	0x3d026b4b	0.031840604
11	0x3d49f94b	0.04931001
12	0x3c6ae1f5	0.014336099
13	0x3dec7df4	0.11547461
14	0xbdd58f7f	-0.1042776
15	0xbdfcc0b4	-0.12341443
16	0xbde7af08	-0.113126814
17	0x3cbdddfc	0.02317714
18	0x3c8fc004	0.017547615
19	0x3d52c414	0.051456526
20	0x3d2993f0	0.04140085
21	0xbd1f801c	-0.038940534
22	0xbd376b58	-0.044780105
23	0x3d609984	0.054833904
24	0xbcf336f9	-0.029689299
25	0xbc89ea5b	-0.016835382
26	0xbc1aff8f	-0.009460344
27	0xbd9149fb	-0.07094189
28	0xbd02c176	-0.03192278
29	0x3da73e61	0.08166195
30	0xbd11f5c1	-0.03563476
31	0xbd619165	-0.0550703
32	0xbddc90ee	-0.10769831
33	0xbd3f19ea	-0.046655573
34	0xbd6d5528	-0.05794254
35	0x3cd26321	0.025682034
36	0x3d111df7	0.035428967
37	0x3d56060d	0.052251864
38	0xbd0da783	-0.03458358
39	0xbce95bb7	-0.028486116
40	0x3dc45056	0.09585635
41	0x3ca87cc3	0.020567304
42	0x3d1ab304	0.03776838
43	0xbd6366a5	-0.05551781
44	0x3be2092e	0.006898067
45	0x3d71f593	0.05907209
46	0xbd8b151a	-0.06791134
47	0xbda5cae1	-0.08095337
48	0xbdce4db3	-0.10073414
49	0xbdff3bc9	-0.12462575
50	0xbc87227b	-0.016495934
51	0xbd26a382	-0.040683277
52	0xbdd190db	-0.10232707
53	0x3cb599b8	0.022168025
54	0x3ce4f6a4	0.027949639
55	0x3de12070	0.10992515
56	0x3d680586	0.056645893
57	0x3dd74714	0.10511604
58	0x3d95bb6e	0.0731114
59	0xbdd5d4f0	-0.10441005
60	0x3d7e4830	0.062080562
61	0xbdbebea4	-0.093137056
62	0x3ddf53f1	0.109046824
63	0x3ca17dc0	0.019713283
64	0xbcefb7fc	-0.029262535
65	0xbda43029	-0.08016998
66	0x3c868654	0.016421475
67	0x3d87d1d2	0.06631817
68	0xbc4250a6	-0.011860048
69	0x3da1e413	0.0790483
70	0xbccb1a06	-0.024792682
71	0x3ce13a48	0.027493611
72	0x3ded426a	0.11584933
73	0x3dfa175d	0.122114874
74	0x3db8c9ee	0.0902289
75	0xbdd5441a	-0.1041338
76	0x3d0813c0	0.03322196
77	0xbd7caea2	-0.06168998
78	0xbcfaaf54	-0.030601181
79	0xbc83c8e6	-0.016087007
80	0xbdaa8312	-0.08325781
81	0x3d73a58d	0.059484053
82	0x3d8eb073	0.06967249
83	0xbde11ed0	-0.10992205
84	0x3dc1ec1f	0.09468865
85	0xbd29eb18	-0.04148397
86	0xbd570427	-0.052494194
87	0x3d72023f	0.059084173
88	0xbc1ab9a1	-0.009443671
89	0x3c368f20	0.011142522
90	0xbd903078	-0.07040495
91	0xbd69c61e	-0.057073705
92	0x3d4e83f2	0.0504188
93	0xbd08b024	-0.033371106
94	0xbc8c2b81	-0.017110588
95	0x3c5579c9	0.013029524
96	0x3da1a21d	0.07892249
97	0xbce9768f	-0.028498916
98	0xbdaa70d7	-0.08322304
99	0x3baff50a	0.005369787
100	0x3de8570e	0.11344729
101	0xbdefbf57	-0.11706417
102	0x3da10764	0.07862738
103	0x3d5b4c3f	0.05353951
104	0xbd4e1667	-0.050314333
105	0xbccc703c	-0.024955861
106	0x3dc53f63	0.09631231
107	0x3df01dfc	0.11724469
108	0x3dc0f55c	0.094217986
109	0xbc9c9407	-0.019113554
110	0x3c71b29d	0.014752057
111	0x3d12ed28	0.0358707
112	0xbbd115ff	-0.006380796
113	0xbc3df125	-0.011593138
114	0x3c4e5dec	0.012595635
115	0xbd640706	-0.05567076
116	0x3be5793d	0.007002978
117	0x3d403666	0.04692688
118	0x3d8e81dd	0.06958363
119	0xbd62f51b	-0.055409532
120	0xbd5882f0	-0.052859247
121	0x3dc44c20	0.09584832
122	0xbcadaeda	-0.02120154
123	0xbca254a1	-0.019815745
124	0x3dae1223	0.08499553
125	0xbddc5f1e	-0.1076033
126	0xbd52cd69	-0.051465426
127	0xbba08f3a	-0.0048998864

2.weight f4 [128, 128]
0	0xbd2c9d10	-0.042141974
1	0x3cd4aa21	0.02596003
2	0x3cd3ce16	0.025855105
3	0x3cd38563	0.02582044
4	0xbd3fe426	-0.04684844
5	0x3d6457b5	0.055747706
6	0x3dae33ea	0.085059956
7	0xbc84a661	-0.016192617
8	0x3db34489	0.087533064
9	0x3c87a23c	0.016556852
10	0x3a96ad1f	0.0011495686
11	0x3caf1c0a	0.021375675
12	0xbd61353c	-0.05498241
13	0x3d3319d6	0.04372581
14	0x3d7954e0	0.06087196
15	0xbd8116b9	-0.06303162
16	0xbc9fefee	-0.019523587
17	0xbc782ff8	-0.015148155
18	0x3d788b49	0.060679708
19	0xbc57f910	-0.01318194
20	0xbdb3b213	-0.08774199
21	0xbaf1cc38	-0.0018447703
22	0x3cc1a31a	0.023637343
23	0xbcc518f0	-0.024059743
24	0xbda16a30	-0.07881582
25	0xbd7809a1	-0.060556058
26	0x3d3328d3	0.043740105
27	0x3d454b97	0.04816779
28	0xbd196b58	-0.037455887
29	0x3d302894	0.04300745
30	0x3d0db36a	0.03459493
31	0x3d3664e6	0.044529818
32	0xbc0614a2	-0.00818363
33	0xbd836e60	-0.06417537
34	0xbd8069ca	-0.06270178
35	0xbd28f947	-0.041253354
36	0x3cca62dc	0.024705343
37	0x3d16ee0c	0.036848113
38	0x3ce191a7	0.027535273
39	0xbbdf2f2a	-0.0068110423
40	0x3b83b3b7	0.0040192264
41	0x3cdffa37	0.027340991
42	0xbce24dd3	-0.027625
43	0x3da7875f	0.08180117
44	0x3dae3a23	0.085071824
45	0xbd1ebb40	-0.038752794
46	0x3d8c686b	0.06855854
47	0xbda8772c	-0.08225855
48	0x3cb701cc	0.022339724
49	0xbdaab9ea	-0.083362415
50	0x3da678c3	0.08128502
51	0x3cd9badb	0.026578357
52	0xbc85e3ed	-0.016344035
53	0xbd2e7005	-0.0425873
54	0xbd10d587	-0.035359886
55	0xbd4a298b	-0.049356025
56	0xbcf4a05f	-0.029861627
57	0xbd2f7118	-0.042832464
58	0xbc8fce39	-0.01755439
59	0x3dad63ef	0.084663264
60	0x3d0812ec	0.03322117
61	0x3da7a55b	0.08185836
62	0xbdb1454b	-0.08655795
63	0x3cd60766	0.026126575
64	0xbd341445	-0.043964643
65	0x3bd15175	0.0063878843
66	0xbd466a38	-0.04844114
67	0xbd8e8f61	-0.06960941
68	0x3d8758b8	0.06608719
69	0x3d5ec7eb	0.054389875
70	0xbd91b361	-0.07114292
71	0x3d94ce72	0.07265939
72	0x3c595c96	0.013266703
73	0xbd2933c3	-0.04130913
74	0xbcf0fc66	-0.029417228
75	0x3c51881f	0.012788801
76	0xbd870d0a	-0.06594284
77	0xbcb7150f	-0.022348909
78	0xbd436eec	-0.047713205
79	0x3d64761a	0.055776693
80	0x3ceb2e00	0.028708458
81	0x3d620f67	0.05519047
82	0x3da915fe	0.08256148
83	0xb88f26c6	-6.8259935e-05
84	0xbd284ebf	-0.041090723
85	0x3c9d7b6d	0.019223893
86	0x3d16ffe6	0.036865138
87	0x3cce138c	0.025155805
88	0x3cb69620	0.022288382
89	0x3ce56b72	0.028005335
90	0xbbc9c4a0	-0.0061574727
91	0x3d550f45	0.052016515
92	0xbd1db218	-0.03849992
93	0x3ca7473f	0.020419715
94	0x3daa1132	0.08304061
95	0x3c0e6fd0	0.00869365
96	0xbd1c8f2f	-0.038222488
97	0xbdac94a2	-0.08426787
98	0x3c209922	0.009802135
99	0xbd5479bc	-0.051873907
100	0x3d2c9e2b	0.04214303
101	0xbd9cb83f	-0.0765233
102	0x3cdaba68	0.026700214
103	0x3cea4297	0.028596206
104	0x3cf88b19	0.030339764
105	0x3c05fdc0	0.0081781745
106	0xbda8da1d	-0.08244727
107	0x3d9d13f6	0.07669823
108	0x3d881a0c	0.06645593
109	0xbd09c711	-0.03363711
110	0x3cf8ef66	0.030387592
111	0x3d34ab01	0.044108395
112	0x3d855c23	0.06511714
113	0x3cf00bcf	0.029302506
114	0xbd9c432f	-0.07630002
115	0xbb8936c6	-0.0041874377
116	0x3d988397	0.07446974
117	0x3d48e518	0.049046606
118	0xbb4c1651	-0.0031141231
119	0x3d6df472	0.05809445
120	0x3d51bc64	0.051205054
121	0x3ce6939d	0.02814656
122	0x3d96fbf3	0.07372274
123	0x3d76e189	0.06027368
124	0xbd37bd87	-0.04485848
125	0xbd8917e9	-0.066940136
126	0x3c5ef25a	0.013607586
127	0x3d865d8b	0.06560811
128	0xbd65b6b8	-0.056082457
129	0xbd9c74a8	-0.07639438
130	0x3cc0d977	0.023541195
131	0x3d9a7928	0.0754264
132	0xbd9abfa6	-0.07556085
133	0x3d93cb49	0.07216508
134	0x3d845ed0	0.064633965
135	0xbd2b719b	-0.04185639
136	0x3c70d151	0.014698342
137	0xbd933e09	-0.07189567
138	0x3dacaa8e	0.08430968
139	0xbd86fc72	-0.06591119
140	0xbd2b8233	-0.041872215
141	0xbcbf5b98	-0.023359105
142	0xbda992de	-0.08279966
143	0xbb270245	-0.002548353
144	0xbdb5d27f	-0.088780396
145	0xbcde473d	-0.027133578
146	0x3db2816c	0.087160915
147	0x3d88ec4e	0.066856965
148	0xbaa3a8ab	-0.001248618
149	0x3d3d884a	0.046272554
150	0xbd95a3c4	-0.073066264
151	0xbd9ebae7	-0.077504925
152	0x3d733c1a	0.05938349
153	0x3d668b73	0.056285333
154	0x3d7f7c12	0.062374182
155	0xba1db110	-0.0006015459
156	0xbc225581	-0.009908081
157	0xbc131c5e	-0.008978931
158	0x3cc08e78	0.023505434
159	0x3d1b404c	0.037903115
160	0x3cf00e94	0.029303826
161	0x3d1e6ef6	0.03868004
162	0xbcc9cb96	-0.02463321
163	0xbd97fb5b	-0.07420989
164	0x3d9aa3db	0.07550784
165	0x3da95b91	0.08269418
166	0xbd9694a5	-0.073525704
167	0x3cd804bd	0.026369447
168	0xbd1ab345	-0.03776862
169	0x3d3b4180	0.045716763
170	0x38307126	4.2067048e-05
171	0x3d505788	0.050864726
172	0x3c923aeb	0.01785036
173	0x3da6a458	0.08136815
174	0x3caa42b5	0.020783762
175	0x3cbd56f5	0.023112753
176	0xbad8c1c0	-0.0016537234
177	0xbdad39fa	-0.08458324
178	0xbdb1c574	-0.08680239
179	0x3d0bd85a	0.034141876
180	0xbd3dced1	-0.046339814
181	0x3da4da91	0.08049501
182	0x3d8ccd81	0.06875134
183	0x3d1b360a	0.037893333
184	0xbd947c88	-0.07250315
185	0xbd17a5fd	-0.037023533
186	0xbda68975	-0.081316866
187	0xbd8a84ec	-0.06763634
188	0x3d0c8442	0.03430582
189	0xbbb421ef	-0.0054972093
190	0xbd98d10a	-0.07461746
191	0xbd433ac2	-0.047663458
192	0x3d8e6c72	0.06954278
193	0xbda07031	-0.07833899
194	0xbd77141e	-0.06032192
195	0x3d0e6acb	0.034769814
196	0x3ba5059d	0.0050360695
197	0xbc2cdf8c	-0.010551345
198	0x3d0df914	0.034661368
199	0x3d072e6f	0.033003267
200	0xbd22dd0c	-0.039761588
201	0x3cde381d	0.027126366
202	0x3d1d4934	0.03839989
203	0x3d8c01fc	0.06836316
204	0xbd96af04	-0.073576
205	0xbd9f3c08	-0.07775122
206	0xbdb12778	-0.08650106
207	0x3d60fdab	0.054929417
208	0x3d692a5c	0.056925163
209	0x3c16dcd4	0.009207923
210	0xbda87639	-0.08225674
211	0x3dad153a	0.08451314
212	0x3da3d204	0.07999042
213	0x3da46266	0.080265805
214	0x3cd8c6ee	0.026462045
215	0xbd964cb8	-0.07338852
216	0xbc921b46	-0.01783527
217	0xbdad87a4	-0.08473137
218	0xbcc5ff60	-0.024169624
219	0xbd065ad3	-0.03280146
220	0xbd50ace3	-0.050946128
221	0x3d46b680	0.04851389
222	0x3d8b7b9f	0.06810688
223	0x3d557389	0.052112136
224	0x3d3e51c7	0.046464708
225	0x3d61fead	0.05517452
226	0x3d9781f9	0.07397837
227	0x3ceebb03	0.029141909
228	0xbd829277	-0.06375592
229	0x3d9f313e	0.07773064
230	0xbd3e79b7	-0.046502795
231	0x3d69090c	0.056893393
232	0x3d822cc7	0.06356197
233	0x3befe932	0.0073215
234	0xbd841981	-0.06450177
235	0xbd5bfda0	-0.053708673
236	0xbd380f88	-0.044936687
237	0x3d6fd239	0.058550093
238	0xbd82dba5	-0.0638955
239	0xbd62a3f8	-0.055332154
240	0xbd567770	-0.05236
241	0x3d887258	0.06662434
242	0xbd72b5d4	-0.059255436
243	0x3ce6ef02	0.02819014
244	0xbd83f477	-0.06443112
245	0x3da6df5b	0.081480704
246	0x3c26177f	0.010137438
247	0xbc6b272f	-0.014352604
248	0x3d51aa15	0.051187593
249	0x3d0a9c1b	0.03384028
250	0x3d6e46bc	0.058172926
251	0xbd187f48	-0.03723076
252	0xbd4504c2	-0.04810024
253	0xbd902128	-0.07037574
254	0x3d432f8c	0.047652766
255	0x3d680899	0.056648824

2.bias f4 [128]
0	0xbc907560	-0.017634094
1	0x3c982d8a	0.018576402
2	0x3d866ad4	0.065633446
3	0x3d1c8fc6	0.03822305
4	0xbc72f2a5	-0.014828359
5	0xbdb13a15	-0.086536564
6	0x3d80d9f0	0.06291568
7	0xbd0d33f3	-0.03447337
8	0x3d942e96	0.07235448
9	0x3d57976f	0.052634653
10	0x3cf5fd18	0.030027911
11	0xbdab97e8	-0.08378583
12	0x3b9819c1	0.004641742
13	0x3d39e4f6	0.04538437
14	0x3d2050c5	0.039139528
15	0xbd95578c	-0.07292089
16	0x3d91c512	0.07117666
17	0xbd4e69cd	-0.05039387
18	0x3c0d91cb	0.008640717
19	0xbc21eb3a	-0.009882743
20	0xbd271db9	-0.04079983
21	0x3bfac61b	0.0076530105
22	0xbd11c315	-0.035586435
23	0x3cc76818	0.024341628
24	0xbcfa94ec	-0.03058859
25	0x3d07c884	0.03315021
26	0xbd261ed8	-0.04055676
27	0x3d2349a3	0.039865147
28	0xbcadf8f5	-0.021236876
29	0x3d577456	0.05260118
30	0x3d5a39c6	0.053277753
31	0x3db5bec1	0.08874274
32	0xbd8d3636	-0.068951055
33	0xbb5af832	-0.0033412096
34	0xbae0f6a6	-0.0017163351
35	0xbdace945	-0.0844293
36	0x3d87544d	0.06607876
37	0xbd6860d9	-0.056732986
38	0x3c6aa1cf	0.014320805
39	0xbc5edb26	-0.013602054
40	0xbc93746c	-0.01799985
41	0x3d9d152d	0.076700546
42	0xbd3c30de	-0.04594504
43	0x3da31a6a	0.079640225
44	0xbcd998f0	-0.026562184
45	0xbd676143	-0.05648924
46	0xbd0d3e2d	-0.034483124
47	0x3d22f14c	0.0397809
48	0x3d8097c5	0.06278948
49	0xbc7ce811	-0.015436188
50	0x3d50efd6	0.051009975
51	0xbd9ada74	-0.07561198
52	0x3da7cd89	0.081934996
53	0xbd78da6a	-0.06075517
54	0xbbcd78bc	-0.006270496
55	0x3c1bacd6	0.0095016565
56	0xbc0e942e	-0.008702321
57	0xbd2358dd	-0.03987967
58	0x3dad7489	0.08469493
59	0xbd8bc97a	-0.06825538
60	0x3d99f73e	0.07517861
61	0xbd3df15c	-0.046372756
62	0x3d78299a	0.06058655
63	0x3d7fcd5e	0.062451713
64	0x3d9ced9b	0.07662507
65	0x3b7351c9	0.0037127605
66	0xbb871584	-0.004122438
67	0xbc809cd0	-0.015699774
68	0xbc4cd0db	-0.012500967
69	0x3d4c1e79	0.04983375
70	0xbda7f932	-0.08201827
71	0xbd8e6294	-0.06952396
72	0xbd30f536	-0.0432026
73	0x3d7bfddb	0.061521392
74	0x3ca8347e	0.020532843
75	0x3bcfe3eb	0.0063443086
76	0x3d0a7193	0.03379972
77	0xbcc65160	-0.024208724
78	0xbd3e7be6	-0.046504878
79	0x3cf59f82	0.029983286
80	0x3c955b2d	0.018231953
81	0xbd8fed98	-0.07027739
82	0xbc8eca37	-0.017430408
83	0x3d8f5b3e	0.06999825
84	0x3a77006d	0.00094223657
85	0x3d840bdb	0.06447574
86	0xbdae9f3b	-0.085264646
87	0xbd47a1ba	-0.04873822
88	0xbd85200a	-0.065002516
89	0xbd6e69d5	-0.058206398
90	0x3da83e49	0.08215005
91	0x3d46421c	0.04840289
92	0xbd2c7808	-0.04210666
93	0xbc900a7d	-0.017583126
94	0x3b875ef9	0.0041311947
95	0x3da4ef1c	0.08053419
96	0xbd1cd818	-0.03829202
97	0xbda32795	-0.07966534
98	0x3c641d10	0.013922945
99	0xbbbd5829	-0.005778332
100	0x3c0053b8	0.00783246
101	0xbd9f1eaf	-0.07769524
102	0x3c34a333	0.011025238
103	0x3d61aa25	0.055093903
104	0xbbadbc94	-0.0053020213
105	0xbd8beb56	-0.06831996
106	0xbc3df8aa	-0.011594931
107	0xbc1c6347	-0.009545154
108	0xbc01dd69	-0.007926323
109	0x3d0c9dfc	0.034330353
110	0xbd374979	-0.044747803
111	0xbdaef264	-0.08542326
112	0x3db5f734	0.08885041
113	0xbd8035f7	-0.06260293
114	0xbcdba69a	-0.02681284
115	0xbda4a834	-0.08039895
116	0x3c76291a	0.015024448
117	0x3bf0d08c	0.0073490795
118	0x3da2d43d	0.079506375
119	0xbd5d20e0	-0.05398643
120	0x3cf47e11	0.02984527
121	0x3ba9eedd	0.0051859454
122	0x3d8aa5c6	0.067699
123	0x3dab395c	0.0836055
124	0x3d935cc1	0.07195426
125	0xbd16fe04	-0.036863342
126	0x3da8ed50	0.08248389
127	0xbc6e479f	-0.014543443

4.weight f4 [64, 128]
0	0x3d1137d3	0.03545363
1	0x3cdb1b6d	0.026746476
2	0x3d524f20	0.05134499
3	0x3d4028bc	0.046913847
4	0xbd4d53a6	-0.0501286
5	0x3b361364	0.0027782554
6	0x3d0c5d84	0.03426887
7	0xbd27f2aa	-0.041002907
8	0x3d395be6	0.045253657
9	0x3d36a70a	0.044592895
10	0x3ca37e94	0.019957818
11	0xbc27c2ba	-0.0102392975
12	0xbd1952dc	-0.037432536
13	0xbd439640	-0.04775071
14	0x3d052846	0.03250911
15	0x3d7fd8ef	0.062462743
16	0xbd0e7cfc	-0.034787163
17	0xbd955f51	-0.07293571
18	0x3d92a8c3	0.07161095
19	0xbc20f520	-0.009824067
20	0x3d5bb3ff	0.053638455
21	0xbd341ab3	-0.043970775
22	0x3b8a3d15	0.0042187073
23	0xbcd43b27	-0.025907112
24	0xbd34bc2d	-0.04412477
25	0x3db10a89	0.086445875
26	0xbc9738e3	-0.018459743
27	0xbc9810ba	-0.018562663
28	0x3d9653a0	0.07340169
29	0xbd8adcf4	-0.06780425
30	0xbd51be41	-0.05120683
31	0xbd907744	-0.07053998
32	0xbd37cd28	-0.044873387
33	0x3ac7ba46	0.0015238009
34	0xbc2c95b6	-0.010533741
35	0xbd208723	-0.039191376
36	0x3d959e7e	0.073056206
37	0xbd54e06b	-0.051971834
38	0xbd6e9f9b	-0.05825768
39	0x3daaeeee	0.083463535
40	0xbd76f35f	-0.06029069
41	0x3a09a6e9	0.0005251007
42	0xbd5ff4fe	-0.054677002
43	0x3c48ecd6	0.012263497
44	0x3caa1cf2	0.020765755
45	0xbc362014	-0.011116046
46	0x3b8a75af	0.0042254548
47	0xbc86551d	-0.016398007
48	0xbcde60c2	-0.027145747
49	0xbdb120a3	-0.08648803
50	0xbbe5e44d	-0.007015741
51	0x3d2af582	0.04173804
52	0xbd99dd5b	-0.07512923
53	0xba0eb53a	-0.0005443875
54	0x3da8ddb5	0.08245412
55	0xbc8a88d1	-0.016910942
56	0xbd936c67	-0.071984105
57	0xbd5b8870	-0.053596914
58	0x3cddfcb1	0.027098032
59	0x3c9f4987	0.01944424
60	0x3d80fbd4	0.062980324
61	0xbcb19b0b	-0.021680376
62	0x3d7acac5	0.061228532
63	0x3d80ac6b	0.06282886
64	0x3d07a63a	0.03311751
65	0x3bf95a39	0.0076096323
66	0xbd071c40	-0.032985926
67	0xbd4f2128	-0.05056873
68	0x3da501e1	0.08056999
69	0xb9e77b9a	-0.00044151844
70	0xbc99cfc5	-0.01877583
71	0xbce422e8	-0.027848676
72	0x3d7723a6	0.06033673
73	0xbce0a682	-0.027423147
74	0x3be4d68a	0.006983583
75	0xbd869f50	-0.06573355
76	0x3db20ff4	0.08694449
77	0x3d0c716e	0.034287862
78	0xbdad79e8	-0.084705174
79	0x3d913ff3	0.070922755
80	0x3d997bb3	0.07494297
81	0xbd54b855	-0.051933605
82	0xbd8bc754	-0.06825128
83	0x3d820bf8	0.06349939
84	0x3d764769	0.060126696
85	0x3d8a1d3a	0.06743856
86	0xbd770861	-0.060310725
87	0x3cf58489	0.029970424
88	0x3d4b78f5	0.0496759
89	0x3d68fdcc	0.056882665
90	0x3d3e3cea	0.04644481
91	0xbd766391	-0.060153548
92	0x3d406309	0.046969447
93	0xbd93c4d5	-0.07215277
94	0xbda19a7a	-0.07890792
95	0x3d0cde1c	0.034391508
96	0xbd023ab4	-0.031794265
97	0xbc03b060	-0.008037657
98	0xbbda0569	-0.006653477
99	0x3d110fa4	0.035415307
100	0x3ba49e3c	0.005023746
101	0x3d1f31c6	0.038865827
102	0x3d883ffb	0.06652828
103	0xbda4b6fc	-0.08042714
104	0xbcaadddd	-0.020857746
105	0xbc811cae	-0.015760746
106	0xbdabb79f	-0.08384632
107	0xbd4b1dd9	-0.04958901
108	0xbcb423ba	-0.021989692
109	0x3bab5329	0.0052284193
110	0x3d1f0f2c	0.03883283
111	0x3be60274	0.0070193354
112	0x3a7298b0	0.00092543196
113	0x3d1a7592	0.03770978
114	0x3c4f4960	0.012651771
115	0x3d20e5be	0.0392816
116	0x3da823d0	0.08209956
117	0x3db26760	0.087111235
118	0xbd1f164c	-0.038839623
119	0xbce7d2ef	-0.028298823
120	0xbc4cf10c	-0.012508642
121	0x3c3187cb	0.010835598
122	0x3d264230	0.040590465
123	0x3c97c352	0.018525753
124	0x3d8046b2	0.06263484
125	0xbd213fe2	-0.039367564
126	0x3b753a02	0.0037418609
127	0xbd9435d1	-0.07236827
128	0xbc968530	-0.018374056
129	0xbbb65e39	-0.0055654314
130	0xbda8aa98	-0.08235663
131	0xbbdb900b	-0.006700521
132	0xbb955b5f	-0.0045580114
133	0x3d8478ed	0.06468377
134	0x3c1e726a	0.009670833
135	0xbc6d0190	-0.014465705
136	0xbc53ccb6	-0.012927225
137	0xbd14e771	-0.036353532
138	0xbc6934d0	-0.014233783
139	0x3b983597	0.0046450603
140	0xbdb2645a	-0.08710547
141	0xbda771b9	-0.08175988
142	0xbd88ce22	-0.06679942
143	0xbd549e2b	-0.051908653
144	0xbd9d9c74	-0.07695857
145	0xbc1557ea	-0.009115199
146	0x3c208fa0	0.009799868
147	0x3d07c59f	0.03314745
148	0xbc268adb	-0.010164942
149	0xbc2c9829	-0.010534325
150	0xbd37d523	-0.044880997
151	0x3c867cb1	0.01641688
152	0x3c410599	0.01178112
153	0x3caeec20	0.021352828
154	0x3d2729d5	0.04081138
155	0xbd3316ca	-0.043722905
156	0xbd9d0b50	-0.07668173
157	0xbd86bd10	-0.065790296
158	0x3bb7474e	0.005593217
159	0xbd8c93c9	-0.06864125
160	0xbca8a984	-0.020588644
161	0xbd45a305	-0.04825117
162	0x3d221883	0.039574157
163	0xbc87863c	-0.0165435
164	0xbc9083cb	-0.017640969
165	0x3d7dcef9	0.061964963
166	0x3d603491	0.05473763
167	0x3d8767fe	0.06611632
168	0x3d7376a1	0.059439305
169	0x3d398ae1	0.04529846
170	0x3d29c950	0.041451752
171	0x3d5f6f5a	0.054549553
172	0xbc5aa593	-0.01334514
173	0x3d68eaa5	0.0568644
174	0x3d8a57c7	0.067550234
175	0x3c2f1a02	0.010687353
176	0x3d6603ed	0.056156088
177	0xbd55308b	-0.052048247
178	0xbda96abb	-0.0827231
179	0x3c0b6158	0.008507095
180	0xbcb448fe	-0.022007462
181	0xbd89dccc	-0.06731567
182	0xbcb3a70c	-0.02193024
183	0xbd9f986a	-0.077927426
184	0xbd83e721	-0.06440569
185	0x3d87dcce	0.06633912
186	0x3b1403e6	0.0022585331
187	0xbb879dd8	-0.0041386895
188	0x3c49aa40	0.012308657
189	0x3c95ef41	0.018302562
190	0xbc912608	-0.01771833
191	0xbda8bf19	-0.08239574
192	0xbd8bc620	-0.06824899
193	0xbd19e569	-0.0375723
194	0xbd910f61	-0.070830114
195	0xbd57df97	-0.052703466
196	0x3c670745	0.014100854
197	0x3d9a2b84	0.07527831
198	0x3a7cf8f5	0.00096501346
199	0x3d44b39e	0.04802286
200	0x3cd75204	0.026284225
201	0xbd6c6e9b	-0.05772267
202	0xbbad6d5d	-0.005292578
203	0xbd4f0b70	-0.050548017
204	0xbc84220d	-0.016129518
205	0xbc9f48c2	-0.019443873
206	0x3d8b25c8	0.067943156
207	0xbd9cde7d	-0.07659624
208	0xbd965552	-0.07340492
209	0x3cd11b02	0.025525574
210	0xbca15d0f	-0.019697694
211	0x3d8ae010	0.06781018
212	0xbd150436	-0.03638097
213	0x3d9a1b8c	0.075247854
214	0xbdaaa220	-0.08331704
215	0x3d109531	0.03529853
216	0x3cb33724	0.021876879
217	0xbc04d796	-0.00810804
218	0xbd789be2	-0.060695536
219	0x3d42b1ef	0.047532972
220	0x3c100c38	0.008791976
221	0xbd46c85c	-0.04853092
222	0x3d827553	0.06370034
223	0xbd955db0	-0.0729326
224	0x3d08bb75	0.033381898
225	0xbd440e2f	-0.04786509
226	0x3d5d48d5	0.054024536
227	0xbd4ee986	-0.050515674
228	0xbc11f859	-0.008909308
229	0x3d8fc70e	0.070203885
230	0x3d581b8d	0.05276065
231	0x3da91a83	0.0825701
232	0x3d442153	0.047883343
233	0xbdb20bd5	-0.08693663
234	0x3dabd3bd	0.08389995
235	0xbd43fce7	-0.04784861
236	0xbd31d7b6	-0.04341861
237	0xbd82d06e	-0.06387411
238	0xbc88656e	-0.016649928
239	0x3ca320a7	0.01991303
240	0xbd8c737d	-0.06857965
241	0x3cf11ab2	0.029431675
242	0x3d901192	0.07034601
243	0x3d418f46	0.047255777
244	0xbd632e17	-0.055463877
245	0xbc09d188	-0.008411773
246	0x3d1c9789	0.038230453
247	0xbd58bb71	-0.052913133
248	0x3cf1ca36	0.029515367
249	0xbd4552bb	-0.0481746
250	0xbc709060	-0.014682859
251	0x3d17f887	0.03710225
252	0xbd88388b	-0.0665141
253	0x3d4ddf1a	0.050261594
254	0x3da53da3	0.08068397
255	0x3b1fb7fc	0.0024371138

4.bias f4 [64]
0	0x3d1ca3c2	0.03824211
1	0x3d5386cc	0.051642224
2	0xbd842838	-0.064529836
3	0xbdab6082	-0.08368017
4	0x3d22d8ab	0.039757412
5	0xbc5b39bd	-0.013380465
6	0x3d678012	0.05651862
7	0xbd3790a5	-0.04481568
8	0x3cdacce3	0.026709026
9	0xbd8b8949	-0.068132944
10	0xbd8ffddb	-0.07030841
11	0x3c6b1a10	0.0143494755
12	0xbd6d88b8	-0.057991713
13	0x3d72630d	0.059176493
14	0x3d714a10	0.058908522
15	0x3d7cab2e	0.061686687
16	0xbd7c51ab	-0.061601322
17	0xbd6ff58f	-0.058583792
18	0xbd47a0c3	-0.0487373
19	0x3d86677e	0.06562708
20	0xbd8a534f	-0.06754171
21	0xbcd9871a	-0.02655368
22	0x3d682809	0.056678806
23	0xbdb2e52d	-0.08735118
24	0xbd09e0d2	-0.03366167
25	0xbc94c3dc	-0.0181598
26	0x3d444909	0.047921214
27	0xbc998a7e	-0.018742796
28	0xbd9b5e16	-0.07586305
29	0x3c352568	0.011056282
30	0x39e328a0	0.00043327082
31	0xbc878af1	-0.016545745
32	0xbd301719	-0.042990778
33	0x3d08824d	0.03332739
34	0x3d2b8946	0.04187896
35	0x3b90ef2f	0.004423044
36	0xbd514986	-0.051095508
37	0xbd531b7f	-0.051539894
38	0x3b52b36a	0.0032150396
39	0xbdb19126	-0.08670263
40	0xbc9ace41	-0.018897178
41	0xbcefb58a	-0.02926137
42	0xbd1de425	-0.038547654
43	0xbd94a552	-0.07258095
44	0x3d61ef7d	0.055160034
45	0xbd9bd9f4	-0.07609931
46	0x3d29a2e7	0.04141512
47	0xbd43a53d	-0.047765005
48	0x3d02f95a	0.03197608
49	0xbcbb3221	-0.022851052
50	0xbd4bb2c0	-0.049731016
51	0xbda19976	-0.078905985
52	0xbc0c5aa8	-0.008566536
53	0xbd51d07b	-0.051224213
54	0xbcb23f9f	-0.021758853
55	0x3d80a4a5	0.062814035
56	0xbca09220	-0.019600928
57	0xbc6d5258	-0.014484964
58	0xbd46dbb3	-0.048549365
59	0x3d02d34d	0.031939793
60	0xbda8a5a1	-0.08234716
61	0x3c833b99	0.01601963
62	0xbd993e4d	-0.07482586
63	0xbd1ec5ab	-0.03876273

0.weight f4 [128, 64]
0	0xbc5556ce	-0.013021184
1	0xbe8f843e	-0.2803058
2	0xbdfa6ebb	-0.122281514
3	0xbd725a17	-0.059167948
4	0xbc195ae1	-0.009360046
5	0x3d291b9e	0.041286103
6	0x3dae16ab	0.08500417
7	0x3e24b91e	0.16086242
8	0x3bc7a80d	0.0060930313
9	0x3db8385d	0.089951254
10	0xbcf2d36f	-0.029641835
11	0xbeb38c7c	-0.3506812
12	0xbd579fb9	-0.052642558
13	0x3d9ae407	0.07563024
14	0x3df07ec4	0.117429286
15	0xbd0baf4d	-0.034102727
16	0x3d8269d5	0.06367842
17	0x3add8907	0.0016901799
18	0x3d33fdc0	0.043943167
19	0x3e2b5f0e	0.16735479
20	0xbd91a02f	-0.07110631
21	0x3d0695ae	0.03285759
22	0x3da79c05	0.08184055
23	0xbe625019	-0.22100867
24	0xbe06dc2c	-0.13169926
25	0xbcdcdbe7	-0.026960326
26	0xbd97797d	-0.07396219
27	0x3c449dcb	0.012000511
28	0x3d4eb689	0.050467048
29	0x3bdb4e59	0.0066926894
30	0xbe62e80c	-0.22158831
31	0x3d50e30f	0.05099779
32	0x3d799c0a	0.060939826
33	0xbe4ae553	-0.19814043
34	0xbd1717a9	-0.0368878
35	0x3d957f53	0.07299676
36	0xbdee6279	-0.11639876
37	0x3d9a9d74	0.07549563
38	0x3deec871	0.11659325
39	0x3db45fc3	0.088073276
40	0xbd48298c	-0.048867747
41	0xbd501dc0	-0.05080962
42	0x3d967b0c	0.07347688
43	0xbe13f323	-0.14448218
44	0x3e430d1a	0.19047967
45	0xbd8010ad	-0.06253181
46	0x3d0af0f6	0.033921205
47	0x3e47590d	0.19467564
48	0x3db263c7	0.08710437
49	0x3e42f3e2	0.19038346
50	0xbe42fdac	-0.1904208
51	0x3ea35e12	0.31907707
52	0x3ead4767	0.33843538
53	0xbb0b477b	-0.0021252322
54	0x3e00d11b	0.12579767
55	0xbe8b47d6	-0.27203244
56	0xbe6ec02c	-0.23315495
57	0xbc5d8e8b	-0.013522754
58	0xbdb4f072	-0.08834924
59	0xbc5dfd11	-0.013549105
60	0x3e28c75f	0.16482304
61	0x3dcf1545	0.10111479
62	0x3bb0f662	0.005400465
63	0x3d422df4	0.047407106
64	0x3e8db7fa	0.27679425
65	0x3d2a8d48	0.041638643
66	0xbdd178d8	-0.10228127
67	0x3d4628e5	0.048378844
68	0xbddd6134	-0.10809556
69	0x3d8f5f5c	0.0700061
70	0x3bf97b3e	0.0076135686
71	0xbd26d593	-0.040731024
72	0x3c3d8aec	0.011568766
73	0x3ce5fafe	0.028073784
74	0x3e194abb	0.14969914
75	0x3de58f12	0.11208929
76	0xbcc2a236	-0.023758989
77	0xbde76d40	-0.11300135
78	0xbbcd33ef	-0.0062622945
79	0x3da8b28f	0.08237182
80	0xbd1e2fde	-0.03861987
81	0xbda8dc11	-0.08245099
82	0x3e1ed3b0	0.1551044
83	0xbcbb261c	-0.02284532
84	0x3d0e7812	0.034782477
85	0x3e374e81	0.1790104
86	0xbd353c41	-0.044246916
87	0xbe1e29bd	-0.1544561
88	0x3dadd5e4	0.08488062
89	0xbe1a8e6f	-0.15093397
90	0x3e1df48e	0.15425321
91	0xbd859548	-0.06522614
92	0x3da843be	0.08216046
93	0xbd92a6f5	-0.07160751
94	0x3e1d2197	0.15344845
95	0x3d9cc23b	0.07654234
96	0x3e065dbe	0.13121697
97	0x3d0781b7	0.03308269
98	0x3dfb9731	0.12284697
99	0xbd09b8ab	-0.03362338
100	0xbd5618c7	-0.052269723
101	0xbcf79944	-0.03022445
102	0x3e459b71	0.19297577
103	0xbd559b32	-0.05214996
104	0x3ddf9856	0.10917728
105	0x3d1c9be9	0.038234625
106	0x3dbc4b31	0.09194029
107	0xbe2caf0a	-0.16863647
108	0x3d6a5d4b	0.057217877
109	0x3bf7ca5e	0.007561966
110	0xbe4d3bde	-0.20042369
111	0x3cc90052	0.024536286
112	0x3e1adcb9	0.15123262
113	0x3e721093	0.23639135
114	0x3e5d0d41	0.21587087
115	0x3c9879f3	0.018612837
116	0x3de3f5d9	0.11130876
117	0xbd56cbc3	-0.052440416
118	0x3d0a266b	0.033728044
119	0xbcfa58d8	-0.030559942
120	0x3e9727ab	0.29522452
121	0x3da9a493	0.08283343
122	0xbc092163	-0.008369776
123	0x3d3fdae3	0.046839606
124	0xbd811a3b	-0.06303831
125	0x3ea40c15	0.32040468
126	0x3d9083b8	0.07056373
127	0x3d9839a5	0.0743287
128	0xbe0c710d	-0.13715
129	0x3da5408f	0.08068954
130	0xbd0ea02a	-0.034820713
131	0xbd8ff7ef	-0.070297115
132	0xbd4491e5	-0.0479907
133	0xbdc52912	-0.09626974
134	0x3ce11446	0.027475487
135	0xbcbfda14	-0.023419417
136	0xbdef57c0	-0.11686659
137	0xbdda4ecf	-0.10659563
138	0x3d5644ba	0.052311637
139	0x3da0650d	0.07831774
140	0xbc883b0c	-0.016629718
141	0x3da1f9b9	0.07908959
142	0x3e79e2eb	0.24402969
143	0xbe0ada22	-0.13559774
144	0xbe46d2fa	-0.19416419
145	0x3d1099f3	0.035303067
146	0x3e0fd5ef	0.14046453
147	0x3d80e1d1	0.06293071
148	0x3e11f097	0.14251934
149	0x3da3ff96	0.080077335
150	0x3db3b67b	0.0877504
151	0x3e0d79ec	0.13816041
152	0xbd7af0f4	-0.061264947
153	0xbd298e3d	-0.041395415
154	0x3cddc6d4	0.027072348
155	0xbd7db0fd	-0.061936367
156	0xbce4ebfd	-0.02794456
157	0x3c210086	0.009826785
158	0x3c820f54	0.01587645
159	0xbdae702a	-0.08517487
160	0xbe825afb	-0.25460038
161	0xbe370ed4	-0.1787675
162	0xbe5f27ae	-0.2179248
163	0x3d3d1162	0.046159156
164	0xbea44d6f	-0.32090327
165	0xbe4f6659	-0.20253886
166	0x3e0bd82f	0.13656686
167	0x3dcd7e91	0.10033906
168	0xbe714a2f	-0.23563455
169	0x3e805d28	0.25071073
170	0x3e715a96	0.23569712
171	0xbe86d8b6	-0.26337212
172	0xbc01db88	-0.0079258755
173	0xbc6d157e	-0.014470456
174	0xbe4517a4	-0.192473
175	0xbe0d71aa	-0.1381289
176	0xbdba5c62	-0.09099652
177	0xbe45961f	-0.19295548
178	0xbc67ff39	-0.014159971
179	0xbe6a8121	-0.22900821
180	0xbcfa431e	-0.030549582
181	0xbb8f33c9	-0.004370187
182	0xbe4212f1	-0.18952538
183	0xbe4a412e	-0.19751427
184	0x3d67ac53	0.056560826
185	0x3e5ba7c7	0.2145072
186	0xbde903d9	-0.11377687
187	0xbe099fdc	-0.13439888
188	0x3e063fa8	0.1311022
189	0x3d5183f7	0.051151242
190	0x3d959a5f	0.073048346
191	0x3c3c4e79	0.011493319
192	0xbded1aa0	-0.11577344
193	0xbb8b1bb2	-0.004245245
194	0xbe1119e4	-0.14170033
195	0xbc995f2a	-0.018722136
196	0xbc61f13d	-0.013790426
197	0x3d888f78	0.066679895
198	0x3e428494	0.18995887
199	0xbd983df6	-0.07433693
200	0xbdd5a396	-0.10431592
201	0x3e1d56ed	0.15365191
202	0x3d94c48d	0.072640516
203	0xbd3f8d15	-0.046765406
204	0x3d5462cc	0.051852033
205	0x3e19a03d	0.15002532
206	0xbe1210a0	-0.14264154
207	0x3cfc76f3	0.030818438
208	0x3e078655	0.13234837
209	0x3e07ef1b	0.13274805
210	0xbdb56ce2	-0.088586584
211	0x3e06c6d3	0.13161783
212	0xbd8f2eb7	-0.06991332
213	0xbc8d064e	-0.01721492
214	0xbe643395	-0.22285302
215	0x3d4f36a3	0.050589215
216	0x3e20a060	0.15686178
217	0x3c283c2b	0.010268251
218	0x3d359b79	0.044337723
219	0x3da44edc	0.08022854
220	0xbd887b8d	-0.066641904
221	0xbe82bd5e	-0.255351
222	0x3c8d4417	0.017244382
223	0x3d958cd5	0.07302252
224	0xbd6d604e	-0.05795317
225	0xbdb1d5c7	-0.08683353
226	0x3def6954	0.116900116
227	0xbcd117e1	-0.025524082
228	0x3d3ed1dd	0.04658686
229	0xbe39972c	-0.18124074
230	0x3d87bb22	0.066274896
231	0x3dd76d38	0.10518879
232	0xbd955bb7	-0.07292884
233	0x3ddbf1c9	0.10739476
234	0x3e9244ff	0.28568265
235	0x3ce58a56	0.028020065
236	0xbdb19d04	-0.086725265
237	0x3db98840	0.09059191
238	0x3d073415	0.033008654
239	0x3e832133	0.25611266
240	0x39a643a1	0.00031712375
241	0xbe883c2f	-0.26608416
242	0xbe28bed7	-0.1647905
243	0xbdbe8dc0	-0.093043804
244	0xbe3c1c89	-0.1837026
245	0x3e63a31f	0.22230195
246	0xbd96dd43	-0.07366421
247	0xbe0d7489	-0.13813986
248	0xbcb851ff	-0.022500036
249	0x3dcfef42	0.10153057
250	0xbc44524f	-0.0119825145
251	0x3eb7d78a	0.3590663
252	0xbe52c657	-0.20583473
253	0xbdb4c7ec	-0.088271946
254	0xbd4246d6	-0.047430836
255	0xbe468cbe	-0.19389626

0.bias f4 [128]
0	0x00000000	0.0
1	0x00000000	0.0
2	0x00000000	0.0
3	0x00000000	0.0
4	0x00000000	0.0
5	0x00000000	0.0
6	0x00000000	0.0
7	0x00000000	0.0
8	0x00000000	0.0
9	0x00000000	0.0
10	0x00000000	0.0
11	0x00000000	0.0
12	0x00000000	0.0
13	0x00000000	0.0
14	0x00000000	0.0
15	0x00000000	0.0
16	0x00000000	0.0
17	0x00000000	0.0
18	0x00000000	0.0
19	0x00000000	0.0
20	0x00000000	0.0
21	0x00000000	0.0
22	0x00000000	0.0
23	0x00000000	0.0
24	0x00000000	0.0
25	0x00000000	0.0
26	0x00000000	0.0
27	0x00000000	0.0
28	0x00000000	0.0
29	0x00000000	0.0
30	0x00000000	0.0
31	0x00000000	0.0
32	0x00000000	0.0
33	0x00000000	0.0
34	0x00000000	0.0
35	0x00000000	0.0
36	0x00000000	0.0
37	0x00000000	0.0
38	0x00000000	0.0
39	0x00000000	0.0
40	0x00000000	0.0
41	0x00000000	0.0
42	0x00000000	0.0
43	0x00000000	0.0
44	0x00000000	0.0
45	0x00000000	0.0
46	0x00000000	0.0
47	0x00000000	0.0
48	0x00000000	0.0
49	0x00000000	0.0
50	0x00000000	0.0
51	0x00000000	0.0
52	0x00000000	0.0
53	0x00000000	0.0
54	0x00000000	0.0
55	0x00000000	0.0
56	0x00000000	0.0
57	0x00000000	0.0
58	0x00000000	0.0
59	0x00000000	0.0
60	0x00000000	0.0
61	0x00000000	0.0
62	0x00000000	0.0
63	0x00000000	0.0
64	0x00000000	0.0
65	0x00000000	0.0
66	0x00000000	0.0
67	0x00000000	0.0
68	0x00000000	0.0
69	0x00000000	0.0
70	0x00000000	0.0
71	0x00000000	0.0
72	0x00000000	0.0
73	0x00000000	0.0
74	0x00000000	0.0
75	0x00000000	0.0
76	0x00000000	0.0
77	0x00000000	0.0
78	0x00000000	0.0
79	0x00000000	0.0
80	0x00000000	0.0
81	0x00000000	0.0
82	0x00000000	0.0
83	0x00000000	0.0
84	0x00000000	0.0
85	0x00000000	0.0
86	0x00000000	0.0
87	0x00000000	0.0
88	0x00000000	0.0
89	0x00000000	0.0
90	0x00000000	0.0
91	0x00000000	0.0
92	0x00000000	0.0
93	0x00000000	0.0
94	0x00000000	0.0
95	0x00000000	0.0
96	0x00000000	0.0
97	0x00000000	0.0
98	0x00000000	0.0
99	0x00000000	0.0
100	0x00000000	0.0
101	0x00000000	0.0
102	0x00000000	0.0
103	0x00000000	0.0
104	0x00000000	0.0
105	0x00000000	0.0
106	0x00000000	0.0
107	0x00000000	0.0
108	0x00000000	0.0
109	0x00000000	0.0
110	0x00000000	0.0
111	0x00000000	0.0
112	0x00000000	0.0
113	0x00000000	0.0
114	0x00000000	0.0
115	0x00000000	0.0
116	0x00000000	0.0
117	0x00000000	0.0
118	0x00000000	0.0
119	0x00000000	0.0
120	0x00000000	0.0
121	0x00000000	0.0
122	0x00000000	0.0
123	0x00000000	0.0
124	0x00000000	0.0
125	0x00000000	0.0
126	0x00000000	0.0
127	0x00000000	0.0

2.weight f4 [128, 128]
0	0xbe8ceb6b	-0.2752336
1	0x3d0c0618	0.0341855
2	0xbce4e4bf	-0.027941106
3	0x3db16da2	0.08663489
4	0x3dcc24e4	0.09967974
5	0x3d92f451	0.07175506
6	0xbd85376e	-0.06504713
7	0xbd949a5b	-0.072560035
8	0xbe310809	-0.17288221
9	0xbd148b40	-0.03626561
10	0x3e10a659	0.14125957
11	0x3da972b5	0.08273832
12	0x3e260789	0.16213812
13	0x3e0f13f5	0.13972457
14	0x3c55c18c	0.013046633
15	0xbdeef431	-0.116676696
16	0xbdb698e4	-0.0891588
17	0xbba8b204	-0.0051481742
18	0xbcd9c90c	-0.026585124
19	0x3d05c15c	0.032655105
20	0xbd897a2c	-0.067127556
21	0x3e44c87c	0.19217104
22	0xbc22b781	-0.009931446
23	0x3da7fabf	0.08202123
24	0xbe25e33f	-0.16199969
25	0x3db90914	0.09034935
26	0xbe4b130e	-0.19831488
27	0xbdb53685	-0.088482894
28	0x3e25c231	0.1618736
29	0xbd1d3075	-0.03837629
30	0x3d93b411	0.07212079
31	0x3b952a98	0.0045521967
32	0x3cc0549a	0.023477841
33	0x3e8eb293	0.27870616
34	0x3d96f463	0.07370832
35	0x3d9d5487	0.07682138
36	0x3cee231e	0.02906948
37	0xbd329558	-0.043599457
38	0xbe637647	-0.22213088
39	0xbe2d818c	-0.1694395
40	0x3cf8be78	0.03036426
41	0x3dcbbe50	0.099484086
42	0xbd7a19d8	-0.061059803
43	0x3e181c24	0.14854485
44	0xbd4445fe	-0.047918312
45	0x3def293a	0.11677785
46	0xbd816988	-0.063189566
47	0x3e912e33	0.2835556
48	0x3cd4bb27	0.025968147
49	0xbd6cdf46	-0.057830118
50	0xbda3ff8b	-0.08007725
51	0x3e5630b3	0.20917015
52	0x3ca017ac	0.019542538
53	0xbdb41e93	-0.08794894
54	0x3d511eb3	0.051054668
55	0xbaa30aec	-0.0012439168
56	0xbb38e549	-0.0028212836
57	0x3d0e25c6	0.034703992
58	0xbcf1c06d	-0.029510701
59	0x3dab8000	0.083740234
60	0xbda9d662	-0.082928434
61	0xbbdee816	-0.006802569
62	0xbd8bb190	-0.06820977
63	0xbdb5a872	-0.08870019
64	0xbdb75e2e	-0.0895351
65	0x3e8da4b6	0.27664727
66	0x3e2bb231	0.16767193
67	0xbd4e3d14	-0.050351217
68	0xbe8bf7d4	-0.27337515
69	0xbdce84fe	-0.1008396
70	0x3e3439a0	0.17600107
71	0xbe478be0	-0.19486952
72	0x3c1ab717	0.009443066
73	0xbdc7cf3a	-0.09756322
74	0x3dc139fc	0.09434888
75	0x3e1d152b	0.15340106
76	0xbe5722a3	-0.21009307
77	0xbc8eb52c	-0.017420374
78	0x3e0bc85f	0.13650654
79	0xbc4d6b22	-0.0125377495
80	0xbea32cd6	-0.31870145
81	0xbdf55c8f	-0.11980545
82	0xbd8ab38b	-0.06772526
83	0x3ce3a841	0.02779019
84	0xb9ca5709	-0.0003859329
85	0x3d5b5717	0.053549852
86	0xbdc42c96	-0.095788166
87	0xbd160ddd	-0.036634315
88	0xbd1356b4	-0.03597136
89	0x3e4973ea	0.19673124
90	0x3e16f9be	0.14743707
91	0x3dc4e03c	0.09613082
92	0xbe27f0c8	-0.16400445
93	0xbe8cdf7e	-0.2751426
94	0x3d2f2aa9	0.042765293
95	0x3d9debea	0.07711013
96	0xbbf40afe	-0.0074475994
97	0x3e1b826e	0.15186474
98	0xbbe956d1	-0.007120945
99	0x3cb458fb	0.022015085
100	0xbc7ea299	-0.015541696
101	0xbc06dfc9	-0.0082320655
102	0xbe013cad	-0.12620802
103	0xbde15f60	-0.110045195
104	0xbdb9acf2	-0.0906619
105	0xbc61089b	-0.013734962
106	0xbe83d3d2	-0.25747544
107	0x3cd7d2b9	0.026345598
108	0xbcff8490	-0.03119114
109	0x3db1ec7c	0.08687684
110	0xbe45cf57	-0.19317375
111	0xbd8c4fec	-0.068511814
112	0x3e934e01	0.2877045
113	0xbd7cb1e9	-0.061693106
114	0xbe20bc86	-0.15696916
115	0x3d164c42	0.03669382
116	0x3d7d6c35	0.061870772
117	0xbc8e1932	-0.017345998
118	0x3dc12fcc	0.09432945
119	0xbdc7dd7c	-0.09759042
120	0x3e46c019	0.19409217
121	0xbe20325a	-0.15644208
122	0xbe929545	-0.2862951
123	0x3d0f295d	0.034951556
124	0x3e3f79ca	0.18698803
125	0xbd249cae	-0.040188484
126	0xbcfd7492	-0.030939374
127	0x3deaa35f	0.11456942
128	0xbe00232b	-0.12513416
129	0xbd625290	-0.05525452
130	0x3e1eb52e	0.15498802
131	0x3cacbf35	0.021087268
132	0x3cfc9109	0.030830877
133	0xbd84ea8f	-0.06490051
134	0x3d8a112a	0.06741555
135	0xbbd64f6b	-0.006540229
136	0xbdeafbe5	-0.11473826
137	0x3de0db23	0.10979297
138	0x3d98b19b	0.074557506
139	0x3db7330d	0.08945284
140	0xbdec2367	-0.1153019
141	0xbdf8d826	-0.12150602
142	0xbca3721d	-0.019951874
143	0x3e07a3d8	0.13246095
144	0xbcd86c0d	-0.02641871
145	0x3ea497e2	0.32147127
146	0x3c761667	0.01501999
147	0xbc18bc2e	-0.009322209
148	0x3df1e870	0.11811912
149	0x3dc7f35f	0.09763216
150	0xbe573c24	-0.21019036
151	0xbdcc2317	-0.0996763
152	0x3d3909a5	0.045175213
153	0xbbbbfe8e	-0.0057371324
154	0xbe707d31	-0.23485257
155	0x3d91dd80	0.07122326
156	0x3e859e2d	0.2609724
157	0xbd6b15f1	-0.05739397
158	0x3e3665fa	0.17812338
159	0x3d5f2bc3	0.054485094
160	0xba75568f	-0.00093589065
161	0xbe07e4a4	-0.13270813
162	0xbd5d3e56	-0.054014526
163	0x3cb5b021	0.022178711
164	0x3da6e40f	0.081489675
165	0x3d9a161c	0.07523748
166	0x3c5513ec	0.013005238
167	0xbd000393	-0.03125341
168	0x3e67e5f0	0.22646308
169	0xbda49b7a	-0.08037467
170	0xbe07b42d	-0.13252325
171	0x3d04553f	0.03230786
172	0xbccc5e33	-0.024947261
173	0x3d7d2d8d	0.06181102
174	0xbddfdcdb	-0.10930797
175	0xbe195d16	-0.14976916
176	0xbe603ed2	-0.21898964
177	0x3d1bfa4c	0.0380805
178	0xbd5a1088	-0.05323842
179	0xbd862962	-0.06550862
180	0xbeaf01bc	-0.3418101
181	0xbc464cc4	-0.012103263
182	0x3d43aed2	0.047774144
183	0x3dd909b6	0.10597555
184	0x3d877290	0.06613648
185	0x3d917b1f	0.071035616
186	0x3b1bd664	0.002377891
187	0xbdfea77a	-0.12434287
188	0x3e22e5a0	0.15907907
189	0x3bc6471a	0.0060509564
190	0x3e31988f	0.17343353
191	0xbccbd119	-0.024879979
192	0xbd12ad24	-0.03580965
193	0xbe172a01	-0.14762117
194	0xbba67cd7	-0.0050808
195	0xbdff38c2	-0.124619976
196	0xbd90ff29	-0.07079918
197	0x3e1bd586	0.15218171
198	0x3e0c6ba5	0.13712938
199	0xbbe50199	-0.006988716
200	0x3caa4345	0.02078403
201	0xbdf26aae	-0.11836754
202	0xbe4db8f1	-0.20090081
203	0xbd09f8e1	-0.033684615
204	0xbdbb26df	-0.091382734
205	0x3d9b22df	0.075750105
206	0x3e337a0f	0.1752703
207	0x3c6747da	0.014116252
208	0x3ddd40ec	0.108033985
209	0x3de7d20f	0.11319362
210	0xbe0c1025	-0.13678034
211	0xbd023dd9	-0.031797264
212	0x3d342fe4	0.043990985
213	0xbe0ff0c2	-0.14056686
214	0xbddbc7b6	-0.10731451
215	0x3da1d9b1	0.079028495
216	0x3c0f02e2	0.008728715
217	0xbc66b7c7	-0.014081902
218	0xbe784c61	-0.24247886
219	0x3de1eeba	0.110318616
220	0xbe04dcdb	-0.12974875
221	0xbeab9d6b	-0.33518538
222	0x3da90aba	0.08253999
223	0x3e1b2a0c	0.15152758
224	0x3e28839a	0.16456452
225	0x3e8649e0	0.26228237
226	0xbdfa4e3f	-0.122219555
227	0xbd9c82f3	-0.07642164
228	0xbd8ceb9d	-0.06880877
229	0xbde6c298	-0.112675846
230	0xbce7bd52	-0.028288517
231	0x3d84328e	0.06454955
232	0x3dca8ea3	0.09890487
233	0x3c58781e	0.013212232
234	0x3e062453	0.13099794
235	0xbd87e027	-0.066345505
236	0xbcf1a80f	-0.029499082
237	0x3d129c24	0.03579344
238	0xbdb41876	-0.08793728
239	0xbd6a44e4	-0.057194605
240	0xbe186abb	-0.14884464
241	0x3e0523f7	0.13002001
242	0xbdf25e4f	-0.11834394
243	0x3d10371a	0.0352088
244	0x3d96e83f	0.07368516
245	0xbe8ba2aa	-0.2727254
246	0xbdc3be7c	-0.095578164
247	0xbe01618e	-0.1263487
248	0xbebe4664	-0.3716308
249	0x3d369fce	0.044585995
250	0xbc819e50	-0.01582256
251	0xbdbc93f8	-0.0920791
252	0xbdd8b9a1	-0.10582281
253	0xbccda7c3	-0.02510441
254	0xbe982452	-0.2971521
255	0x3d36bd03	0.04461385

2.bias f4 [128]
0	0x00000000	0.0
1	0x00000000	0.0
2	0x00000000	0.0
3	0x00000000	0.0
4	0x00000000	0.0
5	0x00000000	0.0
6	0x00000000	0.0
7	0x00000000	0.0
8	0x00000000	0.0
9	0x00000000	0.0
10	0x00000000	0.0
11	0x00000000	0.0
12	0x00000000	0.0
13	0x00000000	0.0
14	0x00000000	0.0
15	0x00000000	0.0
16	0x00000000	0.0
17	0x00000000	0.0
18	0x00000000	0.0
19	0x00000000	0.0
20	0x00000000	0.0
21	0x00000000	0.0
22	0x00000000	0.0
23	0x00000000	0.0
24	0x00000000	0.0
25	0x00000000	0.0
26	0x00000000	0.0
27	0x00000000	0.0
28	0x00000000	0.0
29	0x00000000	0.0
30	0x00000000	0.0
31	0x00000000	0.0
32	0x00000000	0.0
33	0x00000000	0.0
34	0x00000000	0.0
35	0x00000000	0.0
36	0x00000000	0.0
37	0x00000000	0.0
38	0x00000000	0.0
39	0x00000000	0.0
40	0x00000000	0.0
41	0x00000000	0.0
42	0x00000000	0.0
43	0x00000000	0.0
44	0x00000000	0.0
45	0x00000000	0.0
46	0x00000000	0.0
47	0x00000000	0.0
48	0x00000000	0.0
49	0x00000000	0.0
50	0x00000000	0.0
51	0x00000000	0.0
52	0x00000000	0.0
53	0x00000000	0.0
54	0x00000000	0.0
55	0x00000000	0.0
56	0x00000000	0.0
57	0x00000000	0.0
58	0x00000000	0.0
59	0x00000000	0.0
60	0x00000000	0.0
61	0x00000000	0.0
62	0x00000000	0.0
63	0x00000000	0.0
64	0x00000000	0.0
65	0x00000000	0.0
66	0x00000000	0.0
67	0x00000000	0.0
68	0x00000000	0.0
69	0x00000000	0.0
70	0x00000000	0.0
71	0x00000000	0.0
72	0x00000000	0.0
73	0x00000000	0.0
74	0x00000000	0.0
75	0x00000000	0.0
76	0x00000000	0.0
77	0x00000000	0.0
78	0x00000000	0.0
79	0x00000000	0.0
80	0x00000000	0.0
81	0x00000000	0.0
82	0x00000000	0.0
83	0x00000000	0.0
84	0x00000000	0.0
85	0x00000000	0.0
86	0x00000000	0.0
87	0x00000000	0.0
88	0x00000000	0.0
89	0x00000000	0.0
90	0x00000000	0.0
91	0x00000000	0.0
92	0x00000000	0.0
93	0x00000000	0.0
94	0x00000000	0.0
95	0x00000000	0.0
96	0x00000000	0.0
97	0x00000000	0.0
98	0x00000000	0.0
99	0x00000000	0.0
100	0x00000000	0.0
101	0x00000000	0.0
102	0x00000000	0.0
103	0x00000000	0.0
104	0x00000000	0.0
105	0x00000000	0.0
106	0x00000000	0.0
107	0x00000000	0.0
108	0x00000000	0.0
109	0x00000000	0.0
110	0x00000000	0.0
111	0x00000000	0.0
112	0x00000000	0.0
113	0x00000000	0.0
114	0x00000000	0.0
115	0x00000000	0.0
116	0x00000000	0.0
117	0x00000000	0.0
118	0x00000000	0.0
119	0x00000000	0.0
120	0x00000000	0.0
121	0x00000000	0.0
122	0x00000000	0.0
123	0x00000000	0.0
124	0x00000000	0.0
125	0x00000000	0.0
126	0x00000000	0.0
127	0x00000000	0.0
