dheera_v0.3.0/dheera_v3/checkpoints/training_ep5_curiosity.pt (torch, 270050 bytes, 12 tensors)

0.weight f4 [128, 64]
00000000: 54b8 03bd 860a cabd 8212 8d3d 6094 c8bc
00000010: 10b7 693d 9e7d bbbd d041 bdbc b85c db3d
00000020: d035 39bd c4cb f2bd dab3 ecbd e024 b7bd
00000030: 2813 77bd 38a6 87bd 80cd d03c c4be aabd
00000040: 1845 873d 34eb 233d c849 babc 727d 97bd
00000050: 54ce de3d 083d b43d 482a 9d3c b85a b83c
00000060: 04e4 d5bd 8000 e13c f0e0 773d d47a 143d
00000070: f021 463c a87e 89bd e0e5 133c cc3c 14bd
00000080: d69f adbd fcfa 6a3d b09d f2bc feab b03d
00000090: 4ecb dd3d e84b d9bc 3446 aebd aab5 f9bd
000000a0: c6b4 f7bd d4a4 e83d ea66 a9bd 605c 6abd
000000b0: 808d d6bb cc3d 973d 6cc9 833d 807f 69bd
000000c0: 9046 f7bc a4d0 0dbd 50ef 34bc bcc8 243d
000000d0: 2235 84bd 5808 e83d 5005 14bd c21b c03d
000000e0: 48c5 553d f05b b53c c28f f7bd 0426 4c3d
000000f0: 54f6 8f3d ec7b d2bd f064 e6bc 00fe 66bd
00000100: ccfa 2a3d 4e54 c4bd 3236 d8bd 0aaf 873d
00000110: 1609 d6bd 007c 16bc 5c1c 83bd 5ed0 e83d
00000120: b867 e93c 2056 89bb 7ef8 a03d 10d2 9b3c
00000130: 64c0 f53d 9856 db3d 62cc a0bd 00d2 3fbd
00000140: a27b ddbd 3817 64bd 1852 fc3d 0088 d839
00000150: 8a49 d8bd 4605 e2bd 6062 7f3c 00f4 893c
00000160: f451 e2bd 9030 f3bc c06e 6c3d b019 cabc
00000170: b0e1 163c dc5e df3d c0cd 0c3c eeb2 a53d
00000180: be3f 943d 8090 933b 2ab1 84bd 401b 7abd
00000190: ac5a 633d 806d d53a 6ef5 9bbd e0c3 79bd
000001a0: d831 8cbd 4c60 203d b80d ae3d 2c51 99bd
000001b0: 947a 94bd c0a4 cdbc b007 b0bd a092 8f3b
000001c0: 5c88 24bd 20c6 c83c 680e ab3c 0a61 8a3d
000001d0: b00f ec3d a8b4 1cbd d0d0 fc3d a6cd b83d
000001e0: a852 0ebd a0b1 e4bd bcc8 eebd 506b 893c
000001f0: 4006 e63d f820 d23d 80cf fcba c049 58bc
00000200: f83a d13c c20d 8c3d 784c 8cbd 8083 7fbc
00000210: 06d5 89bd 70ab b73d 5893 8fbc 280f 9fbc
00000220: 6c39 8ebd ec8c 5bbd f87b 753d c828 e7bc
00000230: fcf2 183d d812 fabd b08c 0fbd 1e41 e13d
00000240: 20dc 673c 242b 363d 9447 e8bd 3e5d d9bd
00000250: 0c5e b6bd 2a7c 863d f04f 163c 56a8 8dbd
00000260: b0bc b5bd c0bc 96bb f08b 4c3c dca9 263d
00000270: 68ec a43c 386d 6cbd e01d a1bb 94c7 4fbd
00000280: 9a46 c5bd c23c e9bd c01e dcbc 0094 04b9
00000290: 9c4d 2bbd 7cd9 e4bd 00f9 d13d b805 a5bc
000002a0: 14bf 22bd 38e7 593d c0e4 353b 5ab0 e8bd
000002b0: f8a6 bcbc bc03 11bd 08f8 c4bc 3897 fcbc
000002c0: 44f9 f83d e08f 9fbd 7086 97bc 0606 ebbd
000002d0: 186f 703d b4e2 6b3d 80a0 603d dab7 ac3d
000002e0: 6aaa 87bd 12a3 b03d 10d2 02bd 5023 56bc
000002f0: f0e6 abbc d695 acbd a474 1bbd 3444 dfbd
00000300: 4896 e7bc a4bb 64bd 1033 1f3c e48b 3cbd
00000310: 48fe 60bd 3c9a a33d 54b9 ed3d 9422 2a3d
00000320: f8cb 793d c8a9 f23d 4eb3 a33d 00a4 29b9
00000330: b43a 1abd b655 8bbd b84a d43c 80f1 3ebd
00000340: 4e07 903d e626 96bd 3022 263c 9a53 ee3d
00000350: 2a1b 9bbd 68f0 dbbd e010 babb 862b e33d
00000360: 8623 eabd 1a9f d1bd a289 b4bd e07c 42bc
00000370: 4c99 563d d614 a4bd f4c9 263d e891 cebd
00000380: 1cda 933d 860e e53d 22d4 c4bd 0891 97bc
00000390: a2ea ed3d 60b1 9dbb d0c4 283c 0848 23bd
000003a0: f000 113d 54a2 163d b045 253d c04a fc3c
000003b0: 7822 8a3c 50fa 9c3c 967a e5bd 6e5a fd3d
000003c0: cca5 42bd cc81 5abd 18ba 883d d893 9fbd
000003d0: ee2d fdbd 6c79 e5bd 005c 1eb9 f036 ee3c
000003e0: 6cf7 973d 4857 993c e465 a9bd 845f 443d
000003f0: 7868 fd3c f447 603d 7e9d ff3d 88e3 d7bc
-0.03215821 -0.098652884 0.06888296 -0.024484813 0.057059348 -0.09154819 -0.02310267 0.10711044
-0.045217335 -0.118552715 -0.115577415 -0.0894258 -0.060321003 -0.066235006 0.025488615 -0.08337167
0.066049755 0.04001923 -0.02274026 -0.07396974 0.10879198 0.08800703 0.0191852 0.022504196
-0.10443881 0.027466059 0.06051725 0.03624995 0.012093052 -0.06713611 0.009026974 -0.036190793
-0.08477752 0.057368264 -0.029616207 0.08626555 0.10829793 -0.026525453 -0.08509484 -0.12192853
-0.12095027 0.113595635 -0.082715824 -0.057217002 -0.00654763 0.07384834 0.064349025 -0.05700636
-0.030185014 -0.034622803 -0.011043385 0.040230498 -0.06455447 0.113297164 -0.03613788 0.093802944
0.052190095 0.022138566 -0.120879665 0.049840942 0.07029405 -0.102775425 -0.028124303 -0.056394577
0.041743085 -0.09586392 -0.10557212 0.06625183 -0.10450952 -0.009184837 -0.064018935 0.11367868
0.02849184 -0.004191175 0.07859896 0.019021064 0.11999586 0.10709876 -0.07851483 -0.04683113
-0.10814597 -0.055686206 0.12320346 0.00041300058 -0.105609015 -0.11036162 0.015587419 0.016839981
-0.110507876 -0.029686242 0.057722807 -0.024670452 0.0092090815 0.10906765 0.0085939765 0.08090769
0.0723872 0.0045033097 -0.06479104 -0.061061144 0.055506393 0.0016283244 -0.076151714 -0.060977817
-0.068454444 0.039154336 0.084987104 -0.074861854 -0.072499424 -0.025102973 -0.08595216 0.0043814927
-0.040169105 0.024508536 0.020880893 0.0675679 0.1152643 -0.038258225 0.12344515 0.09023599
-0.034746796 -0.11166692 -0.11659381 0.016774803 0.11231661 0.102601945 -0.0019287914 -0.013201177
0.025540814 0.068385616 -0.06850523 -0.015595317 -0.06730084 0.08968246 -0.017526314 -0.019416407
-0.06944546 -0.05360119 0.05993268 -0.028217688 0.037341103 -0.122106254 -0.03504628 0.10998748
0.014151603 0.044474736 -0.113417774 -0.10613488 -0.08904657 0.06566651 0.009174332 -0.06916873
-0.0887388 -0.0046001375 0.012484536 0.040689334 0.020132259 -0.057721347 -0.0049168915 -0.050727442
-0.09632607 -0.11388542 -0.026870131 -0.00012643635 -0.04182206 -0.11174294 0.10252571 -0.020144328
-0.039733008 0.053199023 0.0027754754 -0.113617614 -0.023028836 -0.035403952 -0.024044052 -0.030833825
0.12156919 -0.07791114 -0.018496722 -0.11475758 0.058699697 0.057589248 0.054840565 0.084335044
-0.06624301 0.08624853 -0.031938612 -0.013069943 -0.020984143 -0.084270164 -0.037953034 -0.109016806
-0.028269902 -0.05584301 0.009716764 -0.046031848 -0.05493 0.07988402 0.11607614 0.041536883
0.060985535 0.118487895 0.07993184 -0.0001617819 -0.03765364 -0.068034574 0.025914535 -0.04661703
0.07032643 -0.07331638 0.010139987 0.116370395 -0.075735405 -0.10739213 -0.005678281 0.11092286
-0.11432557 -0.10235424 -0.08815314 -0.011870593 0.05239229 -0.08011787 0.04071994 -0.10086423
0.072193354 0.11184411 -0.096107736 -0.018501773 0.11617018 -0.0048124045 0.01030083 -0.039863616
0.035401285 0.036775902 0.040349662 0.030797362 0.01686214 0.019162327 -0.11205022 0.12370764
-0.047521397 -0.05334644 0.066761196 -0.07791871 -0.12362276 -0.112048 -0.00015102327 0.02907893
0.07420239 0.018718377 -0.08271387 0.047942653 0.030933604 0.05475612 0.12481211 -0.026353613

0.bias f4 [128]
00000000: 5465 6f3d ae09 b6bd c427 2e3d 50c6 253d
00000010: 36fb ef3d de22 bcbd aa9d a73d 58ed 973c
00000020: eab8 e73d f818 2dbd a804 d9bd 843a 4bbd
00000030: 84bb 273d 189a 143d 304f b13d 2c48 fbbd
00000040: baae bbbd 80f5 ec3d fee3 8f3d 1246 cebd
00000050: e091 e73b 98f9 cc3d cc61 6e3d 7077 63bc
00000060: 5c3f a03d aa25 d93d fa35 e83d a0af 423d
00000070: 2ae2 e1bd eed8 cdbd 52ee eb3d 8008 e0ba
00000080: 7489 73bd e8e2 583d e862 a7bd 8880 bb3d
00000090: 82e2 ad3d 48bf 393d 22b9 af3d 60df 6bbc
000000a0: 9014 843d 5e36 b8bd 7a84 bd3d 00fc 483d
000000b0: 6c78 d0bd 2a44 cf3d 1a8e ad3d 8495 b7bd
000000c0: 4015 08bc 5e82 dfbd 0ac7 d43d 483e 813c
000000d0: a866 d6bd 8c5c dc3d 6c74 62bd 6825 ddbd
000000e0: 4036 6cbd 4a04 dd3d c8df f53d dc90 d03d
000000f0: 4004 6f3d 449d f13d bc19 12bd 6ea1 dfbd
00000100: 7808 ae3d f46a de3d 6803 fdbc 00e7 9fbb
00000110: 24a1 983d 0c01 9cbd 40dc 98bb d6e6 e73d
00000120: e862 113d 003e b5bc 5873 0b3d 5419 3cbd
00000130: 9adb b8bd 36df cd3d d86c 7abd 80fa 323d
00000140: 20da ccbc 6a76 aebd 8037 883b d023 503d
00000150: 560e aa3d e411 ee3d 7869 24bd d0e8 59bd
00000160: 88b6 943c 78fe cabd bc1f 53bd b455 06bd
00000170: 1c4b 74bd a8be 3c3d 8efd 96bd 7c0a a83d
00000180: e0ec 33bd 54fb 863d c4f1 dbbd 80c4 30bb
00000190: 9643 9b3d e0d8 39bd 2cc1 0a3d 60a5 0abd
000001a0: a895 323d 08b3 c83c 26b4 ba3d b847 013d
000001b0: f8d3 e53d 7600 aa3d c2e3 87bd 7af1 bbbd
000001c0: 2633 833d dcb8 0abd dc6d 1f3d 84e6 6fbd
000001d0: c42d dc3d 405b 3cbd b0e2 1e3c 8c02 c83d
000001e0: 88d4 013d 2420 873d a484 d83d 56e7 ce3d
000001f0: 382d 523d 8800 16bd a4c0 e23d 3e55 ae3d
0.058446243 -0.08888565 0.042518392 0.04047233 0.117178366 -0.09186338 0.08184369 0.018545792
0.113145664 -0.04226014 -0.10596591 -0.04961635 0.040950313 0.036279768 0.08657682 -0.12269625
-0.09164186 0.11570263 0.07025908 -0.100719586 0.00706695 0.10008544 0.058198735 -0.013883457
0.07824585 0.10602887 0.1133842 0.04753077 -0.110294655 -0.10051142 0.11520065 -0.0017092377
-0.059457257 0.05295077 -0.08173162 0.09155375 0.084904686 0.045348436 0.08580233 -0.0143965185
0.064492345 -0.08994745 0.092537835 0.04906845 -0.10179219 0.10120423 0.08474369 -0.08964065
-0.008305848 -0.109135374 0.10389526 0.015776768 -0.10468799 0.107598394 -0.05528681 -0.1079815
-0.057668924 0.10791834 0.120055735 0.1018388 0.058353662 0.11797574 -0.035669073 -0.10919462
0.08497709 0.108602434 -0.030885413 -0.0048798323 0.0745261 -0.07617387 -0.0046649277 0.11323325
0.035494715 -0.02212429 0.034045547 -0.045922592 -0.09026261 0.1005234 -0.061138958 0.043695927
-0.025006354 -0.085186794 0.0041570067 0.050815403 0.083035156 0.11624506 -0.040139645 -0.053200543
0.018153444 -0.09911817 -0.051543936 -0.032796577 -0.059641942 0.04608026 -0.073725805 0.08205125
-0.043927073 0.06590906 -0.107394725 -0.0026972592 0.0758125 -0.045372844 0.03387563 -0.03384912
0.043599755 0.024499431 0.09116392 0.031562537 0.112220705 0.08300869 -0.06635238 -0.091769174
0.0640624 -0.033867702 0.03892313 -0.058569446 0.107509166 -0.04598546 0.009697601 0.09766111
0.031696826 0.06597927 0.10572174 0.101027176 0.051312655 -0.0366216 0.110718995 0.085123524

2.weight f4 [128, 128]
00000000: 0ca8 09bd 32df 0cbd e0ff 5b3c 34ef ec3c
00000010: 946c 88bc 4f46 a8bd bec8 76bd 60ef fc3b
00000020: f22b 6f3d eedb 613d 0004 92bd ca79 373d
00000030: 0c61 1abd a86c 03bc cbeb a5bd 40f0 e63b
00000040: 5d85 8d3d e022 113b 183f 4fbd b31e b43d
00000050: 4843 12bd 27d3 9b3d eca5 b13c 742c 7ebd
00000060: 3dae a63d 40f0 ec3a 9c1d 8ebd 9d87 893d
00000070: 7477 cb3c b395 983d edf7 a9bd b0bf febc
00000080: aaa3 30bd 9aec 453d 66cf 683d 2ccc 9dbc
00000090: 974e 11bd 17f8 973d 88d7 9b3c b4ec 89bd
000000a0: 4c95 c9bc feda 8bbd d088 e3bb 5d24 a9bd
000000b0: 98bc 27bd f466 63bd 0080 db3b 12c2 703d
000000c0: 233f 92bd b465 94bd f1e3 59bd 4c4f cc3c
000000d0: 59b1 b43d 7e27 83bd dc67 88bd e8d8 a73c
000000e0: 1b14 33bd 0f4d 16bd baed 16bd a8d1 483c
000000f0: baed 7a3d e8ab b73c f830 083d 78ac 35bd
00000100: c07d e4bb a612 113d c308 803d 587b 8ebd
00000110: 86f8 1ebd 1ce7 bb3c 4c52 7bbd c089 413b
00000120: adaf 953d 009a b83a 6294 793d e46d c13c
00000130: 88c5 363c 01ff 8e3d bc3c a2bd d074 a33b
00000140: 6114 ab3d a239 f3bc ed93 3ebd ca1c 0a3d
00000150: 2cce fe3c ff99 19bd c03a 7bbc 4675 71bd
00000160: 3d8d 813d bcad ff3c 8097 0cbc be48 07bd
00000170: dd7c 973d 83b3 9a3d d6e3 583d ba1b 273d
00000180: 80f3 7ebb 700e 99bb 0e88 383d d9f4 82bd
00000190: b8f0 06bc d0a5 53bd 0337 a3bd a457 e23c
000001a0: d986 963d afdc b1bd 5bc2 8f3d 3e5d 1d3d
000001b0: 5f1b 71bd aa1d 513d 2d9c ab3d 5c87 9cbd
000001c0: 464c fabc f0e6 8fbc 10d0 943b 01d5 adbd
000001d0: 0662 033d e9d3 37bd 74bb 78bd e031 023c
000001e0: c692 733d 21a7 81bd 3295 73bd 02a7 35bd
000001f0: 10ea e53c ccc1 ab3c 3e82 72bd 6627 1b3d
00000200: ab5f 0fbd de4d 403d f0b0 0bbc acdc e03c
00000210: ed9c ae3d d81d 39bc 7456 883c be22 543d
00000220: 6074 c03b 0e39 0bbd 007c 61bc 5efe 5f3d
00000230: 88e0 923c f602 5bbd cef1 4bbd bf10 a23d
00000240: e4c2 9dbc 8b20 88bd e036 83bd 81b7 a53d
00000250: 3063 e8bb 16eb 6c3d 3c20 b13c 3c69 b33c
00000260: dd96 ad3d 8273 413d 6068 c3bc 3d53 9e3d
00000270: 00b2 dcbb 7577 5dbd b836 8ebd a60a ecbc
00000280: 9dd3 a23d 9116 a93d 62af 7fbd 159e 8cbd
00000290: a066 6fbc f8f4 2a3c c57d ab3d 127e 763d
000002a0: 1fba 893d 3e27 8ebd 005f 7fbb 3c6d 123d
000002b0: 79ba 853d 4e0b 28bd 0712 ae3d c4ba a7bc
000002c0: 9343 973d e64b dbbc b8bb 543c 8077 343b
000002d0: e6ff 17bd 26f7 67bd 7411 8cbc 9c9c 86bd
000002e0: 10dc 553c 70b2 f3bb 5047 de3c 8087 643c
000002f0: c5e6 35bd 8225 533d 895e 1dbd aa81 073d
00000300: 4049 fc3c c62d 643d 1424 983c 92b6 1e3d
00000310: a007 333b f075 963b 8303 22bd 1934 17bd
00000320: 380a 503c a887 113d 10ec 9d3b 609f 0f3d
00000330: 3e68 6f3d 3085 72bd e29b 72bd 709d 5ebd
00000340: 5024 cc3c 505f 80bb 00cf 1e3a 6cce 81bd
00000350: 4e08 4f3d aa57 3d3d f03d e73b 626a 7dbd
00000360: 82de 673d 284a 153c d924 a53d 7f98 abbd
00000370: ca3a 4abd b7b9 803d b484 a13c aa24 b1bd
00000380: b2ae 743d ef8f b0bd 6ada abbd 26a1 1c3d
00000390: a6dd 293d 10df 2b3c fef2 5e3d c4bb a73c
000003a0: 204a cabb f12c 38bd 9f0a 3fbd 0ee7 efbc
000003b0: 6371 27bd 4c8f bebc a022 d73b 9632 363d
000003c0: f58e a0bd 6c98 bbbc de4a 2c3d fdf8 0dbd
000003d0: f843 74bd c2f9 6c3d 26b1 1e3d 2cd1 cdbc
000003e0: c816 073c 2e3f 7b3d 3ef6 e0bc 9d83 65bd
000003f0: a36e 07bd 9172 10bd 9403 d63c 67e1 13bd
-0.033607528 -0.034392543 0.013427705 0.028922655 -0.016653337 -0.08216535 -0.060250036 0.0077189654
0.05839152 0.055141382 -0.07129669 0.04479388 -0.037690207 -0.008021511 -0.081016146 0.007047683
0.06910203 0.0022146031 -0.05059728 0.08794918 -0.035708696 0.076086335 0.021685563 -0.062054113
0.08138702 0.0018076971 -0.06939241 0.06715319 0.024837233 0.07450428 -0.08299241 -0.031097263
-0.043124832 0.048321344 0.056838416 -0.019262396 -0.03547534 0.07420366 0.019023672 -0.06734601
-0.024607323 -0.06828879 -0.0069437996 -0.08258889 -0.04095134 -0.055518106 0.0066986084 0.05877883
-0.071409486 -0.07245961 -0.053195897 0.024940155 0.08822889 -0.06404017 -0.066604346 0.020489171
-0.043720346 -0.036694583 -0.036847807 0.012257017 0.06126187 0.022420838 0.033249825 -0.044353932
-0.0069729984 0.035418175 0.06251671 -0.0695712 -0.03881123 0.02293735 -0.06135778 0.0029531568
0.07308898 0.0014083982 0.060932525 0.02361197 0.011155494 0.06982232 -0.079217404 0.0049882904
0.08353496 -0.029690567 -0.04652779 0.03371886 0.03110417 -0.037500378 -0.015333831 -0.05894973
0.06325767 0.031210773 -0.008581042 -0.033028357 0.07396863 0.075537704 0.052951656 0.040797926
-0.0038902462 -0.0046709105 0.045051627 -0.06394357 -0.008236103 -0.051671803 -0.07969477 0.027629681
0.07349939 -0.0868467 0.07019492 0.038419 -0.058863994 0.05105368 0.083793975 -0.07643005
-0.030553948 -0.017566174 0.0045414045 -0.08487893 0.032075904 -0.044879828 -0.060725644 0.007946461
0.059466146 -0.063307054 -0.059468456 -0.044348724 0.028065711 0.020966433 -0.05920624 0.03787937
-0.035003345 0.04694926 -0.008526072 0.027448975 0.08526025 -0.011298619 0.016642787 0.051790945
0.005873248 -0.03398996 -0.013762474 0.054685943 0.01792933 -0.05346962 -0.04979115 0.0791335
-0.01925797 -0.06646832 -0.06406951 0.08091641 -0.007091902 0.057841383 0.021621816 0.021900766
0.084760405 0.047229297 -0.02385348 0.0773072 -0.0067350864 -0.054069 -0.069440305 -0.028813671
0.07950518 0.08256257 -0.062423117 -0.06866089 -0.01461187 0.010434382 0.08373598 0.060178824
0.06724953 -0.069410786 -0.0038966537 0.035748705 0.065297075 -0.041026406 0.08499532 -0.020474799
0.07385936 -0.02676959 0.012984209 0.0027537048 -0.03710928 -0.056632183 -0.017098166 -0.065728396
0.013052955 -0.007437043 0.027133614 0.013948321 -0.044409532 0.051549442 -0.038420234 0.03308264
0.030796647 0.055707715 0.01857189 0.03874833 0.0027317777 0.004591696 -0.03955413 -0.03691492
0.012697749 0.035529763 0.0048194006 0.0350641 0.058449022 -0.05920905 -0.059230693 -0.054349363
0.024919659 -0.003917612 0.0006058067 -0.063382 0.05054503 0.04622618 0.007056944 -0.061869033
0.056608684 0.0091119185 0.08063669 -0.08378696 -0.049372472 0.06285422 0.019716598 -0.08649571
0.059736915 -0.08621203 -0.083912686 0.03823962 0.041471146 0.010490194 0.054430954 0.020475276
-0.006173387 -0.044964734 -0.04664099 -0.02928498 -0.04087962 -0.023261689 0.006565407 0.044481836
-0.07839767 -0.022899829 0.042063586 -0.03466128 -0.059635133 0.057855375 0.03874316 -0.025124155
0.008245178 0.06133955 -0.027461167 -0.05603372 -0.033064496 -0.03526551 0.026124753 -0.036103632

2.bias f4 [128]
00000000: 9f7d 1ebd 2f7e 07bd 8bf9 4abd b4e2 83bd
00000010: dc4c 86bc 1018 34bc b3f1 a43d 1846 d1bc
00000020: 1886 263c 20ee 7f3c d3f6 07bd 3085 01bd
00000030: 10d4 d1bb 4864 2bbc 2a4e 553d 7f55 9dbd
00000040: c2ac 333d 81f6 a7bd 0c53 a0bc 9857 133c
00000050: 1c1d 87bd f62f 6b3d 8fc9 a93d 76df 763d
00000060: c0f5 3e3c 8077 6fbb e3fd 8e3d 8227 3e3d
00000070: a1e4 943d 6759 853d f623 643d 9fce b43d
00000080: 5b93 943d d939 8c3d 9836 e83c 275d 08bd
00000090: ac8c c2bc a603 513d 0024 8438 7059 95bc
000000a0: 4757 ab3d 3018 1e3c e297 203d 6022 043b
000000b0: e644 a7bd 5e87 0f3d 9821 7a3c 2a08 b1bd
000000c0: 52ab 153d 41a7 8b3d b03d ca3c f297 713d
000000d0: be5b 6abd 524d 4f3d 67b1 05bd 10b2 6dbd
000000e0: bc26 aebc aebe 7d3d 6053 5e3c a0a0 ebbb
000000f0: a039 dcbc 222e 573d e8eb 7ebc eefb 293d
00000100: 12bb 3cbd c627 673d dae9 7e3d 505c 083d
00000110: 203f 63bc 39b4 9ebd 0787 6dbd 3ac5 a1bd
00000120: baaf 473d 19bb 8e3d 906c a9bc 4f33 a93d
00000130: b047 d8bb 5b1b 24bd 8a07 133d 3c2c a6bc
00000140: 8921 2ebd be63 2dbd fc4c b1bc f8d4 0f3d
00000150: bdf1 29bd 9188 ac3d fc44 48bd 9818 11bd
00000160: 6618 6a3d a050 3b3c e844 a2bd e8e9 743c
00000170: a2d5 543d ebce 9d3d eaf7 98bd 9dea 9a3d
00000180: 6d4e a33d 2041 803c 3e9b 603d 019c 973d
00000190: b625 f5bc 80a5 39bb 9de0 8d3d df64 a23d
000001a0: a19e 863d 7c01 afbc ac6e 823c c4b7 7fbd
000001b0: 2264 d8bc befc 603d 60f5 8dbd 0c4f 9ebd
000001c0: 0fdf 88bd 3696 633d 6e25 77bd 92e2 0dbd
000001d0: 8222 523d 1e52 693d 8c3f 803c ff3b 8f3d
000001e0: 2250 0e3d 0623 363d 00f4 fe3b 14b5 cf3c
000001f0: a461 98bd 73a2 28bd c821 64bd b8f7 383c
-0.03869402 -0.033079322 -0.04955439 -0.064397246 -0.016394071 -0.010992065 0.08053913 -0.025546119
0.010163806 0.015620738 -0.033194374 -0.031621158 -0.0064034536 -0.010460921 0.052076496 -0.07682323
0.043865927 -0.08201314 -0.01957085 0.008993052 -0.06597349 0.057418786 0.082903974 0.060271703
0.011655271 -0.0036539733 0.06982019 0.046424396 0.0727017 0.06511193 0.055698358 0.08828472
0.07254668 0.06846971 0.028346345 -0.033291962 -0.023748718 0.05102887 6.300956e-05 -0.018231124
0.08366256 0.009649321 0.039207347 0.002016209 -0.08167438 0.035041206 0.015266798 -0.08644135
0.036540337 0.068190105 0.024687618 0.058982797 -0.0572164 0.050610848 -0.032639887 -0.05803114
-0.021258704 0.061949424 0.013569683 -0.007190779 -0.026882946 0.05253423 -0.015559174 0.041500024
-0.04607684 0.056434415 0.062234737 0.03329116 -0.013870031 -0.077492185 -0.0579901 -0.07898946
0.04875157 0.0696928 -0.02068165 0.082617395 -0.0066003427 -0.04006515 0.03589586 -0.020284764
-0.04251245 -0.04233145 -0.021643154 0.035115212 -0.041490305 0.084244855 -0.048893914 -0.035423845
0.057152174 0.011432797 -0.07923299 0.014948346 0.05196155 0.07705482 -0.07469161 0.0756428
0.07973943 0.015656054 0.05483555 0.07402802 -0.029925209 -0.0028327405 0.06927607 0.07929396
0.06573225 -0.021363012 0.015921913 -0.062431112 -0.026414935 0.054928534 -0.06931567 -0.07729921
-0.0668317 0.055563174 -0.06033843 -0.034639902 0.05130244 0.05696308 0.015655302 0.06993865
0.03474439 0.044466995 0.007780552 0.0253549 -0.074404985 -0.04117055 -0.05569628 0.0112895295

4.weight f4 [64, 128]
00000000: 9e01 223d 2151 823d 8ef9 6b3d 58fa 183c
00000010: bbb7 953d 206b 51bb 3f2d 13bd dc8f 66bd
00000020: 1e7e 563d a637 3a3d 9abd 0bbd 10f6 63bd
00000030: dfbb 883d 3e60 013d cf40 42bd 2a1c 163d
00000040: 0989 8c3d 3305 03bd 46b0 8cbd 166a 513d
00000050: c01e a6ba ea51 6a3d ed6b 9d3d 301f c03b
00000060: d0ec 993c 3e9b 9fbd 7f69 803d 26de 86bd
00000070: 3c6a 6fbd c46e 7ebd 2d57 8c3d 499c 943d
00000080: 033c 53bd 18cc 6abc aade 203d 703e 63bd
00000090: 1338 8d3d 0ef8 1c3d 70f6 d93b 7096 f4bc
000000a0: 098e 973d 6a07 4e3d 8833 abbc 9db8 17bd
000000b0: 3832 063d e511 10bd 8e6e aabd 1b76 95bd
000000c0: b483 d63c 569e 133d 74a3 d13c 782b e6bc
000000d0: 61cf 9d3d 7f49 97bd 47db 3abd dc6e b1bc
000000e0: f452 bebc 64f4 27bd 3c48 033d 6d04 a8bd
000000f0: 2297 3c3d d02c 1bbc afa3 2fbd 6215 5cbd
00000100: a0b4 023d 0020 faba 87da a43d b203 71bd
00000110: ee55 2a3d 55c0 87bd 384b 483c 0cdf a5bd
00000120: 0873 2c3c 814c ad3d 68de 0dbd 2865 fa3c
00000130: 87e7 1dbd fbc5 95bd 85f9 ab3d b0c7 bdbc
00000140: 2c18 a9bd 007c 43ba d9fa adbd 62cf aebd
00000150: 0347 28bd 0c6f 123d 1e28 33bd fec6 14bd
00000160: 757d a7bd 14e1 033d f569 953d 800c 3c3b
00000170: fcbb 86bc fbc0 93bd ae82 83bd 3631 89bd
00000180: 7058 21bc 8082 773c 98a2 b3bd 35c1 8ebd
00000190: 75cc b0bd 60f1 5abb eda8 71bd 7e73 4d3d
000001a0: fe9d 513d 6414 e93c c607 84bd 48d7 0c3c
000001b0: 3826 24bc f88e 66bc e613 583d fff0 51bd
000001c0: 60b9 663b 60e7 a6bb 5826 853c 049b afbd
000001d0: 55c7 b1bd d0a8 7cbc dbd2 853d a899 a5bc
000001e0: 7c26 a7bc 91dd 973d b390 7dbd 94ab a8bd
000001f0: 0230 313d daa8 10bd 2278 0d3d 698d ad3d
00000200: 6966 ad3d 6431 0a3d 528a 6c3d e886 3bbc
00000210: 50ea 56bc ca58 543d d8d4 eb3c a2f8 643d
00000220: 10e2 883c c016 d4bc a6bf 253d f2dc 7f3d
00000230: 2e54 72bd 3809 89bd 0097 82b9 c822 4abd
00000240: 293d 853d d06d ad3b a800 c0bc 42c8 733d
00000250: 11e5 abbd ecb4 c8bc 0070 a2b8 90c4 66bd
00000260: c8b8 5fbc eabb 4f3d ec78 4bbd ca20 e4bc
00000270: c200 75bd 10c4 dd3c 0811 6bbc 3a2e 753d
00000280: 5561 993d f548 8f3d 2afb 133d a3d3 56bd
00000290: 6efc 163d f7df ad3d 3d84 ad3d 085a 043c
000002a0: 6059 00bd 93a9 76bd 009c ceba 5271 4c3d
000002b0: f0f1 ac3c 7bed b23d aee5 7e3d 1af0 673d
000002c0: 26b4 f5bc 40ab 143d 3ad4 b4bd da0f 03bd
000002d0: 5b9e 2bbd de8e 2fbd e0c5 243c 200f a53b
000002e0: f3cf 8cbd 200c a13b f0b2 8b3c 0cca a53c
000002f0: d8f0 0f3c 79aa b3bd b858 483c a0ec 123d
00000300: 32c1 3bbd c287 3b3d c113 853d 0427 b53c
00000310: eef0 92bd 94e0 b33c 9689 7a3d 4327 16bd
00000320: 2018 dfbb 0edc 093d 4898 7cbc bb21 863d
00000330: 7863 1f3c e04e a6bc 8c4f 57bd 965f 4c3d
00000340: b353 10bd f009 b7bc 1c61 a4bd ec6b 3bbd
00000350: 322e 17bd 9cc5 ec3c 2d72 a03d b7a5 b13d
00000360: eab6 783d e2d5 b0bd d0b1 d33b c0f3 353b
00000370: a636 adbd 34c1 a7bd 005d 073c 20ce b93b
00000380: 97a9 a1bd d4c2 a33c 2280 643d b4c5 a8bd
00000390: e807 33bc c09d f53c ceb0 473d 9a41 83bd
000003a0: e959 a83d 70a3 d2bb 8576 b03d 33a0 823d
000003b0: 4030 d3bc 37f6 9e3d 2a33 7c3d 5143 a23d
000003c0: be2b 8ebd 60fe 273b f94c b13d 7d68 7abd
000003d0: ee10 06bd 84b0 113d 708a e8bb 0220 233d
000003e0: 0319 903d d959 8b3d 9e59 82bd ec0b cdbc
000003f0: 5736 a33d 7eae 553d 4e83 f7bc d673 2abd
0.039552324 0.0636313 0.05761104 0.00933703 0.073104344 -0.003195472 -0.035931822 -0.05628954
0.05236637 0.045463227 -0.034116365 -0.055654585 0.066764586 0.031585924 -0.047425088 0.036647953
0.06862075 -0.03198738 -0.06869559 0.051126562 -0.0012673959 0.057207026 0.07686601 0.005863093
0.018789679 -0.07793282 0.06270122 -0.0658534 -0.058450922 -0.062117353 0.06852565 0.072563715
-0.051570904 -0.014330886 0.03927485 -0.055479467 0.06895461 0.0383225 0.006651692 -0.02985689
0.07400138 0.05030004 -0.020898595 -0.037041295 0.032762736 -0.035173316 -0.08321868 -0.072979175
0.026185848 0.036039673 0.025590636 -0.0280969 0.0770557 -0.07387065 -0.045619275 -0.021659307
-0.023232915 -0.041004553 0.03205131 -0.08203969 0.04604257 -0.009471133 -0.04288071 -0.05373133
0.03191054 -0.0019083023 0.08049493 -0.058841415 0.041585855 -0.06628481 0.012224965 -0.080991834
0.010525472 0.084618576 -0.03463593 0.030565813 -0.03855088 -0.073131524 0.083972014 -0.023166507
-0.082565635 -0.0007457137 -0.08495111 -0.08535649 -0.041083347 0.035750434 -0.04373943 -0.036322586
-0.08178226 0.032197073 0.072956 0.0028693974 -0.01644706 -0.072145425 -0.064214095 -0.06698839
-0.009847745 0.015106797 -0.08771247 -0.06970445 -0.08632747 -0.003340803 -0.05899899 0.05015897
0.051176064 0.028452106 -0.06446795 0.008596249 -0.010018878 -0.014072172 0.05275335 -0.051255222
0.0035205707 -0.0050935 0.016253635 -0.08574489 -0.08680598 -0.015421107 0.06534358 -0.02021487
-0.020404093 0.07415307 -0.061905574 -0.08235851 0.043258674 -0.03531728 0.034538396 0.084742375
0.08466799 0.03373851 0.0577491 -0.011445738 -0.013117388 0.05184249 0.028788015 0.055901177
0.016709358 -0.025889754 0.040465973 0.06246657 -0.05916231 -0.066912115 -0.00024908036 -0.049349576
0.06505806 0.0052926317 -0.023437813 0.059517153 -0.083933 -0.024500333 -7.7456236e-05 -0.0563398
-0.013654895 0.05071632 -0.049675867 -0.027847666 -0.059815176 0.027071029 -0.014347322 0.05985854
0.07489268 0.06996337 0.0361282 -0.052447926 0.03686183 0.084899835 0.08472488 0.008078106
-0.031335235 -0.060220312 -0.0015763044 0.04991276 0.021111459 0.08736702 0.06223076 0.056625463
-0.029993128 0.03629613 -0.088295415 -0.03199754 -0.041899066 -0.04286086 0.010056943 0.0050372034
-0.06875601 0.0049147755 0.017053097 0.020237945 0.008785449 -0.087727495 0.012228183 0.035870194
-0.045838542 0.045783766 0.064979084 0.02211333 -0.0717486 0.021957673 0.06116637 -0.036658537
-0.006808296 0.033657126 -0.015417166 0.06549402 0.009728305 -0.020301282 -0.052566096 0.049895845
-0.03523607 -0.022343606 -0.08026335 -0.04575722 -0.03690929 0.028902821 0.07834277 0.08674186
0.060721315 -0.08634545 0.006460406 0.0027763695 -0.08457689 -0.081911474 0.008261919 0.005670324
-0.07893675 0.019990362 0.05578626 -0.08240834 -0.010927178 0.029982448 0.0487526 -0.06408997
0.08220274 -0.0064281747 0.08616356 0.06378212 -0.025779843 0.077618055 0.06157223 0.07922996
-0.06941937 0.0025633797 0.086572595 -0.061134804 -0.03273099 0.03556873 -0.007096581 0.039825447
0.070360206 0.068042465 -0.06364749 -0.025030099 0.07969349 0.05216836 -0.030213978 -0.041614376

4.bias f4 [64]
00000000: b1df 8c3d 882d 18bc d8f8 733c 1ec5 673d
00000010: e47a c8bc 9271 3a3d eec9 8fbd 4acd 1e3d
00000020: 20e7 003c d945 973d e411 0cbd e007 cbbb
00000030: a6b6 2d3d b5cd 9e3d 8a29 6d3d 7c52 033d
00000040: a85a 0e3d d83b 7d3c 3fe7 24bd 458d a73d
00000050: 7883 89bd b836 eebc d7ed a9bd f090 5e3c
00000060: fc9b a83c e596 71bd 91ce b1bd 4253 6cbd
00000070: ea59 563d dd47 8cbd a088 a5bc 7c0f febc
00000080: a87f 65bc 2885 04bc fe2f 3d3d 3599 9c3d
00000090: 80cc 023c 5135 7dbd 2e80 703d 001a b9ba
000000a0: e47e e6bc f41d 833c 2c4a 50bd 894e adbd
000000b0: 4148 923d aedb 493d e8a7 343c 3346 a63d
000000c0: 381a 70bd c7ae 893d ec23 9bbd c49f 023d
000000d0: d111 8a3d 6403 b3bc 41e8 813d e7bd ab3d
000000e0: 188d 113c 1807 9fbc 90a2 a2bd 0ac3 0d3d
000000f0: c83a c63c 24fd dfbc f84d e1bc 54a9 acbc
0.06878603 -0.009288199 0.014890872 0.05658447 -0.024472661 0.045518465 -0.07020937 0.038769998
0.0078676045 0.07386369 -0.03419675 -0.006196007 0.042410515 0.07754079 0.057900943 0.032061085
0.034754425 0.015456162 -0.040259596 0.08181242 -0.06714529 -0.029078826 -0.082973175 0.0135843605
0.020582192 -0.058981795 -0.086819775 -0.05769659 0.052331842 -0.06849644 -0.02020675 -0.031013243
-0.014007486 -0.008088388 0.046188347 0.076464094 0.007983327 -0.061818425 0.05871599 -0.0014122128
-0.028136678 0.016005494 -0.050851986 -0.08462245 0.071426876 0.04928177 0.01102636 0.08118858
-0.058618754 0.06722789 -0.07575211 0.031890646 0.067416795 -0.021852203 0.06343127 0.083858304
0.008883737 -0.019412562 -0.079411626 0.034609832 0.024197951 -0.027342387 -0.027502999 -0.021076836

0.weight f4 [128, 64]
00000000: 8c88 05be e5fb 1b3e d264 cebd 81fa 25bd
00000010: 27db d9bd 9465 3f3d a6e1 d4bc d898 573e
00000020: 7f59 67bd eb47 9bbc fe84 c03d 57ff 953d
00000030: 54db ec3d 0f43 253d e749 e8bd 79fb 14be
00000040: 6fde 43be 1e04 1ebd 4b3f dfbd 45b6 02be
00000050: c6f6 0c3e b088 0d3e b0e3 8c3c d256 3d3e
00000060: 8093 1ebe 7e5a 0ebe ee23 a93c f92c 4e3d
00000070: fcf1 3a3e 6e14 8cbc b3f4 e3bb 36a2 a53d
00000080: 713d 2cbd c7c8 c5ba c45d d7bd 1fb8 e8bd
00000090: 8e1b 9d3d 66cf 9fba 0154 cdbd 9293 37be
000000a0: ebda 0fbe 8222 083d eca6 e83b 4f3d 2cbe
000000b0: 1822 453d 4a2c fb3d 7415 503e f60d 09bd
000000c0: 1a9f 343b 0132 2bbe 2ac2 4ebe 31f3 d4bb
000000d0: 94e4 393c 4e67 00bd fdb7 32be 4f3c a9bd
000000e0: 5743 b63d b8ab 9abd 34a7 77be 7c5d 873d
000000f0: 9e76 b7bd 5073 723c cccb de3d c86c b03d
00000100: 5552 983d 0c89 a03d a01a 5a3e abfa 7dbe
00000110: 09c6 913d 5096 2c3d dbc2 36be c833 c5bd
00000120: b27e c33d c2cd 0b3e 7948 8dbc 6420 09be
00000130: 5964 85be b3b2 0bbd 338e 063e 4f0a 48be
00000140: 6b7c 723e b8aa 3bbd c45c 9cbd 09b9 c9bd
00000150: 2b6a bdbd a841 e63d 3700 82bd 5ecf 1fbe
00000160: 42f5 3ebc a8f1 ab3c 3a1d acbd 22a3 223e
00000170: 93f7 5c3e 6f42 a43d efb4 d63c d329 30bd
00000180: bf75 843d ac64 b4bd 4df7 13bd 779f e9bd
00000190: 6eed e6bd fd34 8c3d 49b7 0a3e 5dd7 e0bd
000001a0: b230 9abd fa69 8e3d 0851 83bd 4bee 01be
000001b0: ce63 e83d 00fc f43d e8f4 54be 5673 663c
000001c0: 4e5d 103d 3945 963c 5eb4 6e3d 699d 123e
000001d0: 89ad 05be 1ba4 aebc 0040 743e 06d2 8e3b
000001e0: 1097 843d 592b 07bd 4efb 90bd 0f57 f53d
000001f0: b7c2 0b3e 98cb 65be f597 eabd 8398 9b3d
00000200: 5e25 403e 7d85 f0bd cc67 27be 0020 7bbd
00000210: f2f6 d63c f22a cbbd 2a28 d33c 0e9c a43d
00000220: 0c84 de3d 302a 9bbd 08c2 d13d cbc6 c1bb
00000230: 2f1c 383e 5822 05be 3203 d7bb f638 75bd
00000240: 4d9e 413e 1bee c43d dbbc c7bd 0a2a 8b3d
00000250: 36c3 6dbd e525 5f3e a3c9 2abc 14e0 86bc
00000260: b269 ecbd 6beb 113e 4057 0e3e e791 28be
00000270: 2da9 70bd 1f6d 1fbe a1db d33d 830c 39bd
00000280: 7fd8 5abd df47 01be d8bb 7f3d a305 4d3d
00000290: 2c9b 523d 9599 7d3e cbc1 103e c7fc 153e
000002a0: 6ba6 f6bc fb72 d63c 7a12 923d 9929 27be
000002b0: 32a1 f7bc c1f4 12bd 52ef 9f3e 8691 583d
000002c0: 5795 0a3e 36bc b73d 0381 593c 38c8 823d
000002d0: 1e0f 1dbe d142 5cbe 7566 073d 502c 3ebd
000002e0: 38b8 90bd 487f 05bd 294c 05bd 10e7 863b
000002f0: 322a 0c3e 48a0 d03c 5f22 8cbb e781 3abb
00000300: 8be4 88bd 5c84 a23d b040 373d 785d 4a3a
00000310: 8e89 30bd daa5 bebc 5030 33bd 09f4 873d
00000320: dfe0 e7bd e96a cd3d afed 04be 2828 16bd
00000330: c01d 983d 63d2 bcbd da97 13be fdd1 f0bd
00000340: d624 8dbe d9f3 2b3e 79e5 213e 33cd 0a3d
00000350: dd5f 15bd 6116 1dbd c0ed 553e f9a6 a3bb
00000360: 8a9b fabc 5329 b2bd 0efa edbd 86a9 f4bc
00000370: 6900 32bd db6e 933d 6297 803e 909d a3ba
00000380: e718 45be 56a0 0b3d ee08 14be 2fad fdbc
00000390: 2670 5f3e a6ee 0bbe f91f c73d 02cf 53be
000003a0: e77a 2d3e eeb4 0d3e 3025 36be cec8 d3bc
000003b0: 6961 353d 301d c0bd e50b f3bc 3eb6 643c
000003c0: d3c8 753e b0f9 393e b6f8 58be 496f 41be
000003d0: 6dc0 55be 3423 05be f1eb 3abd 1f7a 0abe
000003e0: 57c7 2f3d 4332 50be 6149 1d3e 2487 9e3c
000003f0: 1036 d9bd a3f4 0dbd ac6c acbd c729 463e
-0.1304037 0.15232809 -0.10077824 -0.040522102 -0.10637503 0.04672773 -0.025986504 0.21054399
-0.056481835 -0.018955192 0.09400366 0.07324093 0.11565271 0.040347155 -0.11342221 -0.14549054
-0.1912782 -0.038578145 -0.10900744 -0.12764843 0.13766012 0.13821673 0.017198414 0.1849015
-0.15485954 -0.13901708 0.020647015 0.050335858 0.18256372 -0.017099585 -0.0069566607 0.0808758
-0.042050783 -0.0015089744 -0.10515931 -0.11363243 0.07671271 -0.0012192547 -0.10025788 -0.17927387
-0.14048354 0.033236034 0.0070999768 -0.16820262 0.048128217 0.12264307 0.20320684 -0.03346058
0.0027560652 -0.16718294 -0.20191255 -0.0064987172 0.011346001 -0.03134852 -0.17452998 -0.08263456
0.08899563 -0.07552284 -0.24184877 0.066096276 -0.08958171 0.014798 0.10878715 0.086144984
0.074375786 0.078386396 0.21299219 -0.24802653 0.0711785 0.042135537 -0.17847769 -0.09629017
0.095456496 0.13652709 -0.017246472 -0.13391262 -0.26053122 -0.034105968 0.13140182 -0.19535182
0.23680274 -0.045817107 -0.07634881 -0.09849746 -0.092487656 0.11242992 -0.06347697 -0.15606448
-0.011655154 0.020989254 -0.08404012 0.15882543 0.21578817 0.08020484 0.026209323 -0.043008637
0.06467771 -0.08808264 -0.036124516 -0.11407369 -0.11275755 0.06846044 0.1354648 -0.10978577
-0.07528819 0.06953807 -0.0641194 -0.12688558 0.11347161 0.11962128 -0.2079655 0.014065584
0.035245232 0.018343555 0.05827748 0.1431786 -0.1305448 -0.021318486 0.23852539 0.004358533
0.064741254 -0.033000324 -0.070791826 0.11979496 0.13648497 -0.22440946 -0.11454765 0.07597449
0.18764254 -0.11744211 -0.16348189 -0.061309814 0.0262408 -0.099203005 0.025775988 0.080375776
0.1086503 -0.07576406 0.10242087 -0.0059135905 0.17979501 -0.13001382 -0.00656166 -0.059868775
0.18908043 0.096157275 -0.09752818 0.06795128 -0.058047496 0.217918 -0.0104240505 -0.01646427
-0.11543597 0.14249961 0.1390047 -0.16461907 -0.05875509 -0.1556897 0.10344625 -0.045177948
-0.053429123 -0.12625073 0.062435 0.050054204 0.051417515 0.24765618 0.14136426 0.14647208
-0.030108651 0.026177874 0.071324304 -0.16324462 -0.030228231 -0.035877947 0.31237274 0.052873157
0.13533531 0.08971445 0.013275388 0.06385845 -0.15337798 -0.21509863 0.033056695 -0.04642898
-0.07066387 -0.032592088 -0.032543335 0.0041169003 0.13687971 0.025467053 -0.0042765583 -0.0028458775
-0.06684216 0.07935402 0.044739425 0.00077196164 -0.043099932 -0.023272444 -0.043747246 0.06638343
-0.11322188 0.10030157 -0.12981294 -0.03665939 0.07427549 -0.092198156 -0.14413396 -0.11758802
-0.27567166 0.16792239 0.15810193 0.0338871 -0.036468375 -0.03835142 0.20891476 -0.00499427
-0.030591745 -0.08699288 -0.1161996 -0.029865991 -0.043457422 0.071988784 0.25115496 -0.001248287
-0.1924778 0.034088455 -0.14456531 -0.03096637 0.21820125 -0.13665256 0.09722895 -0.20684436
0.16941415 0.1383855 -0.17787623 -0.025852587 0.04428235 -0.09380567 -0.029668758 0.013959466
0.2400239 0.18161654 -0.21188626 -0.18890108 -0.20874186 -0.1300171 -0.045635168 -0.13523148
0.042914715 -0.20331673 0.15360023 0.01935155 -0.10606015 -0.034657132 -0.08419165 0.19351874

0.bias f4 [128]
00000000: 0000 0000 0000 0000 0000 0000 0000 0000
00000010: 0000 0000 0000 0000 0000 0000 0000 0000
00000020: 0000 0000 0000 0000 0000 0000 0000 0000
00000030: 0000 0000 0000 0000 0000 0000 0000 0000
00000040: 0000 0000 0000 0000 0000 0000 0000 0000
00000050: 0000 0000 0000 0000 0000 0000 0000 0000
00000060: 0000 0000 0000 0000 0000 0000 0000 0000
00000070: 0000 0000 0000 0000 0000 0000 0000 0000
00000080: 0000 0000 0000 0000 0000 0000 0000 0000
00000090: 0000 0000 0000 0000 0000 0000 0000 0000
000000a0: 0000 0000 0000 0000 0000 0000 0000 0000
000000b0: 0000 0000 0000 0000 0000 0000 0000 0000
000000c0: 0000 0000 0000 0000 0000 0000 0000 0000
000000d0: 0000 0000 0000 0000 0000 0000 0000 0000
000000e0: 0000 0000 0000 0000 0000 0000 0000 0000
000000f0: 0000 0000 0000 0000 0000 0000 0000 0000
00000100: 0000 0000 0000 0000 0000 0000 0000 0000
00000110: 0000 0000 0000 0000 0000 0000 0000 0000
00000120: 0000 0000 0000 0000 0000 0000 0000 0000
00000130: 0000 0000 0000 0000 0000 0000 0000 0000
00000140: 0000 0000 0000 0000 0000 0000 0000 0000
00000150: 0000 0000 0000 0000 0000 0000 0000 0000
00000160: 0000 0000 0000 0000 0000 0000 0000 0000
00000170: 0000 0000 0000 0000 0000 0000 0000 0000
00000180: 0000 0000 0000 0000 0000 0000 0000 0000
00000190: 0000 0000 0000 0000 0000 0000 0000 0000
000001a0: 0000 0000 0000 0000 0000 0000 0000 0000
000001b0: 0000 0000 0000 0000 0000 0000 0000 0000
000001c0: 0000 0000 0000 0000 0000 0000 0000 0000
000001d0: 0000 0000 0000 0000 0000 0000 0000 0000
000001e0: 0000 0000 0000 0000 0000 0000 0000 0000
000001f0: 0000 0000 0000 0000 0000 0000 0000 0000
0.0 0.0 0.0 0.0 0.0 0.0 0.0 0.0
0.0 0.0 0.0 0.0 0.0 0.0 0.0 0.0
0.0 0.0 0.0 0.0 0.0 0.0 0.0 0.0
0.0 0.0 0.0 0.0 0.0 0.0 0.0 0.0
0.0 0.0 0.0 0.0 0.0 0.0 0.0 0.0
0.0 0.0 0.0 0.0 0.0 0.0 0.0 0.0
0.0 0.0 0.0 0.0 0.0 0.0 0.0 0.0
0.0 0.0 0.0 0.0 0.0 0.0 0.0 0.0
0.0 0.0 0.0 0.0 0.0 0.0 0.0 0.0
0.0 0.0 0.0 0.0 0.0 0.0 0.0 0.0
0.0 0.0 0.0 0.0 0.0 0.0 0.0 0.0
0.0 0.0 0.0 0.0 0.0 0.0 0.0 0.0
0.0 0.0 0.0 0.0 0.0 0.0 0.0 0.0
0.0 0.0 0.0 0.0 0.0 0.0 0.0 0.0
0.0 0.0 0.0 0.0 0.0 0.0 0.0 0.0
0.0 0.0 0.0 0.0 0.0 0.0 0.0 0.0

2.weight f4 [128, 128]
00000000: 7112 11be adc2 173c 0c24 0d3d e51b 81bd
00000010: 0c78 69bd cd3a 0abe 22c4 803e 8c6c 2e3c
00000020: 9b9a c33c 0340 fa3d a2a1 df3d 7816 cfbd
00000030: 7519 e53d 14e4 b53d b6c2 c53c e8a8 ec3d
00000040: 44ef b23d 7582 983e e211 b8bc de69 803d
00000050: 0983 48be 5821 dbbb f370 f83c e1a3 78be
00000060: 8a57 283e c6fc 233d e89d 63bc 81bb db3d
00000070: 5c8d 17bb e85d c13d b301 dcbd fc3f 5a3d
00000080: fd7c febc 5b52 2abe 5447 4d3d cf45 c43d
00000090: 1760 653c 962e 94be 4783 25be 002c 973e
000000a0: c80b 163e 014b d23b b830 a0bd 2c6c f33c
000000b0: 4539 b0bd 47f3 38be d7d4 ba3d 002b 1c3d
000000c0: 8d63 0a3c 418f c2bd c359 ea3d 13ac ac3a
000000d0: 9f2b 7e3e 9f94 36be 7720 b73c 73ee ec3d
000000e0: 3e1f 80be 661a 0fbd 8939 933c 02fd 10bd
000000f0: 25dc 41be 63cf 64bd f58b 16bd a074 6e3d
00000100: 1cd5 44bd dfb0 b23d b184 b43b e1e4 a83d
00000110: 603f 48bd 48e8 86bd abf0 483e f8d1 93bd
00000120: c8c4 aabd 9548 75bd adb3 493e bbc2 5d3e
00000130: 31e2 803d ac68 d9bd f7e9 cebc a730 5d3d
00000140: 1825 fc3b 29ed 1a3d be8d 4abe e185 a0bd
00000150: 89be 8dbd 2fe8 aa3d 5c0b 81bd dd2c 71be
00000160: ecb9 e63b 33f2 5abe 8cb6 a2bd 2275 d33d
00000170: a381 d93c 5a36 edbd fc51 4a3e 271f 03bd
00000180: 1803 b3bc 4bdf f43c ac9b bd3c 1403 99be
00000190: 214d ce3d ddab 513e 02bc 4abd 4e8a 6bbc
000001a0: 718c c0bc 2b31 7d3d 08a9 97bd 84bb 8dbe
000001b0: e440 3bbe d1d1 d8bd 5648 533e 25fd 3a3e
000001c0: de4e 18bd 68f3 31be 116a 2b3d b6d2 7ebd
000001d0: 924c c03c ff90 523e 0aa2 f63b 6e1b 3cbc
000001e0: 13f3 8abe 8d1f 3a3e 8bf6 71bd d45c 31bd
000001f0: ecd5 d0bd 9355 0f3e c38e b33d 29a7 cabc
00000200: 3ea3 6fbd 77ea 99bc b7b3 c3bc 8c66 83bd
00000210: b9ab 9b3e 7fbb c53c 94ad 5e3e ae09 3ebe
00000220: 46b0 593d 4319 933e 6889 11bd cd7f 55be
00000230: 94bb 04be 3880 b3bd 5f38 233e 3cec 13bd
00000240: d5d1 6cbe 2129 4cbd 99fc 473e 43b8 8e3c
00000250: 14e9 91bd 5cd0 bd3d 5636 a33d 7b8c 8e3c
00000260: cca8 da3e 75d2 cebd 14ac 473e 923b ecbd
00000270: 5e4d 28be d536 04be bd12 993c f41f 74be
00000280: 3f0a 6bbe 8fe6 113e b095 583d d32d 29bd
00000290: 3e4f e9bc f4b4 fb3d 55ec 5f3e 82d7 68bd
000002a0: 2213 62bb c586 243e 86fa b5bd cae8 8c3d
000002b0: cd6f 203d 3051 813c 82b0 00bd 629d b4bc
000002c0: 10ea 383d bea0 a33d 0405 e13d 8433 67bd
000002d0: 7195 23be be83 4bbd 4a5d 92bd 302d 16be
000002e0: 18e4 ebbd 41cc 19bd b13c 9a3c 86ac 49bd
000002f0: 79bf d03c 4c76 bb3d 8ee0 ffbc 490b 073d
00000300: 398a 4d3e 529a 71bd cecd 00be 3fa9 5fbd
00000310: 57d3 1ebe 057a 373e e39e 123c a878 193e
00000320: 97ff 893e 42b4 f63c 13f7 02be f09c c83d
00000330: 69ef b93d 49ad c8bd bda1 95bd 7879 cdbd
00000340: e9a3 793e cbf5 f93c a264 473c 612a 583e
00000350: 318a edbd 2401 d3bd 30bb 15bc af7a 343e
00000360: e57f a63d 42b3 f13d 7dc9 1ebe dc49 ce3d
00000370: 85a6 04bd 99a6 febd 4fdc 743d c958 10be
00000380: 882d 253d c587 9dbd 99b2 33bd e57b 873a
00000390: 6504 e93d cee0 523e e18a 103d 7acb fb3c
000003a0: e273 36be 8a8b 843c c428 7cbd 3a52 263d
000003b0: 9aa8 913c 2ae2 473e 6a06 02be 5a1a b93d
000003c0: 931f 183d c7b4 bf3d d082 0e3c 82d2 cf3d
000003d0: 81e0 87bd f5cd 123e 1271 9ebd 2dae e63d
000003e0: 1f1c 1fbe deff d83d 2ede ba3c 2adf dcbd
000003f0: 0058 01be f8e2 2b3e 278d 2f3e 5980 24bd
-0.14167191 0.009262723 0.034458205 -0.063041486 -0.05699925 -0.13498993 0.25149637 0.010645997
0.023877433 0.122192405 0.10919501 -0.101117074 0.11186496 0.08881393 0.024140697 0.11555654
0.087370425 0.2978703 -0.022469465 0.062701926 -0.19581236 -0.0066873245 0.030327296 -0.24281265
0.16439644 0.040035985 -0.013892628 0.10729123 -0.0023125028 0.09441739 -0.107425116 0.053283677
-0.031065458 -0.16632979 0.050116852 0.095836274 0.01399996 -0.28941792 -0.1616336 0.29525757
0.14652932 0.0064176326 -0.07821792 0.029714666 -0.08604673 -0.18061553 0.09122627 0.038126945
0.008446586 -0.0949998 0.11442902 0.0013173841 0.24821328 -0.17830132 0.022354348 0.11568918
-0.25023836 -0.034937285 0.01797177 -0.035397537 -0.18931635 -0.055861842 -0.036754567 0.05821669
-0.0480548 0.08725142 0.005508982 0.0824678 -0.048888564 -0.06587273 0.19623058 -0.07217783
-0.08338314 -0.059883673 0.19697447 0.21656315 0.062931426 -0.10615668 -0.025258048 0.054001477
0.0076948516 0.03782383 -0.19780633 -0.078380354 -0.06921107 0.08345067 -0.06300995 -0.2355227
0.0070412066 -0.21381454 -0.07944974 0.10325076 0.026551073 -0.11582632 0.19757837 -0.03201213
-0.021852061 0.02989163 0.02314552 -0.2988516 0.10073305 0.20475717 -0.049495704 -0.014376236
-0.023504468 0.06181447 -0.07405287 -0.27682126 -0.18286473 -0.10586894 0.20633063 0.1826063
-0.03718459 -0.17378008 0.0418492 -0.06221267 0.023474012 0.20563124 0.007526641 -0.011481149
-0.27138576 0.18176098 -0.059073012 -0.04330142 -0.10197052 0.13997488 0.08767464 -0.024737911
-0.05850529 -0.01878856 -0.023889406 -0.06416044 0.3040445 0.024137257 0.21745902 -0.1855838
0.053146623 0.2873021 -0.03553143 -0.20849533 -0.1296218 -0.0876469 0.15939473 -0.036113963
-0.2312692 -0.04984391 0.19529952 0.017421847 -0.07124534 0.09268257 0.07969348 0.01740097
0.42706907 -0.10098735 0.19499236 -0.115348 -0.16435763 -0.12911542 0.018685693 -0.23840314
-0.22953127 0.14248107 0.052877128 -0.041303467 -0.028480168 0.122903734 0.21867497 -0.05684615
-0.0034496267 0.16067035 -0.08885674 0.068803385 0.03916912 0.015785784 -0.03141833 -0.022047702
0.045145094 0.079896435 0.10987285 -0.056445614 -0.15974976 -0.049686186 -0.071467 -0.14665675
-0.11518115 -0.037548307 0.018827768 -0.049236797 0.025481926 0.09153423 -0.031235006 0.032969747
0.20072259 -0.058985062 -0.12578508 -0.054604765 -0.15510307 0.1791764 0.008949014 0.14987433
0.26952812 0.03011525 -0.12789564 0.097955585 0.09078867 -0.097986765 -0.0730624 -0.10032934
0.24378933 0.030512711 0.012169989 0.21109916 -0.115986235 -0.10302952 -0.009138867 0.17624925
0.08129863 0.11801769 -0.15506549 0.10072681 -0.032385368 -0.1243412 0.059780415 -0.14096369
0.040326625 -0.076919116 -0.043871496 0.0010336606 0.11377791 0.20593569 0.035288695 0.030736674
-0.17817643 0.016179819 -0.061562315 0.04060576 0.01778059 0.19519868 -0.1269776 0.09038229
0.037139487 0.093606524 0.00869818 0.10147573 -0.066346176 0.14336379 -0.0773641 0.1126369
-0.15538071 0.10595678 0.022811022 -0.10784753 -0.12631226 0.167858 0.17143689 -0.040161464

2.bias f4 [128]
00000000: 0000 0000 0000 0000 0000 0000 0000 0000
00000010: 0000 0000 0000 0000 0000 0000 0000 0000
00000020: 0000 0000 0000 0000 0000 0000 0000 0000
00000030: 0000 0000 0000 0000 0000 0000 0000 0000
00000040: 0000 0000 0000 0000 0000 0000 0000 0000
00000050: 0000 0000 0000 0000 0000 0000 0000 0000
00000060: 0000 0000 0000 0000 0000 0000 0000 0000
00000070: 0000 0000 0000 0000 0000 0000 0000 0000
00000080: 0000 0000 0000 0000 0000 0000 0000 0000
00000090: 0000 0000 0000 0000 0000 0000 0000 0000
000000a0: 0000 0000 0000 0000 0000 0000 0000 0000
000000b0: 0000 0000 0000 0000 0000 0000 0000 0000
000000c0: 0000 0000 0000 0000 0000 0000 0000 0000
000000d0: 0000 0000 0000 0000 0000 0000 0000 0000
000000e0: 0000 0000 0000 0000 0000 0000 0000 0000
000000f0: 0000 0000 0000 0000 0000 0000 0000 0000
00000100: 0000 0000 0000 0000 0000 0000 0000 0000
00000110: 0000 0000 0000 0000 0000 0000 0000 0000
00000120: 0000 0000 0000 0000 0000 0000 0000 0000
00000130: 0000 0000 0000 0000 0000 0000 0000 0000
00000140: 0000 0000 0000 0000 0000 0000 0000 0000
00000150: 0000 0000 0000 0000 0000 0000 0000 0000
00000160: 0000 0000 0000 0000 0000 0000 0000 0000
00000170: 0000 0000 0000 0000 0000 0000 0000 0000
00000180: 0000 0000 0000 0000 0000 0000 0000 0000
00000190: 0000 0000 0000 0000 0000 0000 0000 0000
000001a0: 0000 0000 0000 0000 0000 0000 0000 0000
000001b0: 0000 0000 0000 0000 0000 0000 0000 0000
000001c0: 0000 0000 0000 0000 0000 0000 0000 0000
000001d0: 0000 0000 0000 0000 0000 0000 0000 0000
000001e0: 0000 0000 0000 0000 0000 0000 0000 0000
000001f0: 0000 0000 0000 0000 0000 0000 0000 0000
0.0 0.0 0.0 0.0 0.0 0.0 0.0 0.0
0.0 0.0 0.0 0.0 0.0 0.0 0.0 0.0
0.0 0.0 0.0 0.0 0.0 0.0 0.0 0.0
0.0 0.0 0.0 0.0 0.0 0.0 0.0 0.0
0.0 0.0 0.0 0.0 0.0 0.0 0.0 0.0
0.0 0.0 0.0 0.0 0.0 0.0 0.0 0.0
0.0 0.0 0.0 0.0 0.0 0.0 0.0 0.0
0.0 0.0 0.0 0.0 0.0 0.0 0.0 0.0
0.0 0.0 0.0 0.0 0.0 0.0 0.0 0.0
0.0 0.0 0.0 0.0 0.0 0.0 0.0 0.0
0.0 0.0 0.0 0.0 0.0 0.0 0.0 0.0
0.0 0.0 0.0 0.0 0.0 0.0 0.0 0.0
0.0 0.0 0.0 0.0 0.0 0.0 0.0 0.0
0.0 0.0 0.0 0.0 0.0 0.0 0.0 0.0
0.0 0.0 0.0 0.0 0.0 0.0 0.0 0.0
0.0 0.0 0.0 0.0 0.0 0.0 0.0 0.0

4.weight f4 [64, 128]
00000000: dffc 693e 01ab 06be 7777 c2bc 4497 8f3d
00000010: 0616 69bd c907 853d cb86 0a3e 0c9a fe3d
00000020: 20dc b93d 263b 79bd 3dba 173c 410b 17be
00000030: c201 4a3d ed5b 29bc 1a32 443d bfb3 db3d
00000040: 7bef c63d d326 d1bd 4cbd e6bd a2a5 7e3d
00000050: 1bf4 04be 185e 703c 752d 6a3e 02f5 8e3d
00000060: ce18 94bd 40d5 bfbc 283c aabe 7f3b ccbd
00000070: 0164 7a3d aa7a 163e 0e44 66be d97f f13d
00000080: 349e 733e e67c b4be 4cea 43be cfc5 d53c
00000090: 04f6 efbd 7e9c c83b 8bd9 143e 223c 383e
000000a0: 40b1 1dbd 3545 193e 3be6 a53c b048 c3bd
000000b0: 74ab d03d a1a0 91bd c057 583e 304f 6e3c
000000c0: 3825 013e ce07 b4bc 1dda ec3c 08e5 8b3d
000000d0: f6c9 893d a631 b33d be91 bfbd 5fcf 643c
000000e0: 26b9 7c3e cf1a a7bc eea3 e4bd 76f8 54be
000000f0: 7754 8f3e cc8c 0ebe 0fda 88be b776 20be
00000100: 8937 3bbc adb8 26bd 7f55 3f3a 8cd3 033e
00000110: 080a cd3d 628d 4e3d f49d da3d 1c81 193e
00000120: 64d9 b63d 19ab 79bd 827c 0dbd 8157 303d
00000130: 399f 78be 861a 78bd 6bb1 17be b435 a6bd
00000140: 89db e43c d9f6 833b 8aa3 413e f60d a43d
00000150: 1bf3 89bd 0667 73be 095c 803d 9353 023e
00000160: 607f 7fbd 9e70 b0bd aa15 a8bd ad11 f0bc
00000170: 6781 553d c5ca f7bd 387f f73c d446 f4bd
00000180: f74a 2e3e b276 cabd 541b 05bd bbc1 4c3b
00000190: de19 1d3d e5cc c43c baca 89be cf66 1d3e
000001a0: c96c a53e ac13 b2bd d70b c33d e449 453e
000001b0: 7dec 063d c558 5dbb b782 373e 3a1d 863d
000001c0: f0b5 be3d b9be d03c 8e54 b5ba 1bf5 cebd
000001d0: ad8e 4bbe 3d2a 4a3d 2e4f b93d 4126 0fbc
000001e0: 927a 083d cbdd 62bd 80fc 85bc 61a3 a43d
000001f0: b7e7 9dbc 3276 33bc 43ec e5bd 9333 b8bc
00000200: 53a5 6f3e 4bca b63d 1884 2abe e2bf 463e
00000210: e1aa 66bd 0737 95bd a2e0 ca3e a29e 51be
00000220: 28fe 99bd 9ddf ba3d 57ff d6bd 0dd1 823e
00000230: c595 4e3e 042a c03c e2fe 1c3d 530d 73be
00000240: 92a5 0abe 8a22 b93d 7740 f5ba 51b4 6e3c
00000250: 6361 5fbe 073a be3c d175 a8bc c696 1dbe
00000260: c8de 07bd b074 bf3d 574e f53c dc8e 98bd
00000270: f434 3ebe eb6c aabd 5d37 ecbd 011f 603c
00000280: b899 b9bd 248f cbbd 2ea2 143b c4f7 90bd
00000290: 06e7 6c3e 6b81 363e c241 b03d eac2 b0bd
000002a0: d233 1fbe 54fd 1a3e 96c3 0fbd 966f 8cbe
000002b0: e0fd aebd 80a2 eabc 9a58 ab3d b0e2 9a3d
000002c0: ea4c 5bbd 85f9 b53d da8e 07bd d43c 4ebe
000002d0: f10c 663e a55e 813d ebd6 573d bff1 b53c
000002e0: 20d2 a1bd 46ad 16be 33f6 1fbe b836 e3bd
000002f0: d455 f93b fea4 223c b3f5 f8bd 2a50 d0bc
00000300: fa71 27be 5e6f 46bd 14a9 f8bd b57c 93bd
00000310: bf68 873e e0f7 c9bd 7eea fabd 7102 a6bc
00000320: 7413 45be 43e1 e83d 60a8 693b 5600 713c
00000330: 5f22 103e 17bc 98bd 83d8 383d d8e1 bc3d
00000340: c8e5 0e3d f8ab 0f3c b618 713e 4cc9 023c
00000350: 394f b7bc 9c69 bbbd 8531 1bbe d129 8b3c
00000360: cb5a 4d3e 58a0 91bd a09b c9bd 8017 ec3d
00000370: 13fe 933d 1647 8abc baec d3bc a261 90bd
00000380: df67 8fbe c85a 9f3c c27d 9e3d c9a2 a9bd
00000390: 2149 423b d72c 4abd 271e 163e 1c25 34be
000003a0: ce52 0abd 63a3 aebb cc0b 58bd 7441 e9bd
000003b0: fae0 0bbc 27dd 1c3d 52cb 3abd 3998 9abc
000003c0: b60f d03d 3c4e 93bc 9211 293e ec0d f5bd
000003d0: d91d 12be bf58 2ebd b25c b4bd 5178 863e
000003e0: 7d18 1c3d f9e8 15be 1b31 79bc 733f 59be
000003f0: ab2e 893d 44f6 24be 9d68 c6bd 6593 17be
0.22850369 -0.1315117 -0.023738606 0.070112735 -0.05690577 0.064956255 0.13527982 0.12431726
0.09075189 -0.060847424 0.009260711 -0.14750387 0.049318083 -0.010336858 0.047899343 0.10727643
0.09713646 -0.10212483 -0.11266574 0.06216968 -0.12983744 0.014670871 0.22868903 0.06980325
-0.072312936 -0.023417115 -0.3324902 -0.099722855 0.061130527 0.1469523 -0.22486898 0.11791963
0.23790818 -0.3525154 -0.19132346 0.026095299 -0.11716846 0.006122171 0.14536111 0.17991689
-0.038499117 0.14967807 0.020251384 -0.095353484 0.10188952 -0.07110716 0.21127224 0.014545247
0.12611854 -0.021976378 0.028912598 0.068307936 0.06727974 0.08749704 -0.0935397 0.013965457
0.24680004 -0.020398526 -0.111640796 -0.20797905 0.2799413 -0.13920897 -0.26728866 -0.15670286
-0.011426815 -0.040703464 0.00072988117 0.12873667 0.10011679 0.050427802 0.106746584 0.14990658
0.08928183 -0.060954187 -0.034542568 0.0430522 -0.24279489 -0.06057217 -0.14813773 -0.08115712
0.027936714 0.0040272293 0.18910041 0.08010475 -0.06735822 -0.23769769 0.06267554 0.12727194
-0.062377334 -0.0861523 -0.08207257 -0.029305303 0.05212536 -0.12099222 0.03021203 -0.11927572
0.17020784 -0.098859206 -0.032496765 0.0031243402 0.038354747 0.024023483 -0.2691248 0.1537125
0.3230956 -0.08695158 0.09523743 0.19266468 0.032940377 -0.0033774835 0.17920958 0.06548543
0.093120456 0.025481569 -0.0013834403 -0.10105344 -0.19878645 0.049356688 0.090483055 -0.008737148
0.033320017 -0.0553873 -0.016355753 0.080389746 -0.01927553 -0.010953473 -0.11226704 -0.02248553
0.2340291 0.08925303 -0.16651952 0.19409135 -0.056315307 -0.07285886 0.39624506 -0.2047067
-0.075191796 0.09124682 -0.10497921 0.25550118 0.2017432 0.023457535 0.038329013 -0.23735552
-0.13539723 0.09039791 -0.0018711229 0.014569358 -0.21814494 0.023221029 -0.020563992 -0.15389547
-0.033171445 0.09348428 0.029944582 -0.07449123 -0.18574888 -0.08321556 -0.11533997 0.013679267
-0.09062523 -0.09939411 0.0022679674 -0.070785075 0.23135003 0.17822807 0.08606292 -0.08630927
-0.15547112 0.151357 -0.035098635 -0.27428883 -0.085445166 -0.02864194 0.08366509 0.075627685
-0.053540148 0.08885483 -0.03309522 -0.20140392 0.22465874 0.0631688 0.052695196 0.02221
-0.07901406 -0.14714536 -0.15621261 -0.11094421 0.0076091085 0.0099270325 -0.121562384 -0.02542885
-0.16352072 -0.04844605 -0.12141624 -0.0720152 0.26447102 -0.098617315 -0.12251757 -0.020264836
-0.19245702 0.1137109 0.0035653338 0.014709553 0.14075612 -0.0745775 0.045128357 0.09222764
0.034887105 0.008769028 0.23544583 0.007982563 -0.022376643 -0.09151003 -0.15155609 0.016987713
0.20054166 -0.07110661 -0.09844136 0.1152792 0.07226195 -0.0168796 -0.025869716 -0.07049872
-0.28008935 0.019452468 0.0773883 -0.08283002 0.002964564 -0.04935917 0.1465994 -0.17592281
-0.033770375 -0.005329536 -0.052745625 -0.11389437 -0.008537525 0.038296845 -0.045604058 -0.018871414
0.101592466 -0.017981641 0.16510609 -0.11965546 -0.14269198 -0.042565104 -0.08806743 0.2626367
0.03810929 -0.14639653 -0.015209462 -0.2121561 0.06698354 -0.16109568 -0.09687922 -0.1480232
