dheera/checkpoints/dheera_dqn.pt (torch, 72098 bytes, 16 tensors)

net.0.weight f4 [64, 16]
000000 20 df 34 3c b6 b9 23 be 54 39 19 be 92 63 18 be
       0.011039525 -0.15988812 -0.14963275 -0.14881733
000010 88 86 27 be d8 e2 af bd a0 5b 53 bc 32 c7 45 be
       -0.16359913 -0.08588189 -0.012900263 -0.19314268
000020 c0 3d eb 3d 02 ab 60 be 1c 95 f0 3d ae 66 55 be
       0.11486387 -0.21940234 0.1174719 -0.2083995
000030 50 3a ac bc a8 4d 29 bd 28 35 f4 bd b0 b6 b9 3d
       -0.0210239 -0.041333824 -0.11924201 0.09068048
000040 4a ec 45 be 80 cc a3 3d 50 6b f9 3c e0 f7 30 bc
       -0.19328418 0.0799799 0.030446678 -0.0108012855
000050 98 ee 23 be b8 51 bd 3d ca b7 49 be 36 b0 55 3e
       -0.16008985 0.09244102 -0.19699016 0.20868
000060 a0 61 73 3c 7a 6c 04 be 7e 42 12 3e e0 2a 62 bc
       0.014854819 -0.12932006 0.14283177 -0.0138041675
000070 d8 ba 6e bd bc 33 97 3d 64 2a 04 3e e0 33 83 bc
       -0.058283657 0.073829144 0.12906796 -0.016015947
000080 92 30 07 be 8e a9 16 3e 90 20 df 3c 60 7b b9 3c
       -0.13202122 0.14713117 0.027237207 0.022641838
000090 38 dc 49 bd dc c0 4a 3e 16 8f 3e be f0 f2 51 3e
       -0.049282283 0.19800133 -0.1860927 0.2050283
0000a0 e2 24 3d be 88 db 06 bd 92 23 49 3e fe c5 18 3e
       -0.18471101 -0.032924205 0.19642475 0.14919278
0000b0 b6 02 17 be 80 89 4a bc 48 39 45 be 3c dc 88 bd
       -0.14747128 -0.012361884 -0.19260132 -0.066826314
0000c0 b2 9c 0d 3e 30 b0 1d 3e 48 ed 57 bd d2 04 09 be
       0.13829306 0.15399241 -0.052716523 -0.13380745
0000d0 80 a0 1b bd a8 cf 83 3d 00 23 0e 3b d4 96 e2 bd
       -0.03799486 0.06436092 0.0021688342 -0.110639244
0000e0 98 52 09 3d 44 12 b5 bd 66 a0 05 be 68 21 e6 3d
       0.033526033 -0.088413745 -0.13049468 0.112368405
0000f0 0c f9 e9 bd 3e 6a 2d be 44 97 1d be 8a 90 4d be
       -0.11424455 -0.1693506 -0.15389735 -0.20074669
000100 a0 53 51 bc 3c f4 41 be ae 59 72 3e ea 5b 50 3e
       -0.012776285 -0.18940824 0.23667023 0.20347562
000110 3c 7a d9 3d 80 c9 38 be 9a ad 4b 3e 8e 00 1f 3e
       0.106190175 -0.18045616 0.19890442 0.15527555
000120 20 6a 26 bc 60 8c 72 be c6 66 5a 3e 98 3f 1b 3d
       -0.010157138 -0.23686361 0.21328267 0.037902445
000130 42 34 01 be 60 e3 f2 bd 80 92 60 3e 64 f6 d5 3d
       -0.12617591 -0.118597746 0.21930885 0.10447386
000140 68 49 a2 3d bc e2 22 3e f4 5b fe bd ba 81 32 be
       0.079241574 0.15906805 -0.124198824 -0.174323
000150 a0 27 db bc ec 67 37 be 40 5b cb bc 78 81 48 3d
       -0.026752293 -0.17910737 -0.024823785 0.048951596
000160 6e b2 5b be 1c 8d 47 be 30 d3 3f be 40 5c ab bb
       -0.21454784 -0.19487423 -0.18732905 -0.005229503
000170 d8 f2 1f 3e 38 83 0a 3d 38 84 24 3d 00 d4 ad 3b
       0.15619981 0.033816546 0.040165156 0.0053048134
000180 20 3f 40 be da 3d 0c be d8 be 6e 3e 80 fd 96 3b
       -0.1877408 -0.1369547 0.23314989 0.0046078563
000190 3c f9 54 be e2 b0 50 3e 90 73 1c be a6 52 41 be
       -0.207982 0.20379975 -0.15278459 -0.18879184
0001a0 66 fd 5f be f0 a7 ba 3c aa 3c 3c 3e 98 65 c5 3d
       -0.21874008 0.022785157 0.18382517 0.09638518
0001b0 4c 38 1c 3e a4 4f fb bd 1a 0a 06 be 90 1f 7e 3e
       0.1525585 -0.122710496 -0.13089791 0.24816728
0001c0 5c 13 21 3e a4 56 3f be 5c 83 24 3e a0 ad f6 bd
       0.15730041 -0.18685395 0.16065735 -0.12044835
0001d0 70 76 45 be 18 e1 6e 3e 30 58 46 be 00 13 2b bc
       -0.19283462 0.23328054 -0.19369578 -0.010441542
0001e0 10 3f b9 3c 0e 1b 48 3e 06 e1 43 3e 08 5b 0e be
       0.022613078 0.1954157 0.19128808 -0.13901913
0001f0 f4 e2 32 3e 4c 24 5a 3e ec 79 36 3e 64 a8 50 be
       0.17469388 0.21302909 0.17819947 -0.20376736
000200 98 89 fd bd 20 f8 22 3c c0 7e 64 be 18 91 70 3d
       -0.123797596 0.009946853 -0.22313976 0.058732122
000210 94 f1 80 bd 3a ed 40 3e ec 01 9e 3d 64 ba d3 bd
       -0.06296077 0.18840495 0.0771521 -0.103382856
000220 50 7d f2 3d 44 be b7 bd 54 f7 95 bd bc e1 75 3e
       0.11840308 -0.08971837 -0.07322565 0.24011892
000230 c8 f0 79 bd ee c8 1e 3e 78 c9 7c bd 0c 7d 84 bd
       -0.061020643 0.15506336 -0.061715573 -0.06469163
000240 08 ff 3e be c0 3c c5 3c 88 c2 c1 bd 94 cf 5a 3e
       -0.18651974 0.02407682 -0.09460932 0.21368247
000250 64 e2 01 3e a4 21 ea 3d d8 f8 68 3d 00 31 89 3a
       0.12684017 0.11432198 0.05687794 0.0010466874
000260 a0 c4 c6 3c a0 f8 d5 bd 60 36 b0 bc 64 d6 a0 3d
       0.02426368 -0.10447812 -0.021510303 0.07853392
000270 70 30 09 bd 60 2b bd bd 72 ab 63 be 3a 83 10 be
       -0.03349346 -0.09236789 -0.2223337 -0.14112559
000280 9c 56 64 3e f4 46 7e be 00 ae 72 3a 58 55 75 bd
       0.22298664 -0.24831754 0.00092574954 -0.059895843
000290 00 a1 33 bc e0 bf 74 3e e8 14 41 3e 50 a2 47 3e
       -0.010963678 0.2390132 0.18855631 0.19495511
0002a0 ce f8 59 3e 28 0e 47 3e 20 b8 d0 3c 6e 7d 40 3e
       0.21286318 0.19438994 0.025478423 0.18797848
0002b0 a8 32 6f 3e da 21 68 be 90 a4 08 be 40 82 4b bc
       0.23359168 -0.22669163 -0.13344026 -0.012421191
0002c0 00 44 1f 3c c2 9b 62 be 1e 12 07 3e 2c b9 39 3e
       0.009720802 -0.2212973 0.13190505 0.18137044
0002d0 5c f1 aa bd 28 2b 21 3e d4 d6 af 3d ea f6 77 3e
       -0.08346817 0.15739119 0.08585897 0.24215284
0002e0 a8 a7 0c be b8 f4 2b be 16 cc 30 3e 8e fa 2c 3e
       -0.13735831 -0.16792572 0.17265353 0.16892454
0002f0 00 34 f8 3d 40 5f 49 be 46 9e 0d 3e bc a9 65 3e
       0.12119293 -0.19665241 0.13829908 0.2242803
000300 e0 6a 1f bc e0 89 4a 3e 30 15 d1 3d 88 99 67 bd
       -0.009730071 0.19779158 0.10209119 -0.056542903
000310 2e b5 05 be 64 97 5b be 3c 8b 09 3e 18 a9 1c 3e
       -0.13057396 -0.2144447 0.1343202 0.15298879
000320 00 c6 18 bd c0 50 6b bd 78 96 45 3e ea 1e 68 be
       -0.037298203 -0.057450056 0.1929568 -0.22668043
000330 f0 56 2c 3e 00 30 10 39 ac b5 1d be ac 81 56 be
       0.16830039 0.00013750792 -0.15401334 -0.20947903
000340 6e a1 3e 3e a4 be ea 3d bc 38 44 be 14 c5 8a 3d
       0.18616268 0.11462143 -0.19162267 0.06775871
000350 e8 b9 0b bd e8 4c 15 3e 0a d2 36 be 18 a2 27 be
       -0.03411284 0.14580119 -0.17853561 -0.16370428
000360 7e 3e 37 be e0 4d 10 3e ac 4f d4 bd 00 55 e7 bd
       -0.17894933 0.14092207 -0.10366759 -0.11295509
000370 70 b7 e6 3c 56 7c 5d be d8 60 54 3e 66 c6 4d be
       0.028163642 -0.21629462 0.20740068 -0.20095214
000380 20 37 31 bd c8 38 49 3e 24 55 92 bd 66 a3 69 3e
       -0.043265462 0.19650567 -0.071451455 0.22816238
000390 b8 40 49 3d e4 4f a3 bd 64 59 c7 bd 48 88 3e bd
       0.049133986 -0.07974222 -0.09733847 -0.046516687
0003a0 2c bf 19 be b0 62 d2 3d 40 fc d9 3d 98 a8 f5 bd
       -0.15014333 0.102727294 0.10643816 -0.11995047
0003b0 d6 20 0e be e8 2a a2 3d 60 55 74 be 98 70 4d bd
       -0.13879713 0.0791834 -0.23860693 -0.050156206
0003c0 3c c6 50 be 2c e0 59 3e 2a e7 09 3e ac 80 53 3e
       -0.2038812 0.21276921 0.13467088 0.20654553
0003d0 9c c4 5f 3e e4 9c 4e 3e 88 a8 7f 3d 64 76 76 be
       0.21852344 0.20177037 0.062416583 -0.240686
0003e0 00 ed 14 3c 78 63 4e 3e 2e 7b 48 3e f4 f0 2c be
       0.009089708 0.20155132 0.1957824 -0.16888791
0003f0 5a 6e 09 3e 88 2a 5e 3d d8 99 71 bd 90 80 27 3e
       0.13421002 0.05423978 -0.058984607 0.16357636

net.0.bias f4 [64]
000000 ac b7 56 3e 20 72 3a 3c 2c 5f 62 be b0 9f 98 3d
       0.20968503 0.011379749 -0.22106618 0.07452333
000010 9a f9 40 be 58 a7 ac 3d 08 c3 23 bd 60 bd 43 3d
       -0.18845215 0.08430356 -0.03998092 0.047788024
000020 b4 9d ae bd 18 16 01 bd 88 5d 78 bd a4 97 f0 3d
       -0.08526173 -0.03151521 -0.060636073 0.11747673
000030 aa 62 26 3e 5c 8a e5 bd a4 fb 42 be f2 48 53 3e
       0.16248575 -0.112080306 -0.19041306 0.20633295
000040 88 e7 b7 3d b0 db 4a 3d 88 56 31 3d 80 67 42 be
       0.08979708 0.049525917 0.043295413 -0.18984795
000050 00 7c a0 bc ec 21 5c 3e 20 3e 02 bc 1a 54 1b 3e
       -0.019590378 0.21497315 -0.007949382 0.15168801
000060 d6 96 57 3e 16 ec 5c be e4 86 79 3e 18 d5 5c 3e
       0.21053633 -0.21574435 0.24367863 0.21565664
000070 a8 fb 2c 3d 9a 6a 22 be d8 d4 23 3d b0 6c 20 bd
       0.042232186 -0.15860978 0.039997905 -0.039166152
000080 98 36 f9 3d e4 d2 85 bd 00 f1 11 3e 92 fc 27 be
       0.12168616 -0.06534365 0.1425209 -0.16404942
000090 8c 12 77 be e8 29 e5 3d 10 d2 44 3e be 0a 7f be
       -0.24128169 0.111896336 0.19220757 -0.24906442
0000a0 8c d4 25 3e 70 47 03 bd 16 a6 32 be 70 8f 5c bd
       0.16194361 -0.03205055 -0.1744617 -0.05384773
0000b0 80 b7 1d 3b a8 32 4b bd e0 a4 13 3e a6 83 7c 3e
       0.0024065673 -0.049608856 0.14418364 0.24659595
0000c0 82 60 14 3e 26 ea 6c 3e 58 ad 14 bd 50 b0 a7 bc
       0.1448994 0.23136196 -0.036298126 -0.020469815
0000d0 08 cb d6 bd de 51 6c 3e e0 b1 55 be 60 3e 79 3e
       -0.10487944 0.23078105 -0.20868635 0.243402
0000e0 d0 ac 1a 3e 28 87 4d 3e 58 1b 8e bd 58 94 3e 3e
       0.15104985 0.2007109 -0.06938809 0.18611276
0000f0 60 e4 e0 3c bc e5 c6 3d 00 d5 13 bc f8 36 2d 3e
       0.027452648 0.09711787 -0.009022951 0.169155

net.2.weight f4 [64, 64]
000000 8a 0c d9 3d c0 48 d7 3d 32 f9 ef bd 2c ef a4 3d
       0.10598095 0.10511923 -0.11717452 0.08053431
000010 9e 0e bc 3d 60 8c bb 3c 30 64 b9 3c d0 7b cc bc
       0.091824755 0.022894084 0.022630781 -0.024961382
000020 dc 98 8b bd 10 d0 25 bc fc 29 37 bd e8 a8 da bd
       -0.06816265 -0.010120407 -0.044717774 -0.106767476
000030 1a 27 bf 3d e4 68 f3 bd 5c 3e cf bd 70 f6 c7 bc
       0.0933363 -0.11885241 -0.10119316 -0.024409503
000040 64 d1 37 bd 26 d7 97 3d 6c 71 c9 3d 7e 24 99 3d
       -0.044877425 0.07414083 0.09836087 0.074776635
000050 72 53 81 bd 16 3d e8 3d 58 7c 59 bd 58 ad 6e bd
       -0.06314744 0.11339776 -0.0530971 -0.058270782
000060 44 07 ba bd b0 c3 9f 3d d8 1a 52 3d 8e aa a8 bd
       -0.09083417 0.07800996 0.05129513 -0.08235656
000070 d0 67 af bd b8 71 6b bd 84 58 01 3d d8 64 91 bd
       -0.085647225 -0.057481498 0.031578556 -0.070993125
000080 8a b6 ac bd a8 c4 37 bd 18 7a ca bd 50 2a fc 3d
       -0.08433254 -0.04486528 -0.09886569 0.12312758
000090 22 17 fa 3d 40 84 82 bb 2c f2 ae 3d f0 ad 8d 3d
       0.122114435 -0.0039830506 0.08542284 0.069179416
0000a0 40 1e 7d 3d ea 3e 87 3d 20 f2 b2 bb d4 16 1e bd
       0.061796427 0.06603797 -0.0054609925 -0.03859599
0000b0 00 7a d6 b9 10 90 87 3d 60 37 ee 3d 08 93 f1 bc
       -0.00040908158 0.066192746 0.11631656 -0.029489055
0000c0 c8 d9 d0 bd 6c f7 e2 bd b0 17 d0 bd a8 40 70 bd
       -0.101977885 -0.11082348 -0.10160768 -0.05865541
0000d0 82 70 c5 3d 2c 5c 04 3d e0 9e 8e bb c2 9a cf bd
       0.096406 0.032314464 -0.0043524355 -0.101369396
0000e0 60 4a ef bc 4e 15 cf 3d 7c b8 ff 3d 14 f9 3c bd
       -0.02921027 0.101114854 0.124863595 -0.046135977
0000f0 50 5c a2 bc 6c 10 a0 3d 30 ea c1 3d 80 96 7d bb
       -0.019819409 0.07815632 0.09468496 -0.0038694441
000100 fc 99 d7 bd 68 90 8b 3c 4a 8a 9b 3d fc 61 b8 bd
       -0.10527417 0.017036632 0.07594736 -0.09003064
000110 64 a5 a1 3d 92 8a c2 bd 94 e7 ad bd a8 15 b0 bd
       0.07892874 -0.094990864 -0.08491436 -0.085978806
000120 50 4f 9e 3c d0 a9 fa 3c 90 a5 1c 3c 00 a3 59 bc
       0.019324929 0.030598551 0.009560958 -0.013283491
000130 22 41 b9 bd ce 23 b2 3d 94 d5 2e bd a6 90 f2 3d
       -0.09045626 0.086982355 -0.042684153 0.11843996
000140 04 dc 79 bd c8 75 cd 3d 20 27 b1 bc 28 4a 7b bd
       -0.06100084 0.100322306 -0.021625102 -0.061350018
000150 e4 f7 a1 bd 90 5f fe bd d2 1f b1 bd d0 9a cf bc
       -0.079086095 -0.12420571 -0.08648647 -0.025342375
000160 64 82 da 3d c4 ab fd bd 60 98 5c bc 82 ff b1 3d
       0.10669401 -0.12386277 -0.013464063 0.086913124
000170 38 24 7c 3d 00 d5 f8 3d dc 79 6e 3d f8 06 4c 3d
       0.06155798 0.121500015 0.058221683 0.049811333
000180 00 c7 8b 3d c4 fe a6 bd aa bf a7 3d 6a 6d cb bd
       0.068250656 -0.081540614 0.08190854 -0.099329785
000190 c8 31 82 bd 3a e3 f6 3d cc b2 f2 bd 16 95 99 bd
       -0.06357151 0.12055059 -0.11850509 -0.07499139
0001a0 30 7c 15 3c 0e 8f 95 bd da 07 ab 3d 68 79 6a bd
       0.009123847 -0.07302676 0.08351107 -0.05724469
0001b0 34 3c ca 3d 90 48 e1 3d 54 54 12 3d c0 a9 df bc
       0.09874764 0.11000168 0.035724953 -0.027302623
0001c0 c0 ed 3e 3c 28 eb f8 3c 1c 26 fb 3d 30 d7 b6 bc
       0.011653364 0.030385569 0.12263128 -0.022319406
0001d0 20 4e aa bb b4 31 a8 bd 48 cb 7c 3d 60 df 9b 3c
       -0.0051973015 -0.08212605 0.0617173 0.019027412
0001e0 e8 15 90 bd e8 13 ff 3d c4 58 14 bd d0 c9 ee bc
       -0.07035428 0.12454969 -0.036217466 -0.029148966
0001f0 02 0f a5 3d 58 6d 50 bd e4 6a 3a 3d 6e 5c 89 bd
       0.08059503 -0.05088553 0.045512095 -0.06707083
000200 80 7a cb 3c 44 22 db bd 08 4e 77 3d 2a 5a b9 3d
       0.024838686 -0.10699895 0.06037715 0.090504006
000210 88 81 20 3d 12 f5 de bd 10 c4 f8 3c 9c 1c 39 bd
       0.03918603 -0.10886587 0.030366927 -0.0451933
000220 8e 5d f2 3d 48 25 4a 3d e0 70 9d bb 8c 9e bc bd
       0.118342504 0.04935196 -0.0048047155 -0.09209928
000230 50 46 ac bd b6 cf 9c 3d e8 c0 76 3d f0 ad ac 3c
       -0.084118485 0.07656805 0.060242563 0.021079034
000240 00 1c fb ba a0 cf f9 3b 3a b5 d8 3d 94 8e 50 3d
       -0.0019158125 0.007623628 0.10581441 0.050917223
000250 0a 3e d4 bd a0 3e 33 bd 70 c2 75 3c d4 d2 c5 bd
       -0.103633955 -0.043760896 0.014999971 -0.09659353
000260 a4 50 f1 3d e4 99 f7 bd 18 2e ee bc 78 98 c4 3d
       0.11782959 -0.12089899 -0.029074714 0.095993936
000270 40 c7 23 bd ac 3c 98 bd 86 62 cb bd 1c 85 cf 3d
       -0.03998494 -0.07433447 -0.09930901 0.101328105
000280 00 ab d9 bc 38 41 ee bd da 9a fa bd 58 1d 53 bd
       -0.026570797 -0.11633533 -0.12236567 -0.051541656
000290 f8 fa e4 bd a8 23 0a 3d d0 2b 3b bd 68 11 ce bd
       -0.11180681 0.03372541 -0.04569608 -0.10061914
0002a0 80 c3 00 bd 88 d9 cf bd 2a 8f 83 3d 88 d6 66 bd
       -0.031436443 -0.10148913 0.06423791 -0.056356937
0002b0 28 b6 36 3d 6c c6 e5 bd c0 0b b3 bc 04 03 23 bd
       0.04460731 -0.112194866 -0.021856189 -0.039797798
0002c0 9a 1c ad bd 74 40 3c bd 78 d2 b9 bd 46 df ac 3d
       -0.08452721 -0.045959905 -0.09073347 0.084410235
0002d0 74 fe 32 3d 00 75 7e 3b 72 8a a8 bd a2 39 f2 bd
       0.043699697 0.0038827062 -0.08229531 -0.11827399
0002e0 60 3b 25 bd bc 5d ed 3d fc 3a 75 3d 98 5b 9b 3c
       -0.040339828 0.11590144 0.059870705 0.018964574
0002f0 84 c4 d5 3d ea ac d8 bd 88 b7 d8 bd 7a aa e8 3d
       0.10437873 -0.10579856 -0.10581881 0.11360641
000300 28 74 e9 bd 50 0f 36 3d 4c 58 36 3d 60 8a af 3d
       -0.11399108 0.044448197 0.0445178 0.08571315
000310 62 4c 88 bd d4 e3 aa 3d c4 c1 c0 bd 86 f0 da 3d
       -0.06655194 0.08344236 -0.09411958 0.106904075
000320 78 10 90 3d 10 75 67 3d ae 6a b5 3d 0a 49 dc bd
       0.07034391 0.056508124 0.08858238 -0.107561186
000330 ae 6e cc bd 10 55 a3 3c 08 e4 14 bd 68 9e aa bc
       -0.09982048 0.019938022 -0.03635028 -0.020827487
000340 50 6c b4 bc 38 f3 12 bd 9c 27 f1 3d 8c a5 6d 3d
       -0.022024304 -0.035876483 0.11775133 0.058019206
000350 28 5d 68 bd dc 1f 3b bd d8 05 70 3d 36 0a d6 3d
       -0.056729466 -0.04568468 0.058599323 0.10451166
000360 fc fb 58 bd e0 92 dd bb 0e e8 ee bd e6 18 a1 bd
       -0.052974686 -0.0067618936 -0.11665355 -0.07866077
000370 7c 6f 9e 3d 00 dc bc 3c c0 ca c5 3c 1a 45 8f bd
       0.07736108 0.023054123 0.02414453 -0.06995602
000380 d8 63 88 bd d8 2e 95 bc f8 ed a2 bd 78 5e 1d bd
       -0.06659669 -0.018210813 -0.07955545 -0.03842017
000390 10 80 2a bd 16 b2 a7 3d c4 8e 38 bd 90 1f 90 3c
       -0.041626036 0.08188264 -0.045058027 0.017593175
0003a0 fc 7a 06 bd a0 d3 8c bb 78 e3 b0 bc d8 29 ea bc
       -0.03283213 -0.0042976886 -0.02159284 -0.028584406
0003b0 00 47 7a 3a f8 ce 87 3d 02 98 db 3d bc 12 85 bd
       0.0009547323 0.06631273 0.107223526 -0.06497714
0003c0 cc b5 a3 bd c0 67 0b bc 60 df 86 bd e0 4c 09 bc
       -0.079936594 -0.008508623 -0.06585574 -0.008380145
0003d0 9c c6 31 3d 10 cb 03 3c 2a 44 81 3d b8 a5 34 3d
       0.0434023 0.008044019 0.063118294 0.044103354
0003e0 90 d2 57 bd 9c bc 2d bd 58 aa 90 bd bc 71 5b 3d
       -0.052691042 -0.0424162 -0.070637405 0.053575262
0003f0 a8 42 e8 3c 78 4a a6 3d d0 e0 46 3c 7c 6d 01 3d
       0.028352097 0.081196725 0.01213856 0.031598553

net.2.bias f4 [64]
000000 8c 41 f9 3d 08 7d fa bd 80 2b 46 bc 78 7e 5c 3d
       0.12170705 -0.12230879 -0.012095332 0.053831547
000010 90 c1 8a 3d 84 00 f3 bd 00 7c 75 bc 90 f1 40 bc
       0.067752 -0.11865333 -0.014983177 -0.011776343
000020 8c 81 36 bd 2a bf da bd 94 a6 ec bd 54 a6 e7 bd
       -0.04455714 -0.10680993 -0.1155521 -0.113110214
000030 3e 9e af 3d 68 22 cd 3d a6 e6 d1 3d 34 d8 f0 3d
       0.08575104 0.10016328 0.10249071 0.117599875
000040 d4 cf cf bd 44 aa 87 bd f8 57 b9 bc bc f3 65 bd
       -0.10147062 -0.066242725 -0.022624955 -0.056140646
000050 04 29 da bd 20 8f e6 bd 10 54 54 3d 36 46 dc bd
       -0.10652354 -0.11257768 0.05183798 -0.10755579
000060 28 76 56 bd f0 91 be bd 0c 5f 4f 3d 8c 4e 50 bd
       -0.052358776 -0.09305179 0.050627753 -0.050856158
000070 22 b3 c8 3d 3c e3 d0 bd 9c 68 62 bd 9a df 9d 3d
       0.09799792 -0.101995915 -0.055275545 0.07708664
000080 ee ef f7 bd d4 78 78 bd 20 72 67 3d 1e fb da 3d
       -0.1210631 -0.060662106 0.056505322 0.10692428
000090 58 69 72 3d 40 42 94 3c e4 42 4c 3d 38 92 9f bc
       0.059182495 0.018097997 0.04986848 -0.019478902
0000a0 30 c0 26 bd 40 97 9d 3d 9c b3 3c bd b2 04 83 bd
       -0.040710628 0.07694864 -0.046069726 -0.0639738
0000b0 38 e1 93 3d 84 8b 33 bd ec 7f c7 3d 00 44 9d bc
       0.072206914 -0.043834224 0.09741196 -0.019197464
0000c0 10 1c 10 bd 06 a1 d0 bd 60 c8 3d bc d2 2d bc bd
       -0.035183012 -0.10186963 -0.011583418 -0.09188427
0000d0 30 83 1c 3d 60 27 3c bd 8e c6 c6 3d d0 0c 55 3c
       0.038211048 -0.04593599 0.0970584 0.013003543
0000e0 26 21 a3 3d de ae 8b 3d 00 4c 79 bd 06 e4 a4 3d
       0.07965307 0.06820463 -0.060863495 0.080513045
0000f0 8c 82 5e 3d 80 6e 5b bc 54 9a 40 bd 46 d5 f1 3d
       0.054323718 -0.0133930445 -0.04702218 0.11808257

net.4.weight f4 [6, 64]
000000 b4 98 3a 3d b0 84 d4 bc e0 e5 cc 3b 70 4d 34 bd
       0.045555785 -0.025942177 0.006252989 -0.044019163
000010 b8 0a d4 bc 24 67 f8 3d c0 b5 c8 bd 60 f1 ad 3c
       -0.025884017 0.121290475 -0.09800291 0.02123326
000020 78 ce d0 bc cc fb ee 3d 60 34 a8 bd b4 2a 0c 3d
       -0.025489077 0.1166912 -0.08213115 0.034220412
000030 00 ea 90 b9 5c eb 78 bd 12 04 9a bd d8 62 2e 3d
       -0.00027640164 -0.06077133 -0.075203076 0.042574733
000040 dc 5a 8a bd 50 ab a4 bc c0 ba 28 3c ec 79 43 bd
       -0.06755611 -0.02010122 0.010298431 -0.047723696
000050 34 02 0d 3d 12 cd cc 3d 6c 7e 65 3d 08 9f 8a bd
       0.03442593 0.100000516 0.05602877 -0.06768614
000060 48 4e e4 3c 28 4a 81 bc 08 b5 a3 3c 2c c5 93 3d
       0.027869359 -0.01578243 0.019983783 0.07215342
000070 e0 aa 86 bd 18 2d 9d bc 64 ca 53 bd d0 75 b3 bd
       -0.065755606 -0.019186541 -0.051706687 -0.08762705
000080 e0 7e 2a 3d 60 70 08 3c b0 03 59 bc 76 ed 8d bd
       0.041624904 0.008327574 -0.013245508 -0.06930058
000090 38 28 97 3c b8 7d a3 3c 18 73 c1 3c 50 9a 1c bc
       0.018451795 0.019957408 0.023614451 -0.009558275
0000a0 a8 50 ad 3d 92 be b3 bd ea 5d 85 3d 18 54 25 bd
       0.084626496 -0.08776583 0.06512053 -0.0403634
0000b0 60 73 5f 3d f8 3f b0 bd e6 88 8c bd 60 a6 1d bc
       0.05455339 -0.08605951 -0.06862049 -0.009622186
0000c0 e0 c9 b5 bd 64 82 57 bd 4e ad c5 bd 46 cb 98 bd
       -0.08876395 -0.052614585 -0.09652196 -0.07460646
0000d0 18 cf 92 bd 3c fa 3e bd c0 40 39 bb 8a 98 a5 3d
       -0.07168406 -0.04662536 -0.0028267354 0.08085735
0000e0 dc cc 5a bd e4 37 5f bd f2 03 8b bd 04 b6 9e 3d
       -0.053418025 -0.05449666 -0.06787862 0.077495605
0000f0 00 bd d3 3c 80 5a cc ba dc 22 af 3d 40 13 e7 3b
       0.025846958 -0.0015590936 0.08551571 0.0070518553
000100 e0 69 81 bc 58 23 d9 3d 1a 68 ca 3d f4 da 4b 3d
       -0.015797555 0.106024444 0.09883137 0.049769357
000110 c4 41 da 3d ce cf 83 bd 24 06 bc bd ee 27 a3 3d
       0.10657075 -0.0643612 -0.09180859 0.079666
000120 a2 a7 d3 3d 00 00 e6 3d a0 51 e7 3c 2a c4 aa bd
       0.10334708 0.11230469 0.028237164 -0.083381966
000130 a8 8c 95 3c 70 62 e8 3c c4 24 9e bd 54 2b f1 bd
       0.018255547 0.028367251 -0.07721856 -0.11775842
000140 54 a7 a9 bd 4a 0e c9 3d 5e 4b d3 3d e0 de a7 bd
       -0.082838684 0.098171785 0.103171095 -0.08196807
000150 14 cb c3 3d 9e 10 98 3d 98 cc 97 3c 78 97 e2 bd
       0.095602185 0.074250445 0.018530175 -0.110640466
000160 9e 36 80 bd 88 10 f4 3d 18 0b bf bd 5c eb d5 bd
       -0.062604174 0.119172156 -0.09328288 -0.10445282
000170 e0 14 f7 bd 48 23 9f 3d 50 7c 55 3d d0 73 97 3c
       -0.120645285 0.07770401 0.052120507 0.01848784
000180 58 82 b9 bd 00 e1 8d 3a c8 c9 0e 3d 42 ca 80 3d
       -0.09058064 0.0010824502 0.034860402 0.062885776
000190 00 c5 11 bc d0 11 60 3d 9e c2 c4 bd 1c d2 5e bd
       -0.008897066 0.054704487 -0.09607433 -0.054399595
0001a0 b0 66 18 3d 40 02 11 3c b0 64 99 3c 56 68 c9 3d
       0.037207305 0.008850634 0.01872477 0.098343536
0001b0 b0 01 f5 bc 54 da 1a bd 3c 90 20 bd f8 32 df 3d
       -0.029908031 -0.03780587 -0.039200053 0.108983934
0001c0 d0 c9 cf 3d 5c 52 99 3d 7e 2b e6 bd 8e ed d0 bd
       0.101459146 0.07486412 -0.11238764 -0.1020156
0001d0 58 39 81 bd 4a a7 f6 3d 08 bc 83 3c f2 0a d8 bd
       -0.063097656 0.120436266 0.016080871 -0.10548963
0001e0 e8 a9 48 bd 0c 46 36 3d d4 e9 ff 3d 48 bd ce 3c
       -0.04899016 0.044500396 0.12495771 0.02523674
0001f0 08 bd 7e 3d 6a cb ca 3d 88 f2 8c 3c b8 01 8c 3d
       0.062191993 0.099020794 0.017205492 0.06836265
000200 90 fd fd 3d 9a d7 b0 3d 70 cc b5 3d 26 44 f9 bd
       0.12401879 0.08634873 0.08876884 -0.121712014
000210 1e 30 c6 3d ba aa a4 3d ce ae c2 3d 58 0d eb bd
       0.096771464 0.08040376 0.095059976 -0.114771545
000220 4c b7 40 bd 12 8a 87 3d 00 d6 83 b9 f0 38 99 3d
       -0.047049806 0.06618132 -0.0002514571 0.07481563
000230 c0 d7 20 bd 48 f5 4f bd 18 34 8f bd 08 ea ef bd
       -0.039268255 -0.050771028 -0.06992358 -0.1171456
000240 e0 a4 bc 3b fe d6 8d 3d a0 7e e9 3c fc 36 0a bd
       0.0057569593 0.06925772 0.028502762 -0.033743843
000250 58 e2 85 3d 00 f2 83 3b 48 b6 e2 3d 62 bc e7 3d
       0.06537312 0.0040266514 0.11069924 0.11315228
000260 f6 00 9c bd 54 f9 01 bd e0 0b 06 bd 08 ca 2a 3d
       -0.07617371 -0.03173192 -0.03272617 0.04169658
000270 a0 f6 cf 3d 1c 32 ae 3d b2 3d f4 3d e0 b3 c4 3c
       0.10154462 0.08505651 0.1192583 0.024011552
000280 00 e6 bf bc 96 67 96 3d 90 2b 04 bc 14 26 91 bd
       -0.023425102 0.07343976 -0.008067027 -0.07087341
000290 86 41 e9 3d 00 a2 87 b9 00 7e e9 39 b2 2d cf bd
       0.11389451 -0.00025869906 0.000445351 -0.101161376
0002a0 92 83 f6 bd f0 90 bf 3d ee 0f bf 3d 30 d9 1b bc
       -0.12036814 0.093538165 0.0932921 -0.009512231
0002b0 00 02 d8 3a 30 98 38 bc f2 d8 ce 3d 4c 27 bb 3d
       0.0016480088 -0.011266753 0.10099973 0.09138355
0002c0 a0 23 14 3d 54 a9 d5 bd 40 18 77 bc 46 ad ee bd
       0.036166787 -0.104326874 -0.015081465 -0.11654143
0002d0 8c d3 f5 bd 92 b3 9a bd 68 fe df bc 10 ab 8e bd
       -0.1200324 -0.075537816 -0.02734299 -0.06966221
0002e0 b8 6f b4 3d 90 ee 62 bc 48 09 94 3c 70 88 dc bd
       0.08810371 -0.013850823 0.018070832 -0.10768211
0002f0 78 f6 ed 3d 58 38 e0 3c 88 c9 e5 bd 3c 05 e6 bd
       0.11619276 0.027370617 -0.1122008 -0.11231467
000300 a4 41 cc bd e0 23 3b bd 5c b9 f4 3d 40 1b 4d bd
       -0.099734575 -0.04568851 0.11949417 -0.050074816
000310 16 fc c3 3d 90 3b 6e 3d 84 4b 06 3d 70 9c 34 3d
       0.09569566 0.058162272 0.03278686 0.044094503
000320 c0 2f 1c bc 58 75 c4 bd b6 f7 86 3d 04 11 9f 3d
       -0.009532869 -0.09592694 0.06590216 0.07766917
000330 b8 f0 f3 3d f8 4d 44 3d 58 f8 dd bc c4 17 20 bd
       0.11911148 0.04792592 -0.027095959 -0.039085165
000340 7a e5 b3 3d 90 2e 97 bd aa 83 ce 3d 30 58 20 bc
       0.087840036 -0.07381928 0.10083707 -0.009786651
000350 74 36 ff 3d e8 ef 0a 3d 68 43 d2 bd 08 56 cc bd
       0.12461558 0.0339202 -0.10266763 -0.09977347
000360 c0 c8 98 bc b8 3c 8c 3c d8 e5 b0 bd 44 46 0d bd
       -0.018650413 0.017118797 -0.08637589 -0.03449084
000370 6c 7c 94 bd ec f8 f3 bd 80 e7 b3 bc 80 71 f7 3d
       -0.07250294 -0.119127125 -0.021960974 0.12082195
000380 c0 31 cd bd 16 cd 97 bd 14 5a 6c 3d c8 e3 97 3c
       -0.10019255 -0.07412164 0.057703093 0.018541232
000390 74 32 55 bd 60 06 8e bd 80 a1 eb bd a4 ad 3e bd
       -0.05205007 -0.0693481 -0.11505413 -0.046552315
0003a0 a6 92 8c bd 6c be 2c bd 90 f0 95 bd 80 20 56 3c
       -0.068639085 -0.042173788 -0.07321274 0.013069272
0003b0 22 f3 96 3d d0 36 dc 3d 90 b9 f5 3d c8 fb 9c bd
       0.07370593 0.10752642 0.11998284 -0.07665211
0003c0 82 5c b4 3d e0 7c 9f bb a8 e5 f4 bd 18 b8 d7 bd
       0.08806707 -0.004867181 -0.11957866 -0.1053316
0003d0 f2 6e e8 3d da 43 89 bd cc cc 0b bd 28 d3 9e bc
       0.11349286 -0.06702395 -0.034130856 -0.019387797
0003e0 90 74 80 3d 1a 0e f8 bd 9e f8 ae 3d 94 57 cb 3d
       0.062722325 -0.12112065 0.08543514 0.099288136
0003f0 e2 84 f7 3d 9c 84 c9 bd 80 60 47 bb 00 a6 73 bd
       0.12085892 -0.09839746 -0.0030422509 -0.05948448

net.4.bias f4 [6]
000000 e4 21 72 bd 28 c4 b9 bc a4 77 db 3d a8 c8 60 3d
       -0.059114352 -0.022676542 0.10716179 0.05487886
000010 98 4f b7 3c 9c 0c cb bd
       0.02237682 -0.099145144

net.0.weight f4 [64, 16]
000000 20 df 34 3c b6 b9 23 be 54 39 19 be 92 63 18 be
       0.011039525 -0.15988812 -0.14963275 -0.14881733
000010 88 86 27 be d8 e2 af bd a0 5b 53 bc 32 c7 45 be
       -0.16359913 -0.08588189 -0.012900263 -0.19314268
000020 c0 3d eb 3d 02 ab 60 be 1c 95 f0 3d ae 66 55 be
       0.11486387 -0.21940234 0.1174719 -0.2083995
000030 50 3a ac bc a8 4d 29 bd 28 35 f4 bd b0 b6 b9 3d
       -0.0210239 -0.041333824 -0.11924201 0.09068048
000040 4a ec 45 be 80 cc a3 3d 50 6b f9 3c e0 f7 30 bc
       -0.19328418 0.0799799 0.030446678 -0.0108012855
000050 98 ee 23 be b8 51 bd 3d ca b7 49 be 36 b0 55 3e
       -0.16008985 0.09244102 -0.19699016 0.20868
000060 a0 61 73 3c 7a 6c 04 be 7e 42 12 3e e0 2a 62 bc
       0.014854819 -0.12932006 0.14283177 -0.0138041675
000070 d8 ba 6e bd bc 33 97 3d 64 2a 04 3e e0 33 83 bc
       -0.058283657 0.073829144 0.12906796 -0.016015947
000080 92 30 07 be 8e a9 16 3e 90 20 df 3c 60 7b b9 3c
       -0.13202122 0.14713117 0.027237207 0.022641838
000090 38 dc 49 bd dc c0 4a 3e 16 8f 3e be f0 f2 51 3e
       -0.049282283 0.19800133 -0.1860927 0.2050283
0000a0 e2 24 3d be 88 db 06 bd 92 23 49 3e fe c5 18 3e
       -0.18471101 -0.032924205 0.19642475 0.14919278
0000b0 b6 02 17 be 80 89 4a bc 48 39 45 be 3c dc 88 bd
       -0.14747128 -0.012361884 -0.19260132 -0.066826314
0000c0 b2 9c 0d 3e 30 b0 1d 3e 48 ed 57 bd d2 04 09 be
       0.13829306 0.15399241 -0.052716523 -0.13380745
0000d0 80 a0 1b bd a8 cf 83 3d 00 23 0e 3b d4 96 e2 bd
       -0.03799486 0.06436092 0.0021688342 -0.110639244
0000e0 98 52 09 3d 44 12 b5 bd 66 a0 05 be 68 21 e6 3d
       0.033526033 -0.088413745 -0.13049468 0.112368405
0000f0 0c f9 e9 bd 3e 6a 2d be 44 97 1d be 8a 90 4d be
       -0.11424455 -0.1693506 -0.15389735 -0.20074669
000100 a0 53 51 bc 3c f4 41 be ae 59 72 3e ea 5b 50 3e
       -0.012776285 -0.18940824 0.23667023 0.20347562
000110 3c 7a d9 3d 80 c9 38 be 9a ad 4b 3e 8e 00 1f 3e
       0.106190175 -0.18045616 0.19890442 0.15527555
000120 20 6a 26 bc 60 8c 72 be c6 66 5a 3e 98 3f 1b 3d
       -0.010157138 -0.23686361 0.21328267 0.037902445
000130 42 34 01 be 60 e3 f2 bd 80 92 60 3e 64 f6 d5 3d
       -0.12617591 -0.118597746 0.21930885 0.10447386
000140 68 49 a2 3d bc e2 22 3e f4 5b fe bd ba 81 32 be
       0.079241574 0.15906805 -0.124198824 -0.174323
000150 a0 27 db bc ec 67 37 be 40 5b cb bc 78 81 48 3d
       -0.026752293 -0.17910737 -0.024823785 0.048951596
000160 6e b2 5b be 1c 8d 47 be 30 d3 3f be 40 5c ab bb
       -0.21454784 -0.19487423 -0.18732905 -0.005229503
000170 d8 f2 1f 3e 38 83 0a 3d 38 84 24 3d 00 d4 ad 3b
       0.15619981 0.033816546 0.040165156 0.0053048134
000180 20 3f 40 be da 3d 0c be d8 be 6e 3e 80 fd 96 3b
       -0.1877408 -0.1369547 0.23314989 0.0046078563
000190 3c f9 54 be e2 b0 50 3e 90 73 1c be a6 52 41 be
       -0.207982 0.20379975 -0.15278459 -0.18879184
0001a0 66 fd 5f be f0 a7 ba 3c aa 3c 3c 3e 98 65 c5 3d
       -0.21874008 0.022785157 0.18382517 0.09638518
0001b0 4c 38 1c 3e a4 4f fb bd 1a 0a 06 be 90 1f 7e 3e
       0.1525585 -0.122710496 -0.13089791 0.24816728
0001c0 5c 13 21 3e a4 56 3f be 5c 83 24 3e a0 ad f6 bd
       0.15730041 -0.18685395 0.16065735 -0.12044835
0001d0 70 76 45 be 18 e1 6e 3e 30 58 46 be 00 13 2b bc
       -0.19283462 0.23328054 -0.19369578 -0.010441542
0001e0 10 3f b9 3c 0e 1b 48 3e 06 e1 43 3e 08 5b 0e be
       0.022613078 0.1954157 0.19128808 -0.13901913
0001f0 f4 e2 32 3e 4c 24 5a 3e ec 79 36 3e 64 a8 50 be
       0.17469388 0.21302909 0.17819947 -0.20376736
000200 98 89 fd bd 20 f8 22 3c c0 7e 64 be 18 91 70 3d
       -0.123797596 0.009946853 -0.22313976 0.058732122
000210 94 f1 80 bd 3a ed 40 3e ec 01 9e 3d 64 ba d3 bd
       -0.06296077 0.18840495 0.0771521 -0.103382856
000220 50 7d f2 3d 44 be b7 bd 54 f7 95 bd bc e1 75 3e
       0.11840308 -0.08971837 -0.07322565 0.24011892
000230 c8 f0 79 bd ee c8 1e 3e 78 c9 7c bd 0c 7d 84 bd
       -0.061020643 0.15506336 -0.061715573 -0.06469163
000240 08 ff 3e be c0 3c c5 3c 88 c2 c1 bd 94 cf 5a 3e
       -0.18651974 0.02407682 -0.09460932 0.21368247
000250 64 e2 01 3e a4 21 ea 3d d8 f8 68 3d 00 31 89 3a
       0.12684017 0.11432198 0.05687794 0.0010466874
000260 a0 c4 c6 3c a0 f8 d5 bd 60 36 b0 bc 64 d6 a0 3d
       0.02426368 -0.10447812 -0.021510303 0.07853392
000270 70 30 09 bd 60 2b bd bd 72 ab 63 be 3a 83 10 be
       -0.03349346 -0.09236789 -0.2223337 -0.14112559
000280 9c 56 64 3e f4 46 7e be 00 ae 72 3a 58 55 75 bd
       0.22298664 -0.24831754 0.00092574954 -0.059895843
000290 00 a1 33 bc e0 bf 74 3e e8 14 41 3e 50 a2 47 3e
       -0.010963678 0.2390132 0.18855631 0.19495511
0002a0 ce f8 59 3e 28 0e 47 3e 20 b8 d0 3c 6e 7d 40 3e
       0.21286318 0.19438994 0.025478423 0.18797848
0002b0 a8 32 6f 3e da 21 68 be 90 a4 08 be 40 82 4b bc
       0.23359168 -0.22669163 -0.13344026 -0.012421191
0002c0 00 44 1f 3c c2 9b 62 be 1e 12 07 3e 2c b9 39 3e
       0.009720802 -0.2212973 0.13190505 0.18137044
0002d0 5c f1 aa bd 28 2b 21 3e d4 d6 af 3d ea f6 77 3e
       -0.08346817 0.15739119 0.08585897 0.24215284
0002e0 a8 a7 0c be b8 f4 2b be 16 cc 30 3e 8e fa 2c 3e
       -0.13735831 -0.16792572 0.17265353 0.16892454
0002f0 00 34 f8 3d 40 5f 49 be 46 9e 0d 3e bc a9 65 3e
       0.12119293 -0.19665241 0.13829908 0.2242803
000300 e0 6a 1f bc e0 89 4a 3e 30 15 d1 3d 88 99 67 bd
       -0.009730071 0.19779158 0.10209119 -0.056542903
000310 2e b5 05 be 64 97 5b be 3c 8b 09 3e 18 a9 1c 3e
       -0.13057396 -0.2144447 0.1343202 0.15298879
000320 00 c6 18 bd c0 50 6b bd 78 96 45 3e ea 1e 68 be
       -0.037298203 -0.057450056 0.1929568 -0.22668043
000330 f0 56 2c 3e 00 30 10 39 ac b5 1d be ac 81 56 be
       0.16830039 0.00013750792 -0.15401334 -0.20947903
000340 6e a1 3e 3e a4 be ea 3d bc 38 44 be 14 c5 8a 3d
       0.18616268 0.11462143 -0.19162267 0.06775871
000350 e8 b9 0b bd e8 4c 15 3e 0a d2 36 be 18 a2 27 be
       -0.03411284 0.14580119 -0.17853561 -0.16370428
000360 7e 3e 37 be e0 4d 10 3e ac 4f d4 bd 00 55 e7 bd
       -0.17894933 0.14092207 -0.10366759 -0.11295509
000370 70 b7 e6 3c 56 7c 5d be d8 60 54 3e 66 c6 4d be
       0.028163642 -0.21629462 0.20740068 -0.20095214
000380 20 37 31 bd c8 38 49 3e 24 55 92 bd 66 a3 69 3e
       -0.043265462 0.19650567 -0.071451455 0.22816238
000390 b8 40 49 3d e4 4f a3 bd 64 59 c7 bd 48 88 3e bd
       0.049133986 -0.07974222 -0.09733847 -0.046516687
0003a0 2c bf 19 be b0 62 d2 3d 40 fc d9 3d 98 a8 f5 bd
       -0.15014333 0.102727294 0.10643816 -0.11995047
0003b0 d6 20 0e be e8 2a a2 3d 60 55 74 be 98 70 4d bd
       -0.13879713 0.0791834 -0.23860693 -0.050156206
0003c0 3c c6 50 be 2c e0 59 3e 2a e7 09 3e ac 80 53 3e
       -0.2038812 0.21276921 0.13467088 0.20654553
0003d0 9c c4 5f 3e e4 9c 4e 3e 88 a8 7f 3d 64 76 76 be
       0.21852344 0.20177037 0.062416583 -0.240686
0003e0 00 ed 14 3c 78 63 4e 3e 2e 7b 48 3e f4 f0 2c be
       0.009089708 0.20155132 0.1957824 -0.16888791
0003f0 5a 6e 09 3e 88 2a 5e 3d d8 99 71 bd 90 80 27 3e
       0.13421002 0.05423978 -0.058984607 0.16357636

net.0.bias f4 [64]
000000 ac b7 56 3e 20 72 3a 3c 2c 5f 62 be b0 9f 98 3d
       0.20968503 0.011379749 -0.22106618 0.07452333
000010 9a f9 40 be 58 a7 ac 3d 08 c3 23 bd 60 bd 43 3d
       -0.18845215 0.08430356 -0.03998092 0.047788024
000020 b4 9d ae bd 18 16 01 bd 88 5d 78 bd a4 97 f0 3d
       -0.08526173 -0.03151521 -0.060636073 0.11747673
000030 aa 62 26 3e 5c 8a e5 bd a4 fb 42 be f2 48 53 3e
       0.16248575 -0.112080306 -0.19041306 0.20633295
000040 88 e7 b7 3d b0 db 4a 3d 88 56 31 3d 80 67 42 be
       0.08979708 0.049525917 0.043295413 -0.18984795
000050 00 7c a0 bc ec 21 5c 3e 20 3e 02 bc 1a 54 1b 3e
       -0.019590378 0.21497315 -0.007949382 0.15168801
000060 d6 96 57 3e 16 ec 5c be e4 86 79 3e 18 d5 5c 3e
       0.21053633 -0.21574435 0.24367863 0.21565664
000070 a8 fb 2c 3d 9a 6a 22 be d8 d4 23 3d b0 6c 20 bd
       0.042232186 -0.15860978 0.039997905 -0.039166152
000080 98 36 f9 3d e4 d2 85 bd 00 f1 11 3e 92 fc 27 be
       0.12168616 -0.06534365 0.1425209 -0.16404942
000090 8c 12 77 be e8 29 e5 3d 10 d2 44 3e be 0a 7f be
       -0.24128169 0.111896336 0.19220757 -0.24906442
0000a0 8c d4 25 3e 70 47 03 bd 16 a6 32 be 70 8f 5c bd
       0.16194361 -0.03205055 -0.1744617 -0.05384773
0000b0 80 b7 1d 3b a8 32 4b bd e0 a4 13 3e a6 83 7c 3e
       0.0024065673 -0.049608856 0.14418364 0.24659595
0000c0 82 60 14 3e 26 ea 6c 3e 58 ad 14 bd 50 b0 a7 bc
       0.1448994 0.23136196 -0.036298126 -0.020469815
0000d0 08 cb d6 bd de 51 6c 3e e0 b1 55 be 60 3e 79 3e
       -0.10487944 0.23078105 -0.20868635 0.243402
0000e0 d0 ac 1a 3e 28 87 4d 3e 58 1b 8e bd 58 94 3e 3e
       0.15104985 0.2007109 -0.06938809 0.18611276
0000f0 60 e4 e0 3c bc e5 c6 3d 00 d5 13 bc f8 36 2d 3e
       0.027452648 0.09711787 -0.009022951 0.169155

net.2.weight f4 [64, 64]
000000 8a 0c d9 3d c0 48 d7 3d 32 f9 ef bd 2c ef a4 3d
       0.10598095 0.10511923 -0.11717452 0.08053431
000010 9e 0e bc 3d 60 8c bb 3c 30 64 b9 3c d0 7b cc bc
       0.091824755 0.022894084 0.022630781 -0.024961382
000020 dc 98 8b bd 10 d0 25 bc fc 29 37 bd e8 a8 da bd
       -0.06816265 -0.010120407 -0.044717774 -0.106767476
000030 1a 27 bf 3d e4 68 f3 bd 5c 3e cf bd 70 f6 c7 bc
       0.0933363 -0.11885241 -0.10119316 -0.024409503
000040 64 d1 37 bd 26 d7 97 3d 6c 71 c9 3d 7e 24 99 3d
       -0.044877425 0.07414083 0.09836087 0.074776635
000050 72 53 81 bd 16 3d e8 3d 58 7c 59 bd 58 ad 6e bd
       -0.06314744 0.11339776 -0.0530971 -0.058270782
000060 44 07 ba bd b0 c3 9f 3d d8 1a 52 3d 8e aa a8 bd
       -0.09083417 0.07800996 0.05129513 -0.08235656
000070 d0 67 af bd b8 71 6b bd 84 58 01 3d d8 64 91 bd
       -0.085647225 -0.057481498 0.031578556 -0.070993125
000080 8a b6 ac bd a8 c4 37 bd 18 7a ca bd 50 2a fc 3d
       -0.08433254 -0.04486528 -0.09886569 0.12312758
000090 22 17 fa 3d 40 84 82 bb 2c f2 ae 3d f0 ad 8d 3d
       0.122114435 -0.0039830506 0.08542284 0.069179416
0000a0 40 1e 7d 3d ea 3e 87 3d 20 f2 b2 bb d4 16 1e bd
       0.061796427 0.06603797 -0.0054609925 -0.03859599
0000b0 00 7a d6 b9 10 90 87 3d 60 37 ee 3d 08 93 f1 bc
       -0.00040908158 0.066192746 0.11631656 -0.029489055
0000c0 c8 d9 d0 bd 6c f7 e2 bd b0 17 d0 bd a8 40 70 bd
       -0.101977885 -0.11082348 -0.10160768 -0.05865541
0000d0 82 70 c5 3d 2c 5c 04 3d e0 9e 8e bb c2 9a cf bd
       0.096406 0.032314464 -0.0043524355 -0.101369396
0000e0 60 4a ef bc 4e 15 cf 3d 7c b8 ff 3d 14 f9 3c bd
       -0.02921027 0.101114854 0.124863595 -0.046135977
0000f0 50 5c a2 bc 6c 10 a0 3d 30 ea c1 3d 80 96 7d bb
       -0.019819409 0.07815632 0.09468496 -0.0038694441
000100 fc 99 d7 bd 68 90 8b 3c 4a 8a 9b 3d fc 61 b8 bd
       -0.10527417 0.017036632 0.07594736 -0.09003064
000110 64 a5 a1 3d 92 8a c2 bd 94 e7 ad bd a8 15 b0 bd
       0.07892874 -0.094990864 -0.08491436 -0.085978806
000120 50 4f 9e 3c d0 a9 fa 3c 90 a5 1c 3c 00 a3 59 bc
       0.019324929 0.030598551 0.009560958 -0.013283491
000130 22 41 b9 bd ce 23 b2 3d 94 d5 2e bd a6 90 f2 3d
       -0.09045626 0.086982355 -0.042684153 0.11843996
000140 04 dc 79 bd c8 75 cd 3d 20 27 b1 bc 28 4a 7b bd
       -0.06100084 0.100322306 -0.021625102 -0.061350018
000150 e4 f7 a1 bd 90 5f fe bd d2 1f b1 bd d0 9a cf bc
       -0.079086095 -0.12420571 -0.08648647 -0.025342375
000160 64 82 da 3d c4 ab fd bd 60 98 5c bc 82 ff b1 3d
       0.10669401 -0.12386277 -0.013464063 0.086913124
000170 38 24 7c 3d 00 d5 f8 3d dc 79 6e 3d f8 06 4c 3d
       0.06155798 0.121500015 0.058221683 0.049811333
000180 00 c7 8b 3d c4 fe a6 bd aa bf a7 3d 6a 6d cb bd
       0.068250656 -0.081540614 0.08190854 -0.099329785
000190 c8 31 82 bd 3a e3 f6 3d cc b2 f2 bd 16 95 99 bd
       -0.06357151 0.12055059 -0.11850509 -0.07499139
0001a0 30 7c 15 3c 0e 8f 95 bd da 07 ab 3d 68 79 6a bd
       0.009123847 -0.07302676 0.08351107 -0.05724469
0001b0 34 3c ca 3d 90 48 e1 3d 54 54 12 3d c0 a9 df bc
       0.09874764 0.11000168 0.035724953 -0.027302623
0001c0 c0 ed 3e 3c 28 eb f8 3c 1c 26 fb 3d 30 d7 b6 bc
       0.011653364 0.030385569 0.12263128 -0.022319406
0001d0 20 4e aa bb b4 31 a8 bd 48 cb 7c 3d 60 df 9b 3c
       -0.0051973015 -0.08212605 0.0617173 0.019027412
0001e0 e8 15 90 bd e8 13 ff 3d c4 58 14 bd d0 c9 ee bc
       -0.07035428 0.12454969 -0.036217466 -0.029148966
0001f0 02 0f a5 3d 58 6d 50 bd e4 6a 3a 3d 6e 5c 89 bd
       0.08059503 -0.05088553 0.045512095 -0.06707083
000200 80 7a cb 3c 44 22 db bd 08 4e 77 3d 2a 5a b9 3d
       0.024838686 -0.10699895 0.06037715 0.090504006
000210 88 81 20 3d 12 f5 de bd 10 c4 f8 3c 9c 1c 39 bd
       0.03918603 -0.10886587 0.030366927 -0.0451933
000220 8e 5d f2 3d 48 25 4a 3d e0 70 9d bb 8c 9e bc bd
       0.118342504 0.04935196 -0.0048047155 -0.09209928
000230 50 46 ac bd b6 cf 9c 3d e8 c0 76 3d f0 ad ac 3c
       -0.084118485 0.07656805 0.060242563 0.021079034
000240 00 1c fb ba a0 cf f9 3b 3a b5 d8 3d 94 8e 50 3d
       -0.0019158125 0.007623628 0.10581441 0.050917223
000250 0a 3e d4 bd a0 3e 33 bd 70 c2 75 3c d4 d2 c5 bd
       -0.103633955 -0.043760896 0.014999971 -0.09659353
000260 a4 50 f1 3d e4 99 f7 bd 18 2e ee bc 78 98 c4 3d
       0.11782959 -0.12089899 -0.029074714 0.095993936
000270 40 c7 23 bd ac 3c 98 bd 86 62 cb bd 1c 85 cf 3d
       -0.03998494 -0.07433447 -0.09930901 0.101328105
000280 00 ab d9 bc 38 41 ee bd da 9a fa bd 58 1d 53 bd
       -0.026570797 -0.11633533 -0.12236567 -0.051541656
000290 f8 fa e4 bd a8 23 0a 3d d0 2b 3b bd 68 11 ce bd
       -0.11180681 0.03372541 -0.04569608 -0.10061914
0002a0 80 c3 00 bd 88 d9 cf bd 2a 8f 83 3d 88 d6 66 bd
       -0.031436443 -0.10148913 0.06423791 -0.056356937
0002b0 28 b6 36 3d 6c c6 e5 bd c0 0b b3 bc 04 03 23 bd
       0.04460731 -0.112194866 -0.021856189 -0.039797798
0002c0 9a 1c ad bd 74 40 3c bd 78 d2 b9 bd 46 df ac 3d
       -0.08452721 -0.045959905 -0.09073347 0.084410235
0002d0 74 fe 32 3d 00 75 7e 3b 72 8a a8 bd a2 39 f2 bd
       0.043699697 0.0038827062 -0.08229531 -0.11827399
0002e0 60 3b 25 bd bc 5d ed 3d fc 3a 75 3d 98 5b 9b 3c
       -0.040339828 0.11590144 0.059870705 0.018964574
0002f0 84 c4 d5 3d ea ac d8 bd 88 b7 d8 bd 7a aa e8 3d
       0.10437873 -0.10579856 -0.10581881 0.11360641
000300 28 74 e9 bd 50 0f 36 3d 4c 58 36 3d 60 8a af 3d
       -0.11399108 0.044448197 0.0445178 0.08571315
000310 62 4c 88 bd d4 e3 aa 3d c4 c1 c0 bd 86 f0 da 3d
       -0.06655194 0.08344236 -0.09411958 0.106904075
000320 78 10 90 3d 10 75 67 3d ae 6a b5 3d 0a 49 dc bd
       0.07034391 0.056508124 0.08858238 -0.107561186
000330 ae 6e cc bd 10 55 a3 3c 08 e4 14 bd 68 9e aa bc
       -0.09982048 0.019938022 -0.03635028 -0.020827487
000340 50 6c b4 bc 38 f3 12 bd 9c 27 f1 3d 8c a5 6d 3d
       -0.022024304 -0.035876483 0.11775133 0.058019206
000350 28 5d 68 bd dc 1f 3b bd d8 05 70 3d 36 0a d6 3d
       -0.056729466 -0.04568468 0.058599323 0.10451166
000360 fc fb 58 bd e0 92 dd bb 0e e8 ee bd e6 18 a1 bd
       -0.052974686 -0.0067618936 -0.11665355 -0.07866077
000370 7c 6f 9e 3d 00 dc bc 3c c0 ca c5 3c 1a 45 8f bd
       0.07736108 0.023054123 0.02414453 -0.06995602
000380 d8 63 88 bd d8 2e 95 bc f8 ed a2 bd 78 5e 1d bd
       -0.06659669 -0.018210813 -0.07955545 -0.03842017
000390 10 80 2a bd 16 b2 a7 3d c4 8e 38 bd 90 1f 90 3c
       -0.041626036 0.08188264 -0.045058027 0.017593175
0003a0 fc 7a 06 bd a0 d3 8c bb 78 e3 b0 bc d8 29 ea bc
       -0.03283213 -0.0042976886 -0.02159284 -0.028584406
0003b0 00 47 7a 3a f8 ce 87 3d 02 98 db 3d bc 12 85 bd
       0.0009547323 0.06631273 0.107223526 -0.06497714
0003c0 cc b5 a3 bd c0 67 0b bc 60 df 86 bd e0 4c 09 bc
       -0.079936594 -0.008508623 -0.06585574 -0.008380145
0003d0 9c c6 31 3d 10 cb 03 3c 2a 44 81 3d b8 a5 34 3d
       0.0434023 0.008044019 0.063118294 0.044103354
0003e0 90 d2 57 bd 9c bc 2d bd 58 aa 90 bd bc 71 5b 3d
       -0.052691042 -0.0424162 -0.070637405 0.053575262
0003f0 a8 42 e8 3c 78 4a a6 3d d0 e0 46 3c 7c 6d 01 3d
       0.028352097 0.081196725 0.01213856 0.031598553

net.2.bias f4 [64]
000000 8c 41 f9 3d 08 7d fa bd 80 2b 46 bc 78 7e 5c 3d
       0.12170705 -0.12230879 -0.012095332 0.053831547
000010 90 c1 8a 3d 84 00 f3 bd 00 7c 75 bc 90 f1 40 bc
       0.067752 -0.11865333 -0.014983177 -0.011776343
000020 8c 81 36 bd 2a bf da bd 94 a6 ec bd 54 a6 e7 bd
       -0.04455714 -0.10680993 -0.1155521 -0.113110214
000030 3e 9e af 3d 68 22 cd 3d a6 e6 d1 3d 34 d8 f0 3d
       0.08575104 0.10016328 0.10249071 0.117599875
000040 d4 cf cf bd 44 aa 87 bd f8 57 b9 bc bc f3 65 bd
       -0.10147062 -0.066242725 -0.022624955 -0.056140646
000050 04 29 da bd 20 8f e6 bd 10 54 54 3d 36 46 dc bd
       -0.10652354 -0.11257768 0.05183798 -0.10755579
000060 28 76 56 bd f0 91 be bd 0c 5f 4f 3d 8c 4e 50 bd
       -0.052358776 -0.09305179 0.050627753 -0.050856158
000070 22 b3 c8 3d 3c e3 d0 bd 9c 68 62 bd 9a df 9d 3d
       0.09799792 -0.101995915 -0.055275545 0.07708664
000080 ee ef f7 bd d4 78 78 bd 20 72 67 3d 1e fb da 3d
       -0.1210631 -0.060662106 0.056505322 0.10692428
000090 58 69 72 3d 40 42 94 3c e4 42 4c 3d 38 92 9f bc
       0.059182495 0.018097997 0.04986848 -0.019478902
0000a0 30 c0 26 bd 40 97 9d 3d 9c b3 3c bd b2 04 83 bd
       -0.040710628 0.07694864 -0.046069726 -0.0639738
0000b0 38 e1 93 3d 84 8b 33 bd ec 7f c7 3d 00 44 9d bc
       0.072206914 -0.043834224 0.09741196 -0.019197464
0000c0 10 1c 10 bd 06 a1 d0 bd 60 c8 3d bc d2 2d bc bd
       -0.035183012 -0.10186963 -0.011583418 -0.09188427
0000d0 30 83 1c 3d 60 27 3c bd 8e c6 c6 3d d0 0c 55 3c
       0.038211048 -0.04593599 0.0970584 0.013003543
0000e0 26 21 a3 3d de ae 8b 3d 00 4c 79 bd 06 e4 a4 3d
       0.07965307 0.06820463 -0.060863495 0.080513045
0000f0 8c 82 5e 3d 80 6e 5b bc 54 9a 40 bd 46 d5 f1 3d
       0.054323718 -0.0133930445 -0.04702218 0.11808257

net.4.weight f4 [6, 64]
000000 b4 98 3a 3d b0 84 d4 bc e0 e5 cc 3b 70 4d 34 bd
       0.045555785 -0.025942177 0.006252989 -0.044019163
000010 b8 0a d4 bc 24 67 f8 3d c0 b5 c8 bd 60 f1 ad 3c
       -0.025884017 0.121290475 -0.09800291 0.02123326
000020 78 ce d0 bc cc fb ee 3d 60 34 a8 bd b4 2a 0c 3d
       -0.025489077 0.1166912 -0.08213115 0.034220412
000030 00 ea 90 b9 5c eb 78 bd 12 04 9a bd d8 62 2e 3d
       -0.00027640164 -0.06077133 -0.075203076 0.042574733
000040 dc 5a 8a bd 50 ab a4 bc c0 ba 28 3c ec 79 43 bd
       -0.06755611 -0.02010122 0.010298431 -0.047723696
000050 34 02 0d 3d 12 cd cc 3d 6c 7e 65 3d 08 9f 8a bd
       0.03442593 0.100000516 0.05602877 -0.06768614
000060 48 4e e4 3c 28 4a 81 bc 08 b5 a3 3c 2c c5 93 3d
       0.027869359 -0.01578243 0.019983783 0.07215342
000070 e0 aa 86 bd 18 2d 9d bc 64 ca 53 bd d0 75 b3 bd
       -0.065755606 -0.019186541 -0.051706687 -0.08762705
000080 e0 7e 2a 3d 60 70 08 3c b0 03 59 bc 76 ed 8d bd
       0.041624904 0.008327574 -0.013245508 -0.06930058
000090 38 28 97 3c b8 7d a3 3c 18 73 c1 3c 50 9a 1c bc
       0.018451795 0.019957408 0.023614451 -0.009558275
0000a0 a8 50 ad 3d 92 be b3 bd ea 5d 85 3d 18 54 25 bd
       0.084626496 -0.08776583 0.06512053 -0.0403634
0000b0 60 73 5f 3d f8 3f b0 bd e6 88 8c bd 60 a6 1d bc
       0.05455339 -0.08605951 -0.06862049 -0.009622186
0000c0 e0 c9 b5 bd 64 82 57 bd 4e ad c5 bd 46 cb 98 bd
       -0.08876395 -0.052614585 -0.09652196 -0.07460646
0000d0 18 cf 92 bd 3c fa 3e bd c0 40 39 bb 8a 98 a5 3d
       -0.07168406 -0.04662536 -0.0028267354 0.08085735
0000e0 dc cc 5a bd e4 37 5f bd f2 03 8b bd 04 b6 9e 3d
       -0.053418025 -0.05449666 -0.06787862 0.077495605
0000f0 00 bd d3 3c 80 5a cc ba dc 22 af 3d 40 13 e7 3b
       0.025846958 -0.0015590936 0.08551571 0.0070518553
000100 e0 69 81 bc 58 23 d9 3d 1a 68 ca 3d f4 da 4b 3d
       -0.015797555 0.106024444 0.09883137 0.049769357
000110 c4 41 da 3d ce cf 83 bd 24 06 bc bd ee 27 a3 3d
       0.10657075 -0.0643612 -0.09180859 0.079666
000120 a2 a7 d3 3d 00 00 e6 3d a0 51 e7 3c 2a c4 aa bd
       0.10334708 0.11230469 0.028237164 -0.083381966
000130 a8 8c 95 3c 70 62 e8 3c c4 24 9e bd 54 2b f1 bd
       0.018255547 0.028367251 -0.07721856 -0.11775842
000140 54 a7 a9 bd 4a 0e c9 3d 5e 4b d3 3d e0 de a7 bd
       -0.082838684 0.098171785 0.103171095 -0.08196807
000150 14 cb c3 3d 9e 10 98 3d 98 cc 97 3c 78 97 e2 bd
       0.095602185 0.074250445 0.018530175 -0.110640466
000160 9e 36 80 bd 88 10 f4 3d 18 0b bf bd 5c eb d5 bd
       -0.062604174 0.119172156 -0.09328288 -0.10445282
000170 e0 14 f7 bd 48 23 9f 3d 50 7c 55 3d d0 73 97 3c
       -0.120645285 0.07770401 0.052120507 0.01848784
000180 58 82 b9 bd 00 e1 8d 3a c8 c9 0e 3d 42 ca 80 3d
       -0.09058064 0.0010824502 0.034860402 0.062885776
000190 00 c5 11 bc d0 11 60 3d 9e c2 c4 bd 1c d2 5e bd
       -0.008897066 0.054704487 -0.09607433 -0.054399595
0001a0 b0 66 18 3d 40 02 11 3c b0 64 99 3c 56 68 c9 3d
       0.037207305 0.008850634 0.01872477 0.098343536
0001b0 b0 01 f5 bc 54 da 1a bd 3c 90 20 bd f8 32 df 3d
       -0.029908031 -0.03780587 -0.039200053 0.108983934
0001c0 d0 c9 cf 3d 5c 52 99 3d 7e 2b e6 bd 8e ed d0 bd
       0.101459146 0.07486412 -0.11238764 -0.1020156
0001d0 58 39 81 bd 4a a7 f6 3d 08 bc 83 3c f2 0a d8 bd
       -0.063097656 0.120436266 0.016080871 -0.10548963
0001e0 e8 a9 48 bd 0c 46 36 3d d4 e9 ff 3d 48 bd ce 3c
       -0.04899016 0.044500396 0.12495771 0.02523674
0001f0 08 bd 7e 3d 6a cb ca 3d 88 f2 8c 3c b8 01 8c 3d
       0.062191993 0.099020794 0.017205492 0.06836265
000200 90 fd fd 3d 9a d7 b0 3d 70 cc b5 3d 26 44 f9 bd
       0.12401879 0.08634873 0.08876884 -0.121712014
000210 1e 30 c6 3d ba aa a4 3d ce ae c2 3d 58 0d eb bd
       0.096771464 0.08040376 0.095059976 -0.114771545
000220 4c b7 40 bd 12 8a 87 3d 00 d6 83 b9 f0 38 99 3d
       -0.047049806 0.06618132 -0.0002514571 0.07481563
000230 c0 d7 20 bd 48 f5 4f bd 18 34 8f bd 08 ea ef bd
       -0.039268255 -0.050771028 -0.06992358 -0.1171456
000240 e0 a4 bc 3b fe d6 8d 3d a0 7e e9 3c fc 36 0a bd
       0.0057569593 0.06925772 0.028502762 -0.033743843
000250 58 e2 85 3d 00 f2 83 3b 48 b6 e2 3d 62 bc e7 3d
       0.06537312 0.0040266514 0.11069924 0.11315228
000260 f6 00 9c bd 54 f9 01 bd e0 0b 06 bd 08 ca 2a 3d
       -0.07617371 -0.03173192 -0.03272617 0.04169658
000270 a0 f6 cf 3d 1c 32 ae 3d b2 3d f4 3d e0 b3 c4 3c
       0.10154462 0.08505651 0.1192583 0.024011552
000280 00 e6 bf bc 96 67 96 3d 90 2b 04 bc 14 26 91 bd
       -0.023425102 0.07343976 -0.008067027 -0.07087341
000290 86 41 e9 3d 00 a2 87 b9 00 7e e9 39 b2 2d cf bd
       0.11389451 -0.00025869906 0.000445351 -0.101161376
0002a0 92 83 f6 bd f0 90 bf 3d ee 0f bf 3d 30 d9 1b bc
       -0.12036814 0.093538165 0.0932921 -0.009512231
0002b0 00 02 d8 3a 30 98 38 bc f2 d8 ce 3d 4c 27 bb 3d
       0.0016480088 -0.011266753 0.10099973 0.09138355
0002c0 a0 23 14 3d 54 a9 d5 bd 40 18 77 bc 46 ad ee bd
       0.036166787 -0.104326874 -0.015081465 -0.11654143
0002d0 8c d3 f5 bd 92 b3 9a bd 68 fe df bc 10 ab 8e bd
       -0.1200324 -0.075537816 -0.02734299 -0.06966221
0002e0 b8 6f b4 3d 90 ee 62 bc 48 09 94 3c 70 88 dc bd
       0.08810371 -0.013850823 0.018070832 -0.10768211
0002f0 78 f6 ed 3d 58 38 e0 3c 88 c9 e5 bd 3c 05 e6 bd
       0.11619276 0.027370617 -0.1122008 -0.11231467
000300 a4 41 cc bd e0 23 3b bd 5c b9 f4 3d 40 1b 4d bd
       -0.099734575 -0.04568851 0.11949417 -0.050074816
000310 16 fc c3 3d 90 3b 6e 3d 84 4b 06 3d 70 9c 34 3d
       0.09569566 0.058162272 0.03278686 0.044094503
000320 c0 2f 1c bc 58 75 c4 bd b6 f7 86 3d 04 11 9f 3d
       -0.009532869 -0.09592694 0.06590216 0.07766917
000330 b8 f0 f3 3d f8 4d 44 3d 58 f8 dd bc c4 17 20 bd
       0.11911148 0.04792592 -0.027095959 -0.039085165
000340 7a e5 b3 3d 90 2e 97 bd aa 83 ce 3d 30 58 20 bc
       0.087840036 -0.07381928 0.10083707 -0.009786651
000350 74 36 ff 3d e8 ef 0a 3d 68 43 d2 bd 08 56 cc bd
       0.12461558 0.0339202 -0.10266763 -0.09977347
000360 c0 c8 98 bc b8 3c 8c 3c d8 e5 b0 bd 44 46 0d bd
       -0.018650413 0.017118797 -0.08637589 -0.03449084
000370 6c 7c 94 bd ec f8 f3 bd 80 e7 b3 bc 80 71 f7 3d
       -0.07250294 -0.119127125 -0.021960974 0.12082195
000380 c0 31 cd bd 16 cd 97 bd 14 5a 6c 3d c8 e3 97 3c
       -0.10019255 -0.07412164 0.057703093 0.018541232
000390 74 32 55 bd 60 06 8e bd 80 a1 eb bd a4 ad 3e bd
       -0.05205007 -0.0693481 -0.11505413 -0.046552315
0003a0 a6 92 8c bd 6c be 2c bd 90 f0 95 bd 80 20 56 3c
       -0.068639085 -0.042173788 -0.07321274 0.013069272
0003b0 22 f3 96 3d d0 36 dc 3d 90 b9 f5 3d c8 fb 9c bd
       0.07370593 0.10752642 0.11998284 -0.07665211
0003c0 82 5c b4 3d e0 7c 9f bb a8 e5 f4 bd 18 b8 d7 bd
       0.08806707 -0.004867181 -0.11957866 -0.1053316
0003d0 f2 6e e8 3d da 43 89 bd cc cc 0b bd 28 d3 9e bc
       0.11349286 -0.06702395 -0.034130856 -0.019387797
0003e0 90 74 80 3d 1a 0e f8 bd 9e f8 ae 3d 94 57 cb 3d
       0.062722325 -0.12112065 0.08543514 0.099288136
0003f0 e2 84 f7 3d 9c 84 c9 bd 80 60 47 bb 00 a6 73 bd
       0.12085892 -0.09839746 -0.0030422509 -0.05948448

net.4.bias f4 [6]
000000 e4 21 72 bd 28 c4 b9 bc a4 77 db 3d a8 c8 60 3d
       -0.059114352 -0.022676542 0.10716179 0.05487886
000010 98 4f b7 3c 9c 0c cb bd
       0.02237682 -0.099145144
