dheera/checkpoints/dheera_dqn.pt (torch, 73314 bytes, 16 tensors)

net.0.weight f4 [64, 16]
00000000: c073 603e 80a2 a73d 9c91 ebbd d044 05be
00000010: ae88 66be 4689 2c3e e479 f43d 1ca3 0f3e
00000020: aaad 6dbe 4038 263e a06b 3bbc 5814 243d
00000030: 749c d93d fc24 10be 687a b23d d0ec 053d
00000040: 6ab5 13be 5043 91bd fcbc 66be 84b2 7a3e
00000050: 868a 0f3e e0da 81bc 5046 593e c8b1 6fbd
00000060: 8017 7abd 28ec 2e3e 560a 453e 24ec 163e
00000070: 2acc 263e f8aa 05bd 30fb 053e 5002 c23d
00000080: c0d5 99bb 00b4 57bd 388b 8dbd 6033 063e
00000090: f642 603e 4efe 57be 025c 163e 9012 69be
000000a0: d40d 343e d43d 76be b059 223e f08d 453d
000000b0: cc34 1bbe 0020 4dbb 30df a9bc e606 413e
000000c0: ecb6 fd3d 7445 6d3e 1a2a 1dbe c2fc 29be
000000d0: 181e 9fbd a0e2 44be 9ebc 783e b2de 5bbe
000000e0: 40c2 f6bc 1e52 2bbe 50c1 753e 74d4 153e
000000f0: b21f 49be d491 733e e6d3 3ebe 8839 5b3d
00000100: 9cee 403e 9a48 2f3e 6846 35bd d87d 1c3e
00000110: 30e7 613d a487 ab3d 806a d03c 70fd b83c
00000120: a4de ba3d a6b3 033e 081a 723e 8869 f83d
00000130: 00cc ff39 140c 7abe c064 183e 8c28 0bbe
00000140: c2ce 783e 5c1d 0c3e 643b 60be 907b e9bd
00000150: 14fe f93d 56c9 543e fc03 173e f00f 013e
00000160: 902a 03bd e83c d13d 60af 643c c4e7 133e
00000170: a619 143e a0bd 1f3d 0c40 2c3e da47 7ebe
00000180: 7059 d73d 6884 043d b874 53bd 30c5 afbd
00000190: a89d 79be 803a 523d 8c78 873d a80d 1e3e
000001a0: 2c24 76be e84a 1a3d d0cf 863d 0a9f 7f3e
000001b0: f6c8 20be c011 69be c431 b2bd 84ab f23d
000001c0: ace7 b7bd e0a1 743e 2047 263e 1013 24bd
000001d0: 4664 3e3e f038 923c 888d 813d c0c7 5a3c
000001e0: ca89 0b3e 5817 293d 18f2 333e 1a4f 5bbe
000001f0: dc60 8d3d 6c53 f1bd 7610 14be 00c6 0fbe
00000200: 4810 8cbd 80b5 283d cca0 52be d48c 3cbe
00000210: 528c 0abe dcfe 973d 0440 79be 8c5c 00be
00000220: 947b b3bd e654 7dbe 745f 273e e0db 6dbc
00000230: b04b 2b3e dcd0 af3d 90dd 7abe 30b6 f2bd
00000240: 48e4 4e3d 800c 01bc dc83 793e 444e 9dbd
00000250: 0837 38bd 9478 a7bd 3c12 0b3e 40db cc3c
00000260: d8a0 6ebd 70c7 e8bc 6033 8ebc 8019 4f3b
00000270: c840 d73d 90c0 b0bd 385b 78be 7065 bf3d
00000280: 981c 3a3e 642c 74be b6bf 3e3e 6e83 593e
00000290: 9843 fd3d 7cf3 8fbd 5c8a 44be 24cb a73d
000002a0: e02e 34be 609c ccbd a07f 23be 58c5 afbd
000002b0: 664f 1fbe 34ea 673e a0c7 10be ec73 7fbe
000002c0: b09b b0bc 70c4 5b3e 8a1b 4fbe c894 29bd
000002d0: 1855 4abe 8007 e73c 68b2 5fbe b06e c43c
000002e0: 7063 783d b6cf 14be 5039 bdbc 00a0 fdbd
000002f0: 466a 04be 4405 11be 36fb 37be b0f8 823d
00000300: 52ff 72be 90cf 6bbe 2440 e33d 041a 133e
00000310: 1612 4bbe 28b8 18bd 886a 403e a8b7 123d
00000320: ca80 1e3e 08e5 5b3e 24ff 89bd 5ea7 00be
00000330: c0b3 72bd aa41 16be 6ca3 6dbe 30fd 123d
00000340: 80a9 55bb 52ac 543e 6007 8a3c b83c d73d
00000350: 4000 363d 14ab 70be 3886 8e3d 80f2 7c3c
00000360: 38f0 9cbd d22f 16be 606d 043d 8488 34be
00000370: 3c93 593e a068 293d 4a60 753e 2a2e 50be
00000380: 9610 7e3e 2cb8 ac3d 5cb2 9e3d 8cfa abbd
00000390: bc28 163e f80e 6cbe a8ec fe3d 2096 b4bc
000003a0: b46e 9bbd 8c49 253e 947d f43d 5010 dfbc
000003b0: 8c4d 5a3e 647a d2bd 3841 99bd a817 50be
000003c0: ac3a 493e 78f9 04bd b813 b7bd 80a7 e83b
000003d0: 18a2 4cbd b8f7 1d3e da08 7fbe 9886 623e
000003e0: 62e5 43be 608a 6fbe 28f0 6ebe 90e7 e4bd
000003f0: a0fa a83c 20bd d33d 00ee 4cbb d08f 04bd
0.21919155 0.08185291 -0.11502382 -0.13014531 -0.22513077 0.1684924 0.11937311 0.14027065
-0.23210779 0.16232395 -0.011439234 0.040058464 0.10625544 -0.14076608 0.087147534 0.032696545
-0.14424673 -0.07092917 -0.2253303 0.24482161 0.14017686 -0.015851438 0.21218228 -0.058519155
-0.061057568 0.17082274 0.19242224 0.14738518 0.1628882 -0.03263375 0.13084102 0.09473097
-0.0046946704 -0.052661896 -0.069113195 0.13105536 0.21900544 -0.21093103 0.14683536 -0.22760987
0.175834 -0.24047023 0.15854526 0.048231065 -0.15156859 -0.003129959 -0.020736307 0.18850288
0.12388405 0.23171026 -0.15348092 -0.16600326 -0.07769412 -0.19227076 0.24290702 -0.2147167
-0.030121922 -0.16730544 0.23999524 0.14631826 -0.19640997 0.23786098 -0.1863552 0.053521663
0.18841022 0.17117539 -0.044256598 0.1528238 0.05515212 0.08375481 0.025441408 0.022581786
0.091244966 0.12861499 0.23642743 0.121295035 0.00048789382 -0.2441867 0.14882183 -0.13589686
0.24297622 0.13683075 -0.21897656 -0.11400521 0.12206665 0.20779929 0.14747614 0.12603736
-0.032023013 0.10216695 0.013957828 0.1444388 0.14462909 0.0389992 0.16821307 -0.24832097
0.10515106 0.032352835 -0.051624984 -0.085825324 -0.24376547 0.05132532 0.06614789 0.15434897
-0.24037236 0.037669092 0.06582606 0.24963012 -0.1570166 -0.22760677 -0.08700898 0.1184912
-0.08979735 0.23889875 0.1623807 -0.040057242 0.18592939 0.017849416 0.06325823 0.013353288
0.13626781 0.041282028 0.1757282 -0.21416894 0.0690324 -0.117834896 -0.14459404 -0.14040375
-0.06839043 0.041188717 -0.20569152 -0.18413097 -0.1353009 0.074216574 -0.24340826 -0.12535304
-0.08763805 -0.24739417 0.16345006 -0.014517754 0.16728091 0.08584759 -0.24498582 -0.11851156
0.050510675 -0.007876515 0.24366707 -0.076809436 -0.044974357 -0.08177295 0.13581175 0.02500689
-0.05825886 -0.028415412 -0.017358482 0.0031600893 0.10510403 -0.086304784 -0.24253547 0.093455195
0.1817497 -0.23845059 0.1862782 0.21241543 0.12366408 -0.07028863 -0.19193405 0.08193043
-0.17596006 -0.09990764 -0.15966654 -0.08582562 -0.15557632 0.22647935 -0.14138651 -0.24946564
-0.021558613 0.21461654 -0.20225349 -0.041401654 -0.19759023 0.028201818 -0.218454 0.023978561
0.060641706 -0.1453236 -0.023098618 -0.12384033 -0.12931165 -0.14162165 -0.17966923 0.063950896
-0.2373021 -0.23028398 0.11096218 0.14365393 -0.19831118 -0.037285 0.18790638 0.03581968
0.15478817 0.21474087 -0.06738117 -0.12563846 -0.059253454 -0.14673486 -0.23206872 0.03588599
-0.003260225 0.2076886 0.01684922 0.10509628 0.044433832 -0.23502761 0.06959194 0.015438676
-0.076630056 -0.1466668 0.03233087 -0.17630202 0.21247572 0.041359544 0.23962513 -0.2033011
0.24811015 0.084335655 0.07748863 -0.083973974 0.14663976 -0.23052585 0.12447482 -0.022044241
-0.07589474 0.16141337 0.119380146 -0.027229458 0.21318644 -0.102772504 -0.074831426 -0.20321524
0.19651288 -0.032464474 -0.08939308 0.0071000457 -0.049959272 0.15426528 -0.2490572 0.22121656
-0.19130471 -0.2339263 -0.233338 -0.111769795 0.02062732 0.10338807 -0.0031269789 -0.032363713

net.0.bias f4 [64]
00000000: 00a0 103e 80a3 b33b 68d1 5dbd 6034 c5bd
00000010: f692 133e 0c63 633e a8e3 6abd 38dd 603e
00000020: f0eb debc 301c e2bc 9cfa d83d 081e c9bd
00000030: 0071 e2ba e80d 6a3d 9c4f 24be 30bf 1e3e
00000040: 48b7 e9bd 889b b83d bcc2 763e 9646 0a3e
00000050: 700f 743d de7f 33be 5628 043e 2646 083e
00000060: 78fd ddbd 1e92 4d3e 98c5 133d d474 3ebe
00000070: 900c 3fbe a4f3 8ebd e0bc 3ebd ece1 703e
00000080: 4078 7d3c 5096 48be 524a 69be d4b7 65be
00000090: ccac 68be a0c0 1f3e 2000 3bbc 4806 783d
000000a0: 007a 50bb 2c96 40be 205d 573d c847 a7bd
000000b0: 2aad 30be 4cec 09be e44d 743e 76d6 283e
000000c0: 6cb8 a2bd 80de 9dbb 004e 61bc 0ab7 6e3e
000000d0: 60cf 6bbd bebc 5a3e ccb4 d83d 6066 703c
000000e0: 2a21 6ebe e4e3 f33d 1e0d 303e 80c2 30bc
000000f0: 62c1 6dbe 4ca2 15be 2093 033c 087a 2b3d
0.14123535 0.005482137 -0.054154783 -0.0962913 0.1441153 0.22205752 -0.057346016 0.21959388
-0.027212113 -0.027601331 0.10594675 -0.09820181 -0.0017276108 0.05714217 -0.16045994 0.1550262
-0.11411911 0.0901404 0.24097723 0.13503489 0.059585035 -0.17529246 0.12906012 0.1330801
-0.10839361 0.2007527 0.036077112 -0.18599254 -0.18657136 -0.069800645 -0.046566844 0.23523682
0.015470564 -0.1958859 -0.22782257 -0.22433406 -0.22722167 0.15600824 -0.011413604 0.060552865
-0.0031811 -0.18807286 0.052579045 -0.08167988 -0.17253557 -0.13469046 0.23857838 0.1648806
-0.07945332 -0.004817784 -0.013751507 0.23312011 -0.057570815 0.21361062 0.10581359 0.014672846
-0.23254839 0.11908701 0.17192504 -0.01078856 -0.23218301 -0.14612693 0.008030683 0.041864425

net.2.weight f4 [64, 64]
00000000: 461d b03d 443d 08bd 901f b03c 28cf 0bbd
00000010: d8c5 df3c 20bd 38bc 70f3 1cbc 0085 daba
00000020: 1432 d8bd e046 4c3c c8ac c23d c0c4 78bb
00000030: 4038 20bc acbf 0f3d fc41 a6bd 12f2 9bbd
00000040: 22ae c1bd 9c4a 04bd c8ad cbbd 3062 18bc
00000050: 4069 18bb 6290 eb3d 704a 2b3c 5ca8 713d
00000060: a2c7 993d 1253 8b3d 3864 edbc 00e7 eabb
00000070: 38d7 fcbc b40d 52bd c640 c5bd c4e7 57bd
00000080: 2005 68bd b0c9 993d cc0a f03d e651 ed3d
00000090: 20d2 c3bc d82b d3bd 203e b3bb ccb5 ab3d
000000a0: 2035 eebd d606 cf3d 280b 583d a856 cb3d
000000b0: a0b2 28bd 1ada 92bd 3869 3dbd 8648 bb3d
000000c0: c0ef a93b f8b8 b53d c40b 8abd aa8d 86bd
000000d0: be2b c83d 9e05 ddbd d4dc 473d 4c02 763d
000000e0: 0608 ce3d d09b a3bc 4265 c53d 6898 e83d
000000f0: 0aed f73d 78bf a03c 1cd9 a9bd 20fd d73b
00000100: 14bc 3cbd c0a4 593c 8473 d53d 7cba 05bd
00000110: f0e7 28bc 18f3 c93c 560d 8abd b431 de3d
00000120: ae2e 8a3d 1e07 8a3d d4f0 703d 882e b33c
00000130: 183e d5bd 88f5 57bd 12a3 c5bd 20f0 d73d
00000140: 8012 f6bd a8a3 5fbd ca41 c9bd aaa5 f83d
00000150: 24f5 153d 7ad9 9bbd 4637 a7bd 6893 913d
00000160: 1cb1 0c3d f034 26bc 6065 eebc e09f ebbc
00000170: 887b 9cbc a0c5 ea3d a61b 90bd bc22 8fbd
00000180: c063 a4bb 7890 fb3c 424d f0bd 5c05 edbd
00000190: 98ad cfbc 4a7d f6bd ac3d 2cbd e07f 38bd
000001a0: 7830 81bd a459 d8bd 18a7 cd3c 7036 2f3c
000001b0: f4b7 fb3d 2824 af3c c07d 08bb 184c 99bc
000001c0: 6054 f2bc 14f3 a13d 9046 d83d 965f bc3d
000001d0: 569d b5bd d8eb 98bd 7e6e 88bd 94fb 243d
000001e0: 40c7 a4bc 0032 7f3c 7092 933c 0857 debd
000001f0: b81f 70bd 50ba 683c b0fb a7bc e014 ce3d
00000200: ec0f b33d 70b5 d0bc 1ea1 adbd c8d2 febd
00000210: 3c3f a43d 5889 e3bc f081 fa3d 4a4e ebbd
00000220: 76a6 9bbd 4025 9fbd 0004 1639 a430 803d
00000230: d00b d83c 1642 bfbd b83d 8b3c f835 b7bd
00000240: f02e 793d 4ae0 aebd 5479 7c3d 5c5f 19bd
00000250: 5062 453d a017 c1bd 6875 b7bc b08c febd
00000260: 6465 c23d 48de ce3d 10a9 273c 40d8 0dbc
00000270: 1ab0 9b3d 4497 c5bd 3062 4e3d bc76 5a3d
00000280: 646e 42bd 202b 56bd 804b e43d fcea 923d
00000290: ccc1 0f3d 7895 2a3d 74af 5fbd 34c2 b5bd
000002a0: 58a1 d7bc 306d ed3c 4008 65bb 781c 943d
000002b0: be83 d93d 0e8a cd3d e2fa a23d b0dc c03c
000002c0: 34ed b73d 58ff e2bc a417 f0bd 6047 26bc
000002d0: 10c2 ea3d b0f8 f33c a042 f0bb 408d 63bd
000002e0: 4c04 18bd 70bd cfbd 744b 463d 600f e4bc
000002f0: b289 85bd 0232 9cbd 862b c23d 6cd0 d5bd
00000300: c840 f03c 2630 97bd c043 3bbb 1475 17bd
00000310: c068 2f3c 3c49 fc3d 006b 363a a091 4e3d
00000320: 9cbf a53d 1077 05bc 2841 853c a074 a7bc
00000330: 00d7 433d f87e ffbc 2052 b53d 80e5 7ebd
00000340: 0043 3c3b c097 2bbc 44a8 10bd d6a6 d1bd
00000350: b675 e73d 4c28 123d aa23 d23d 2c39 d4bd
00000360: 405f 793b 283e b13c da3f d23d 3014 323c
00000370: 52ce 80bd b0a2 0abd 440c 57bd d8c8 b63d
00000380: c061 d2bd 74d6 58bd 1225 b03d 98a4 13bd
00000390: c6f4 dabd 74db cdbd 56e7 bf3d a647 c73d
000003a0: 3c05 843d f012 433c 8219 df3d 5495 56bd
000003b0: e03b ce3c f074 03bc 24c5 88bd 80ff deba
000003c0: ac87 bfbd 8063 3a3d 085c 78bd c8b2 f63d
000003d0: 348c 4e3d 58e7 44bd dcc9 f3bd 5ed6 f0bd
000003e0: 0031 d8ba 0675 b0bd c8df 98bd 58ae e4bd
000003f0: c87f 60bd 5457 6f3d f0c6 37bd 0087 c93c
0.085993335 -0.033261552 0.021499425 -0.034133106 0.027316019 -0.01127556 -0.009579524 -0.0016671717
-0.10556427 0.01246807 0.09505612 -0.003795907 -0.009779036 0.035094902 -0.08118054 -0.076145306
-0.09457041 -0.032297716 -0.099452555 -0.0093007535 -0.0023256093 0.11502148 0.010454759 0.05899845
0.0750878 0.06802954 -0.028978452 -0.0071686506 -0.030864343 -0.0512826 -0.09631495 -0.052711263
-0.056645513 0.07509172 0.11720809 0.115878865 -0.023903906 -0.10311097 -0.0054700524 0.083842844
-0.116312265 0.10108726 0.052745014 0.09928638 -0.041185975 -0.07170506 -0.046242923 0.09144692
0.005186051 0.088731706 -0.06740525 -0.06569989 0.09773968 -0.10792087 0.048794582 0.060060784
0.10060124 -0.019971758 0.09638454 0.11357194 0.121057585 0.01962255 -0.082933635 0.006591454
-0.046077803 0.013283908 0.104224235 -0.03264855 -0.010309204 0.024652049 -0.06740825 0.10849324
0.06747185 0.06739639 0.05882342 0.021872774 -0.10412234 -0.05272439 -0.09650244 0.10543847
-0.12015247 -0.054599434 -0.098270014 0.12140973 0.036610737 -0.0760984 -0.081648394 0.07108194
0.034348592 -0.010144457 -0.029101074 -0.028762758 -0.019101873 0.11463475 -0.070365235 -0.06989047
-0.005016774 0.030708537 -0.11733486 -0.11573288 -0.02535133 -0.12035616 -0.042051002 -0.045043826
-0.06308073 -0.105639726 0.02510409 0.010694131 0.12290946 0.021379545 -0.0020826906 -0.018713042
-0.029581249 0.079076916 0.10560334 0.09197919 -0.088679 -0.074668586 -0.066617 0.040278986
-0.020114541 0.015575886 0.018014163 -0.10856444 -0.058624 0.014204577 -0.020505756 0.10062575
0.08743271 -0.025477141 -0.08477996 -0.12442547 0.080198735 -0.027775452 0.12231815 -0.11489542
-0.07600109 -0.07770777 0.00014306605 0.062592775 0.02637282 -0.09338777 0.016997203 -0.089458406
0.06083578 -0.085388735 0.061639145 -0.037444457 0.04818946 -0.09428334 -0.02239485 -0.12429178
0.09491995 0.101009905 0.010233179 -0.008657515 0.07601948 -0.09647992 0.050386608 0.05333589
-0.047468558 -0.05228722 0.11147213 0.07173726 0.03509693 0.04164645 -0.054610685 -0.08874932
-0.026322052 0.028982729 -0.0034947544 0.072319925 0.10620831 0.100360975 0.07958008 0.023542732
0.0898079 -0.027709648 -0.11723259 -0.010148853 0.11462796 0.02978167 -0.007332161 -0.05555463
-0.037113473 -0.10143554 0.0484118 -0.027839363 -0.06520404 -0.07626726 0.09480958 -0.10440144
0.029327765 -0.073822305 -0.0028574318 -0.03697689 0.010706127 0.12318656 0.0006958693 0.050431848
0.08093187 -0.0081460625 0.01626642 -0.020441353 0.04781246 -0.031188473 0.08853555 -0.062230587
0.0028726459 -0.010473192 -0.03531672 -0.102368996 0.113017485 0.03568296 0.10260709 -0.10362467
0.0038051158 0.021636084 0.10266085 0.010869071 -0.062893525 -0.033846557 -0.05250193 0.08925027
-0.102725506 -0.052938893 0.086008206 -0.03604564 -0.10691218 -0.10051623 0.09370296 0.09730463
0.06446311 0.0119063705 0.10893537 -0.052388504 0.025175035 -0.008023486 -0.066782266 -0.0017013401
-0.09352049 0.045505047 -0.060634643 0.120458186 0.050426677 -0.04807219 -0.11903736 -0.11759637
-0.0016494095 -0.086160704 -0.07464558 -0.11166066 -0.05480936 0.058432892 -0.044867456 0.024600506

net.2.bias f4 [64]
00000000: a041 cb3c 9483 bd3d fafc a03d 485c 01bd
00000010: 7096 e43d f86c b4bd d8aa 66bd 284c f83d
00000020: b0da e03d 6efc f23d 8682 f13d 00c7 b7ba
00000030: 1027 d03c 7e57 98bd 4435 743d 86c8 ccbd
00000040: 682e 4d3d 847f 36bd 2032 eebd a821 d93d
00000050: 0034 2fbd a053 4e3c 9423 813d 2860 72bd
00000060: 2287 993d 6cf4 22bd 003a 553d 84b5 51bd
00000070: e084 76bd 0cc4 633d 9ca4 8e3d 941c e4bd
00000080: c0dc f1bc 969f 81bd 90b7 f13c 4034 0d3b
00000090: d858 18bd e044 8b3c e8c7 56bd 0017 c93c
000000a0: f051 a73d e2a2 99bd b240 d23d 807e 91ba
000000b0: 70b6 ccbd 90b3 163d 7854 49bd 70f5 22bd
000000c0: 68fe 72bd b802 f93d ca82 c93d 7808 65bd
000000d0: b800 51bd d425 a53d 80b0 59bb 1e7e d53d
000000e0: e0c9 e0bc 7c3c 4e3d acad 60bd b0ab f73c
000000f0: a079 59bc 64f4 83bd 0408 c4bd a4e1 bc3d
0.024811566 0.09253612 0.078607515 -0.031582147 0.11161506 -0.08809847 -0.056315273 0.12123901
0.10979211 0.118645534 0.117924735 -0.0014021099 0.025409251 -0.07438563 0.05962111 -0.09999184
0.050093085 -0.044555202 -0.11630654 0.106021225 -0.0427742 0.01259318 0.06305614 -0.059173733
0.07496478 -0.03978388 0.052057266 -0.051198497 -0.060185313 0.055606887 0.069649905 -0.11138263
-0.029524207 -0.06329267 0.029506475 0.0021546036 -0.037194103 0.017000616 -0.05243674 0.0245471
0.08169925 -0.075017706 0.10266246 -0.0011100322 -0.09995735 0.036792338 -0.04915282 -0.03978485
-0.059324652 0.12158722 0.09839399 -0.05591628 -0.051026076 0.08063856 -0.0033216774 0.104244456
-0.027440012 0.05035065 -0.054853126 0.030233234 -0.013273627 -0.06443098 -0.09571841 0.09222725

net.4.weight f4 [7, 64]
00000000: 8062 c0bb 78b0 7cbd b8e6 8f3d d823 543d
00000010: 50cd 46bc e67b 913d e833 5ebd 201e 57bc
00000020: ca8a 9ebd e8fc e3bc f800 d6bc 70d1 b83d
00000030: 18c8 6b3d b0a6 d6bc 2a24 a2bd d812 37bd
00000040: 249b 773d 40d6 10bd 5c61 fcbd c022 2abd
00000050: e850 5abd b0af 0fbc 3cce 8fbd 1617 99bd
00000060: 6873 97bd 3c42 62bd c411 52bd 6869 fbbc
00000070: 3802 b33c 8079 f7bc b657 94bd 92a9 d1bd
00000080: 122b f93d f882 ffbd c853 b93c 6806 233d
00000090: f81d 7a3d a02b 24bd 00c4 74b9 481f 8fbd
000000a0: 52c3 e8bd 8c94 373d 06c5 d3bd c0a9 fa3b
000000b0: 162f bfbd 88fa e43c c0f0 7fbb f616 ec3d
000000c0: fac9 fb3d b04e 893d 2082 cc3c 90fe b5bd
000000d0: cca1 0bbd b8c1 d6bd a2dd b5bd 6825 b33c
000000e0: 766a d93d d055 363c 7e74 ad3d 5068 2ebc
000000f0: d002 72bc f4eb 4a3d 60b4 a4bc 64b6 1f3d
00000100: 96c9 803d f817 ab3d 5c7f 2e3d 6071 5a3d
00000110: 385b f9bd b6e8 89bd 3c8c 8a3d b8af 0fbd
00000120: 5c48 28bd 7625 d6bd 16c5 b33d 40b9 b6bb
00000130: e039 a73b d821 d7bd ac8d 9d3d f053 673d
00000140: 507b d13d d8fd df3d 0628 b0bd a64a 96bd
00000150: 4028 5c3d 1416 75bd 30c3 5d3d 7489 35bd
00000160: 9496 9a3d e018 ddbb 34d6 923d 60fe ddbd
00000170: 3ca1 3b3d 7ca7 603d 58aa e83c c677 ec3d
00000180: 108b 503c 5c11 80bd 64a7 0cbd 1025 8d3d
00000190: 102e dbbc fccd 393d 6c00 99bd 646f 78bd
000001a0: 7ae5 f53d 185c b7bc b0c3 573c c047 09bd
000001b0: 5c8a a93d b058 31bd 2e1e e13d b4a8 e0bd
000001c0: 6c5c 97bd a4f9 d03d 84ed 52bd d435 3e3d
000001d0: cae4 aabd e6ed 883d 26be 89bd 4096 acbd
000001e0: e291 af3d 50e3 dfbd 641a a13d 2acf d9bd
000001f0: d09e 9f3d 4056 cebc 18c6 693d 7c05 723d
00000200: 7e33 9e3d 4073 d1bd 8cd2 69bd d8d1 ca3d
00000210: 1a0f 8f3d 8842 83bd 9070 143c ec97 a0bd
00000220: 60b3 ab3b 3247 c33d 864a 8d3d 84d7 b43d
00000230: a4a5 863d 8eba b13d f001 2cbd 7ef0 c83d
00000240: 841a 7b3d 2cd3 e8bd 5422 1ebd 8085 203b
00000250: a0c4 a93d c0f0 3b3d e652 8c3d e458 b83d
00000260: 28fc 42bd bc6a 573d ecb8 be3d 72fe 8bbd
00000270: 04a2 753d aec5 d5bd e024 b73d f00b 63bd
00000280: f8c4 88bc 10fe e13d 3c4d 8abd 46fc e9bd
00000290: e067 b4bc 9408 09bd c00f d43b 60df a1bc
000002a0: 36bc c5bd d220 c8bd c433 85bd a051 a63c
000002b0: 984e d63d d835 503d 9072 993c 3864 dcbc
000002c0: 14ae c9bd f058 5f3d 4000 96bb 88e5 fcbd
000002d0: 0299 fbbd 542d 1f3d d01f 87bd 36cd f4bd
000002e0: b8f5 343d a6b0 9d3d e0fb fd3d 7406 d5bd
000002f0: f01c 3fbc 0801 8f3c c05e 3c3b c0b6 fdbd
00000300: f000 cd3c a44b c5bd 1cba 673d 189d 023d
00000310: 007d fabb 38e7 ef3d 901a ab3d fcd4 abbd
00000320: a839 3a3d 2482 7c3d 0024 f73c d0b6 fdbd
00000330: 1888 ecbc 4af0 ce3d a0a5 0cbc 5e6f fc3d
00000340: 401f 323c 0e2d 8cbd 4073 58bd fa58 b93d
00000350: 6a39 8f3d f08d 173d 640e 963d 0cbb 3bbd
00000360: 0487 863d 38ba e4bd da8f afbd 94b6 743d
00000370: 44b8 ddbd 50e2 8dbc a8b2 b03d f486 63bd
00000380: f43b f5bd c037 733c e006 f5bb 3830 77bd
00000390: 1431 013d 18b2 543d 3cf4 a13d 787a c5bd
000003a0: e81b a6bd 68a5 ee3d 10d9 03bd 0025 ccbc
000003b0: d043 dbbc d8d5 5ebd 9816 c93c 509f 90bc
000003c0: eaf5 e13d c839 62bd 1026 613d f4b4 22bd
000003d0: 6021 72bc 6072 88bb 409e 0e3d 3cf7 48bd
000003e0: 4049 b8bc 343d d7bd 98fc 443d d293 973d
000003f0: ecd3 c43d 9a7a efbd a48f d7bd 7ae7 a7bd
-0.005871117 -0.06169173 0.07026428 0.051791996 -0.012133911 0.0710371 -0.05424872 -0.013129741
-0.07741316 -0.027830556 -0.026123509 0.09024322 0.05756387 -0.02620253 -0.07917054 -0.044695705
0.060450688 -0.035360575 -0.12323257 -0.041537046 -0.053299814 -0.0087699145 -0.07021758 -0.074751064
-0.07395059 -0.055238947 -0.051286474 -0.03068991 0.021851644 -0.030209303 -0.07243292 -0.10237421
0.12166418 -0.12476152 0.022622958 0.03980103 0.061063737 -0.040080667 -0.00023342669 -0.06988388
-0.113653794 0.0448194 -0.103403136 0.0076496303 -0.09335153 0.027951494 -0.003905341 0.11527817
0.12294383 0.067044616 0.024964392 -0.088864446 -0.03408985 -0.10486168 -0.08880164 0.021868423
0.10616009 0.011128858 0.08469485 -0.010644987 -0.014771178 0.04954143 -0.02010554 0.0389923
0.062884495 0.08354181 0.042601928 0.05333078 -0.12175602 -0.06733839 0.06765029 -0.035079688
-0.041084632 -0.10456364 0.087778255 -0.0055762827 0.005103335 -0.10504502 0.076930374 0.056476533
0.10228598 0.10937089 -0.08601384 -0.07338457 0.053749323 -0.05983551 0.054141223 -0.04432054
0.07548252 -0.00674735 0.07169762 -0.10839534 0.045808062 0.054847226 0.028401539 0.115462825
0.012728468 -0.06253311 -0.034339324 0.06891835 -0.026755363 0.045362458 -0.074707836 -0.060653105
0.1200666 -0.02238278 0.013169214 -0.03351569 0.08278343 -0.04329747 0.109920844 -0.109696776
-0.07390675 0.10203865 -0.051496044 0.046438053 -0.08344419 0.066860005 -0.06725721 -0.084270954
0.08572747 -0.10932028 0.07866362 -0.106352165 0.07793963 -0.025187612 0.057073683 0.05908726
0.07724665 -0.1022706 -0.05708556 0.09903306 0.06985302 -0.06409174 0.00906004 -0.07841477
0.005239889 0.09535064 0.0689898 0.08830169 0.06574562 0.086781606 -0.041994035 0.09811495
0.061304584 -0.11368403 -0.038606957 0.0024493635 0.08289456 0.045883894 0.06851749 0.090013295
-0.047603756 0.052592024 0.09312615 -0.06835641 0.059968963 -0.10438095 0.0894258 -0.055431306
-0.016695485 0.11034787 -0.067530125 -0.114250705 -0.022022188 -0.033455446 0.006471604 -0.019759834
-0.09655039 -0.09771885 -0.06504014 0.020302594 0.10464209 0.0508326 0.018731385 -0.026903257
-0.09847656 0.054528177 -0.0045776665 -0.12348467 -0.12285043 0.038861588 -0.06597865 -0.119532034
0.04417965 0.07699709 0.12401557 -0.104016215 -0.011664614 0.017456546 0.0028743 -0.123883724
0.025024861 -0.09633568 0.056573972 0.031888098 -0.0076442957 0.11714023 0.08354676 -0.08390233
0.04546514 0.06164755 0.030168533 -0.12388384 -0.028873488 0.10104425 -0.00858441 0.12325929
0.010871708 -0.06844531 -0.052844286 0.09050174 0.06993373 0.037000597 0.073269635 -0.04583268
0.06568721 -0.11168331 -0.085723594 0.059744433 -0.108261615 -0.017319828 0.08627826 -0.055548623
-0.11974326 0.014844835 -0.007477626 -0.06034872 0.031540945 0.051927656 0.07907912 -0.096425
-0.081107914 0.116526425 -0.03218943 -0.024919987 -0.026765734 -0.054403156 0.024546906 -0.017654091
0.110332325 -0.055230886 0.05496794 -0.03972335 -0.014778465 -0.004164025 0.034818888 -0.049063906
-0.022495866 -0.105097204 0.048092455 0.07401241 0.096107334 -0.11693306 -0.10525444 -0.081984475

net.4.bias f4 [7]
00000000: 4465 6a3d c4bf de3d 8013 4bbc 9089 55bd
00000010: 7673 b43d 74b8 4cbd c000 e9bc
0.05722548 0.1087642 -0.012394786 -0.052133143 0.08811085 -0.049980596 -0.02844274

net.0.weight f4 [64, 16]
00000000: c073 603e 80a2 a73d 9c91 ebbd d044 05be
00000010: ae88 66be 4689 2c3e e479 f43d 1ca3 0f3e
00000020: aaad 6dbe 4038 263e a06b 3bbc 5814 243d
00000030: 749c d93d fc24 10be 687a b23d d0ec 053d
00000040: 6ab5 13be 5043 91bd fcbc 66be 84b2 7a3e
00000050: 868a 0f3e e0da 81bc 5046 593e c8b1 6fbd
00000060: 8017 7abd 28ec 2e3e 560a 453e 24ec 163e
00000070: 2acc 263e f8aa 05bd 30fb 053e 5002 c23d
00000080: c0d5 99bb 00b4 57bd 388b 8dbd 6033 063e
00000090: f642 603e 4efe 57be 025c 163e 9012 69be
000000a0: d40d 343e d43d 76be b059 223e f08d 453d
000000b0: cc34 1bbe 0020 4dbb 30df a9bc e606 413e
000000c0: ecb6 fd3d 7445 6d3e 1a2a 1dbe c2fc 29be
000000d0: 181e 9fbd a0e2 44be 9ebc 783e b2de 5bbe
000000e0: 40c2 f6bc 1e52 2bbe 50c1 753e 74d4 153e
000000f0: b21f 49be d491 733e e6d3 3ebe 8839 5b3d
00000100: 9cee 403e 9a48 2f3e 6846 35bd d87d 1c3e
00000110: 30e7 613d a487 ab3d 806a d03c 70fd b83c
00000120: a4de ba3d a6b3 033e 081a 723e 8869 f83d
00000130: 00cc ff39 140c 7abe c064 183e 8c28 0bbe
00000140: c2ce 783e 5c1d 0c3e 643b 60be 907b e9bd
00000150: 14fe f93d 56c9 543e fc03 173e f00f 013e
00000160: 902a 03bd e83c d13d 60af 643c c4e7 133e
00000170: a619 143e a0bd 1f3d 0c40 2c3e da47 7ebe
00000180: 7059 d73d 6884 043d b874 53bd 30c5 afbd
00000190: a89d 79be 803a 523d 8c78 873d a80d 1e3e
000001a0: 2c24 76be e84a 1a3d d0cf 863d 0a9f 7f3e
000001b0: f6c8 20be c011 69be c431 b2bd 84ab f23d
000001c0: ace7 b7bd e0a1 743e 2047 263e 1013 24bd
000001d0: 4664 3e3e f038 923c 888d 813d c0c7 5a3c
000001e0: ca89 0b3e 5817 293d 18f2 333e 1a4f 5bbe
000001f0: dc60 8d3d 6c53 f1bd 7610 14be 00c6 0fbe
00000200: 4810 8cbd 80b5 283d cca0 52be d48c 3cbe
00000210: 528c 0abe dcfe 973d 0440 79be 8c5c 00be
00000220: 947b b3bd e654 7dbe 745f 273e e0db 6dbc
00000230: b04b 2b3e dcd0 af3d 90dd 7abe 30b6 f2bd
00000240: 48e4 4e3d 800c 01bc dc83 793e 444e 9dbd
00000250: 0837 38bd 9478 a7bd 3c12 0b3e 40db cc3c
00000260: d8a0 6ebd 70c7 e8bc 6033 8ebc 8019 4f3b
00000270: c840 d73d 90c0 b0bd 385b 78be 7065 bf3d
00000280: 981c 3a3e 642c 74be b6bf 3e3e 6e83 593e
00000290: 9843 fd3d 7cf3 8fbd 5c8a 44be 24cb a73d
000002a0: e02e 34be 609c ccbd a07f 23be 58c5 afbd
000002b0: 664f 1fbe 34ea 673e a0c7 10be ec73 7fbe
000002c0: b09b b0bc 70c4 5b3e 8a1b 4fbe c894 29bd
000002d0: 1855 4abe 8007 e73c 68b2 5fbe b06e c43c
000002e0: 7063 783d b6cf 14be 5039 bdbc 00a0 fdbd
000002f0: 466a 04be 4405 11be 36fb 37be b0f8 823d
00000300: 52ff 72be 90cf 6bbe 2440 e33d 041a 133e
00000310: 1612 4bbe 28b8 18bd 886a 403e a8b7 123d
00000320: ca80 1e3e 08e5 5b3e 24ff 89bd 5ea7 00be
00000330: c0b3 72bd aa41 16be 6ca3 6dbe 30fd 123d
00000340: 80a9 55bb 52ac 543e 6007 8a3c b83c d73d
00000350: 4000 363d 14ab 70be 3886 8e3d 80f2 7c3c
00000360: 38f0 9cbd d22f 16be 606d 043d 8488 34be
00000370: 3c93 593e a068 293d 4a60 753e 2a2e 50be
00000380: 9610 7e3e 2cb8 ac3d 5cb2 9e3d 8cfa abbd
00000390: bc28 163e f80e 6cbe a8ec fe3d 2096 b4bc
000003a0: b46e 9bbd 8c49 253e 947d f43d 5010 dfbc
000003b0: 8c4d 5a3e 647a d2bd 3841 99bd a817 50be
000003c0: ac3a 493e 78f9 04bd b813 b7bd 80a7 e83b
000003d0: 18a2 4cbd b8f7 1d3e da08 7fbe 9886 623e
000003e0: 62e5 43be 608a 6fbe 28f0 6ebe 90e7 e4bd
000003f0: a0fa a83c 20bd d33d 00ee 4cbb d08f 04bd
0.21919155 0.08185291 -0.11502382 -0.13014531 -0.22513077 0.1684924 0.11937311 0.14027065
-0.23210779 0.16232395 -0.011439234 0.040058464 0.10625544 -0.14076608 0.087147534 0.032696545
-0.14424673 -0.07092917 -0.2253303 0.24482161 0.14017686 -0.015851438 0.21218228 -0.058519155
-0.061057568 0.17082274 0.19242224 0.14738518 0.1628882 -0.03263375 0.13084102 0.09473097
-0.0046946704 -0.052661896 -0.069113195 0.13105536 0.21900544 -0.21093103 0.14683536 -0.22760987
0.175834 -0.24047023 0.15854526 0.048231065 -0.15156859 -0.003129959 -0.020736307 0.18850288
0.12388405 0.23171026 -0.15348092 -0.16600326 -0.07769412 -0.19227076 0.24290702 -0.2147167
-0.030121922 -0.16730544 0.23999524 0.14631826 -0.19640997 0.23786098 -0.1863552 0.053521663
0.18841022 0.17117539 -0.044256598 0.1528238 0.05515212 0.08375481 0.025441408 0.022581786
0.091244966 0.12861499 0.23642743 0.121295035 0.00048789382 -0.2441867 0.14882183 -0.13589686
0.24297622 0.13683075 -0.21897656 -0.11400521 0.12206665 0.20779929 0.14747614 0.12603736
-0.032023013 0.10216695 0.013957828 0.1444388 0.14462909 0.0389992 0.16821307 -0.24832097
0.10515106 0.032352835 -0.051624984 -0.085825324 -0.24376547 0.05132532 0.06614789 0.15434897
-0.24037236 0.037669092 0.06582606 0.24963012 -0.1570166 -0.22760677 -0.08700898 0.1184912
-0.08979735 0.23889875 0.1623807 -0.040057242 0.18592939 0.017849416 0.06325823 0.013353288
0.13626781 0.041282028 0.1757282 -0.21416894 0.0690324 -0.117834896 -0.14459404 -0.14040375
-0.06839043 0.041188717 -0.20569152 -0.18413097 -0.1353009 0.074216574 -0.24340826 -0.12535304
-0.08763805 -0.24739417 0.16345006 -0.014517754 0.16728091 0.08584759 -0.24498582 -0.11851156
0.050510675 -0.007876515 0.24366707 -0.076809436 -0.044974357 -0.08177295 0.13581175 0.02500689
-0.05825886 -0.028415412 -0.017358482 0.0031600893 0.10510403 -0.086304784 -0.24253547 0.093455195
0.1817497 -0.23845059 0.1862782 0.21241543 0.12366408 -0.07028863 -0.19193405 0.08193043
-0.17596006 -0.09990764 -0.15966654 -0.08582562 -0.15557632 0.22647935 -0.14138651 -0.24946564
-0.021558613 0.21461654 -0.20225349 -0.041401654 -0.19759023 0.028201818 -0.218454 0.023978561
0.060641706 -0.1453236 -0.023098618 -0.12384033 -0.12931165 -0.14162165 -0.17966923 0.063950896
-0.2373021 -0.23028398 0.11096218 0.14365393 -0.19831118 -0.037285 0.18790638 0.03581968
0.15478817 0.21474087 -0.06738117 -0.12563846 -0.059253454 -0.14673486 -0.23206872 0.03588599
-0.003260225 0.2076886 0.01684922 0.10509628 0.044433832 -0.23502761 0.06959194 0.015438676
-0.076630056 -0.1466668 0.03233087 -0.17630202 0.21247572 0.041359544 0.23962513 -0.2033011
0.24811015 0.084335655 0.07748863 -0.083973974 0.14663976 -0.23052585 0.12447482 -0.022044241
-0.07589474 0.16141337 0.119380146 -0.027229458 0.21318644 -0.102772504 -0.074831426 -0.20321524
0.19651288 -0.032464474 -0.08939308 0.0071000457 -0.049959272 0.15426528 -0.2490572 0.22121656
-0.19130471 -0.2339263 -0.233338 -0.111769795 0.02062732 0.10338807 -0.0031269789 -0.032363713

net.0.bias f4 [64]
00000000: 00a0 103e 80a3 b33b 68d1 5dbd 6034 c5bd
00000010: f692 133e 0c63 633e a8e3 6abd 38dd 603e
00000020: f0eb debc 301c e2bc 9cfa d83d 081e c9bd
00000030: 0071 e2ba e80d 6a3d 9c4f 24be 30bf 1e3e
00000040: 48b7 e9bd 889b b83d bcc2 763e 9646 0a3e
00000050: 700f 743d de7f 33be 5628 043e 2646 083e
00000060: 78fd ddbd 1e92 4d3e 98c5 133d d474 3ebe
00000070: 900c 3fbe a4f3 8ebd e0bc 3ebd ece1 703e
00000080: 4078 7d3c 5096 48be 524a 69be d4b7 65be
00000090: ccac 68be a0c0 1f3e 2000 3bbc 4806 783d
000000a0: 007a 50bb 2c96 40be 205d 573d c847 a7bd
000000b0: 2aad 30be 4cec 09be e44d 743e 76d6 283e
000000c0: 6cb8 a2bd 80de 9dbb 004e 61bc 0ab7 6e3e
000000d0: 60cf 6bbd bebc 5a3e ccb4 d83d 6066 703c
000000e0: 2a21 6ebe e4e3 f33d 1e0d 303e 80c2 30bc
000000f0: 62c1 6dbe 4ca2 15be 2093 033c 087a 2b3d
0.14123535 0.005482137 -0.054154783 -0.0962913 0.1441153 0.22205752 -0.057346016 0.21959388
-0.027212113 -0.027601331 0.10594675 -0.09820181 -0.0017276108 0.05714217 -0.16045994 0.1550262
-0.11411911 0.0901404 0.24097723 0.13503489 0.059585035 -0.17529246 0.12906012 0.1330801
-0.10839361 0.2007527 0.036077112 -0.18599254 -0.18657136 -0.069800645 -0.046566844 0.23523682
0.015470564 -0.1958859 -0.22782257 -0.22433406 -0.22722167 0.15600824 -0.011413604 0.060552865
-0.0031811 -0.18807286 0.052579045 -0.08167988 -0.17253557 -0.13469046 0.23857838 0.1648806
-0.07945332 -0.004817784 -0.013751507 0.23312011 -0.057570815 0.21361062 0.10581359 0.014672846
-0.23254839 0.11908701 0.17192504 -0.01078856 -0.23218301 -0.14612693 0.008030683 0.041864425

net.2.weight f4 [64, 64]
00000000: 461d b03d 443d 08bd 901f b03c 28cf 0bbd
00000010: d8c5 df3c 20bd 38bc 70f3 1cbc 0085 daba
00000020: 1432 d8bd e046 4c3c c8ac c23d c0c4 78bb
00000030: 4038 20bc acbf 0f3d fc41 a6bd 12f2 9bbd
00000040: 22ae c1bd 9c4a 04bd c8ad cbbd 3062 18bc
00000050: 4069 18bb 6290 eb3d 704a 2b3c 5ca8 713d
00000060: a2c7 993d 1253 8b3d 3864 edbc 00e7 eabb
00000070: 38d7 fcbc b40d 52bd c640 c5bd c4e7 57bd
00000080: 2005 68bd b0c9 993d cc0a f03d e651 ed3d
00000090: 20d2 c3bc d82b d3bd 203e b3bb ccb5 ab3d
000000a0: 2035 eebd d606 cf3d 280b 583d a856 cb3d
000000b0: a0b2 28bd 1ada 92bd 3869 3dbd 8648 bb3d
000000c0: c0ef a93b f8b8 b53d c40b 8abd aa8d 86bd
000000d0: be2b c83d 9e05 ddbd d4dc 473d 4c02 763d
000000e0: 0608 ce3d d09b a3bc 4265 c53d 6898 e83d
000000f0: 0aed f73d 78bf a03c 1cd9 a9bd 20fd d73b
00000100: 14bc 3cbd c0a4 593c 8473 d53d 7cba 05bd
00000110: f0e7 28bc 18f3 c93c 560d 8abd b431 de3d
00000120: ae2e 8a3d 1e07 8a3d d4f0 703d 882e b33c
00000130: 183e d5bd 88f5 57bd 12a3 c5bd 20f0 d73d
00000140: 8012 f6bd a8a3 5fbd ca41 c9bd aaa5 f83d
00000150: 24f5 153d 7ad9 9bbd 4637 a7bd 6893 913d
00000160: 1cb1 0c3d f034 26bc 6065 eebc e09f ebbc
00000170: 887b 9cbc a0c5 ea3d a61b 90bd bc22 8fbd
00000180: c063 a4bb 7890 fb3c 424d f0bd 5c05 edbd
00000190: 98ad cfbc 4a7d f6bd ac3d 2cbd e07f 38bd
000001a0: 7830 81bd a459 d8bd 18a7 cd3c 7036 2f3c
000001b0: f4b7 fb3d 2824 af3c c07d 08bb 184c 99bc
000001c0: 6054 f2bc 14f3 a13d 9046 d83d 965f bc3d
000001d0: 569d b5bd d8eb 98bd 7e6e 88bd 94fb 243d
000001e0: 40c7 a4bc 0032 7f3c 7092 933c 0857 debd
000001f0: b81f 70bd 50ba 683c b0fb a7bc e014 ce3d
00000200: ec0f b33d 70b5 d0bc 1ea1 adbd c8d2 febd
00000210: 3c3f a43d 5889 e3bc f081 fa3d 4a4e ebbd
00000220: 76a6 9bbd 4025 9fbd 0004 1639 a430 803d
00000230: d00b d83c 1642 bfbd b83d 8b3c f835 b7bd
00000240: f02e 793d 4ae0 aebd 5479 7c3d 5c5f 19bd
00000250: 5062 453d a017 c1bd 6875 b7bc b08c febd
00000260: 6465 c23d 48de ce3d 10a9 273c 40d8 0dbc
00000270: 1ab0 9b3d 4497 c5bd 3062 4e3d bc76 5a3d
00000280: 646e 42bd 202b 56bd 804b e43d fcea 923d
00000290: ccc1 0f3d 7895 2a3d 74af 5fbd 34c2 b5bd
000002a0: 58a1 d7bc 306d ed3c 4008 65bb 781c 943d
000002b0: be83 d93d 0e8a cd3d e2fa a23d b0dc c03c
000002c0: 34ed b73d 58ff e2bc a417 f0bd 6047 26bc
000002d0: 10c2 ea3d b0f8 f33c a042 f0bb 408d 63bd
000002e0: 4c04 18bd 70bd cfbd 744b 463d 600f e4bc
000002f0: b289 85bd 0232 9cbd 862b c23d 6cd0 d5bd
00000300: c840 f03c 2630 97bd c043 3bbb 1475 17bd
00000310: c068 2f3c 3c49 fc3d 006b 363a a091 4e3d
00000320: 9cbf a53d 1077 05bc 2841 853c a074 a7bc
00000330: 00d7 433d f87e ffbc 2052 b53d 80e5 7ebd
00000340: 0043 3c3b c097 2bbc 44a8 10bd d6a6 d1bd
00000350: b675 e73d 4c28 123d aa23 d23d 2c39 d4bd
00000360: 405f 793b 283e b13c da3f d23d 3014 323c
00000370: 52ce 80bd b0a2 0abd 440c 57bd d8c8 b63d
00000380: c061 d2bd 74d6 58bd 1225 b03d 98a4 13bd
00000390: c6f4 dabd 74db cdbd 56e7 bf3d a647 c73d
000003a0: 3c05 843d f012 433c 8219 df3d 5495 56bd
000003b0: e03b ce3c f074 03bc 24c5 88bd 80ff deba
000003c0: ac87 bfbd 8063 3a3d 085c 78bd c8b2 f63d
000003d0: 348c 4e3d 58e7 44bd dcc9 f3bd 5ed6 f0bd
000003e0: 0031 d8ba 0675 b0bd c8df 98bd 58ae e4bd
000003f0: c87f 60bd 5457 6f3d f0c6 37bd 0087 c93c
0.085993335 -0.033261552 0.021499425 -0.034133106 0.027316019 -0.01127556 -0.009579524 -0.0016671717
-0.10556427 0.01246807 0.09505612 -0.003795907 -0.009779036 0.035094902 -0.08118054 -0.076145306
-0.09457041 -0.032297716 -0.099452555 -0.0093007535 -0.0023256093 0.11502148 0.010454759 0.05899845
0.0750878 0.06802954 -0.028978452 -0.0071686506 -0.030864343 -0.0512826 -0.09631495 -0.052711263
-0.056645513 0.07509172 0.11720809 0.115878865 -0.023903906 -0.10311097 -0.0054700524 0.083842844
-0.116312265 0.10108726 0.052745014 0.09928638 -0.041185975 -0.07170506 -0.046242923 0.09144692
0.005186051 0.088731706 -0.06740525 -0.06569989 0.09773968 -0.10792087 0.048794582 0.060060784
0.10060124 -0.019971758 0.09638454 0.11357194 0.121057585 0.01962255 -0.082933635 0.006591454
-0.046077803 0.013283908 0.104224235 -0.03264855 -0.010309204 0.024652049 -0.06740825 0.10849324
0.06747185 0.06739639 0.05882342 0.021872774 -0.10412234 -0.05272439 -0.09650244 0.10543847
-0.12015247 -0.054599434 -0.098270014 0.12140973 0.036610737 -0.0760984 -0.081648394 0.07108194
0.034348592 -0.010144457 -0.029101074 -0.028762758 -0.019101873 0.11463475 -0.070365235 -0.06989047
-0.005016774 0.030708537 -0.11733486 -0.11573288 -0.02535133 -0.12035616 -0.042051002 -0.045043826
-0.06308073 -0.105639726 0.02510409 0.010694131 0.12290946 0.021379545 -0.0020826906 -0.018713042
-0.029581249 0.079076916 0.10560334 0.09197919 -0.088679 -0.074668586 -0.066617 0.040278986
-0.020114541 0.015575886 0.018014163 -0.10856444 -0.058624 0.014204577 -0.020505756 0.10062575
0.08743271 -0.025477141 -0.08477996 -0.12442547 0.080198735 -0.027775452 0.12231815 -0.11489542
-0.07600109 -0.07770777 0.00014306605 0.062592775 0.02637282 -0.09338777 0.016997203 -0.089458406
0.06083578 -0.085388735 0.061639145 -0.037444457 0.04818946 -0.09428334 -0.02239485 -0.12429178
0.09491995 0.101009905 0.010233179 -0.008657515 0.07601948 -0.09647992 0.050386608 0.05333589
-0.047468558 -0.05228722 0.11147213 0.07173726 0.03509693 0.04164645 -0.054610685 -0.08874932
-0.026322052 0.028982729 -0.0034947544 0.072319925 0.10620831 0.100360975 0.07958008 0.023542732
0.0898079 -0.027709648 -0.11723259 -0.010148853 0.11462796 0.02978167 -0.007332161 -0.05555463
-0.037113473 -0.10143554 0.0484118 -0.027839363 -0.06520404 -0.07626726 0.09480958 -0.10440144
0.029327765 -0.073822305 -0.0028574318 -0.03697689 0.010706127 0.12318656 0.0006958693 0.050431848
0.08093187 -0.0081460625 0.01626642 -0.020441353 0.04781246 -0.031188473 0.08853555 -0.062230587
0.0028726459 -0.010473192 -0.03531672 -0.102368996 0.113017485 0.03568296 0.10260709 -0.10362467
0.0038051158 0.021636084 0.10266085 0.010869071 -0.062893525 -0.033846557 -0.05250193 0.08925027
-0.102725506 -0.052938893 0.086008206 -0.03604564 -0.10691218 -0.10051623 0.09370296 0.09730463
0.06446311 0.0119063705 0.10893537 -0.052388504 0.025175035 -0.008023486 -0.066782266 -0.0017013401
-0.09352049 0.045505047 -0.060634643 0.120458186 0.050426677 -0.04807219 -0.11903736 -0.11759637
-0.0016494095 -0.086160704 -0.07464558 -0.11166066 -0.05480936 0.058432892 -0.044867456 0.024600506

net.2.bias f4 [64]
00000000: a041 cb3c 9483 bd3d fafc a03d 485c 01bd
00000010: 7096 e43d f86c b4bd d8aa 66bd 284c f83d
00000020: b0da e03d 6efc f23d 8682 f13d 00c7 b7ba
00000030: 1027 d03c 7e57 98bd 4435 743d 86c8 ccbd
00000040: 682e 4d3d 847f 36bd 2032 eebd a821 d93d
00000050: 0034 2fbd a053 4e3c 9423 813d 2860 72bd
00000060: 2287 993d 6cf4 22bd 003a 553d 84b5 51bd
00000070: e084 76bd 0cc4 633d 9ca4 8e3d 941c e4bd
00000080: c0dc f1bc 969f 81bd 90b7 f13c 4034 0d3b
00000090: d858 18bd e044 8b3c e8c7 56bd 0017 c93c
000000a0: f051 a73d e2a2 99bd b240 d23d 807e 91ba
000000b0: 70b6 ccbd 90b3 163d 7854 49bd 70f5 22bd
000000c0: 68fe 72bd b802 f93d ca82 c93d 7808 65bd
000000d0: b800 51bd d425 a53d 80b0 59bb 1e7e d53d
000000e0: e0c9 e0bc 7c3c 4e3d acad 60bd b0ab f73c
000000f0: a079 59bc 64f4 83bd 0408 c4bd a4e1 bc3d
0.024811566 0.09253612 0.078607515 -0.031582147 0.11161506 -0.08809847 -0.056315273 0.12123901
0.10979211 0.118645534 0.117924735 -0.0014021099 0.025409251 -0.07438563 0.05962111 -0.09999184
0.050093085 -0.044555202 -0.11630654 0.106021225 -0.0427742 0.01259318 0.06305614 -0.059173733
0.07496478 -0.03978388 0.052057266 -0.051198497 -0.060185313 0.055606887 0.069649905 -0.11138263
-0.029524207 -0.06329267 0.029506475 0.0021546036 -0.037194103 0.017000616 -0.05243674 0.0245471
0.08169925 -0.075017706 0.10266246 -0.0011100322 -0.09995735 0.036792338 -0.04915282 -0.03978485
-0.059324652 0.12158722 0.09839399 -0.05591628 -0.051026076 0.08063856 -0.0033216774 0.104244456
-0.027440012 0.05035065 -0.054853126 0.030233234 -0.013273627 -0.06443098 -0.09571841 0.09222725

net.4.weight f4 [7, 64]
00000000: 8062 c0bb 78b0 7cbd b8e6 8f3d d823 543d
00000010: 50cd 46bc e67b 913d e833 5ebd 201e 57bc
00000020: ca8a 9ebd e8fc e3bc f800 d6bc 70d1 b83d
00000030: 18c8 6b3d b0a6 d6bc 2a24 a2bd d812 37bd
00000040: 249b 773d 40d6 10bd 5c61 fcbd c022 2abd
00000050: e850 5abd b0af 0fbc 3cce 8fbd 1617 99bd
00000060: 6873 97bd 3c42 62bd c411 52bd 6869 fbbc
00000070: 3802 b33c 8079 f7bc b657 94bd 92a9 d1bd
00000080: 122b f93d f882 ffbd c853 b93c 6806 233d
00000090: f81d 7a3d a02b 24bd 00c4 74b9 481f 8fbd
000000a0: 52c3 e8bd 8c94 373d 06c5 d3bd c0a9 fa3b
000000b0: 162f bfbd 88fa e43c c0f0 7fbb f616 ec3d
000000c0: fac9 fb3d b04e 893d 2082 cc3c 90fe b5bd
000000d0: cca1 0bbd b8c1 d6bd a2dd b5bd 6825 b33c
000000e0: 766a d93d d055 363c 7e74 ad3d 5068 2ebc
000000f0: d002 72bc f4eb 4a3d 60b4 a4bc 64b6 1f3d
00000100: 96c9 803d f817 ab3d 5c7f 2e3d 6071 5a3d
00000110: 385b f9bd b6e8 89bd 3c8c 8a3d b8af 0fbd
00000120: 5c48 28bd 7625 d6bd 16c5 b33d 40b9 b6bb
00000130: e039 a73b d821 d7bd ac8d 9d3d f053 673d
00000140: 507b d13d d8fd df3d 0628 b0bd a64a 96bd
00000150: 4028 5c3d 1416 75bd 30c3 5d3d 7489 35bd
00000160: 9496 9a3d e018 ddbb 34d6 923d 60fe ddbd
00000170: 3ca1 3b3d 7ca7 603d 58aa e83c c677 ec3d
00000180: 108b 503c 5c11 80bd 64a7 0cbd 1025 8d3d
00000190: 102e dbbc fccd 393d 6c00 99bd 646f 78bd
000001a0: 7ae5 f53d 185c b7bc b0c3 573c c047 09bd
000001b0: 5c8a a93d b058 31bd 2e1e e13d b4a8 e0bd
000001c0: 6c5c 97bd a4f9 d03d 84ed 52bd d435 3e3d
000001d0: cae4 aabd e6ed 883d 26be 89bd 4096 acbd
000001e0: e291 af3d 50e3 dfbd 641a a13d 2acf d9bd
000001f0: d09e 9f3d 4056 cebc 18c6 693d 7c05 723d
00000200: 7e33 9e3d 4073 d1bd 8cd2 69bd d8d1 ca3d
00000210: 1a0f 8f3d 8842 83bd 9070 143c ec97 a0bd
00000220: 60b3 ab3b 3247 c33d 864a 8d3d 84d7 b43d
00000230: a4a5 863d 8eba b13d f001 2cbd 7ef0 c83d
00000240: 841a 7b3d 2cd3 e8bd 5422 1ebd 8085 203b
00000250: a0c4 a93d c0f0 3b3d e652 8c3d e458 b83d
00000260: 28fc 42bd bc6a 573d ecb8 be3d 72fe 8bbd
00000270: 04a2 753d aec5 d5bd e024 b73d f00b 63bd
00000280: f8c4 88bc 10fe e13d 3c4d 8abd 46fc e9bd
00000290: e067 b4bc 9408 09bd c00f d43b 60df a1bc
000002a0: 36bc c5bd d220 c8bd c433 85bd a051 a63c
000002b0: 984e d63d d835 503d 9072 993c 3864 dcbc
000002c0: 14ae c9bd f058 5f3d 4000 96bb 88e5 fcbd
000002d0: 0299 fbbd 542d 1f3d d01f 87bd 36cd f4bd
000002e0: b8f5 343d a6b0 9d3d e0fb fd3d 7406 d5bd
000002f0: f01c 3fbc 0801 8f3c c05e 3c3b c0b6 fdbd
00000300: f000 cd3c a44b c5bd 1cba 673d 189d 023d
00000310: 007d fabb 38e7 ef3d 901a ab3d fcd4 abbd
00000320: a839 3a3d 2482 7c3d 0024 f73c d0b6 fdbd
00000330: 1888 ecbc 4af0 ce3d a0a5 0cbc 5e6f fc3d
00000340: 401f 323c 0e2d 8cbd 4073 58bd fa58 b93d
00000350: 6a39 8f3d f08d 173d 640e 963d 0cbb 3bbd
00000360: 0487 863d 38ba e4bd da8f afbd 94b6 743d
00000370: 44b8 ddbd 50e2 8dbc a8b2 b03d f486 63bd
00000380: f43b f5bd c037 733c e006 f5bb 3830 77bd
00000390: 1431 013d 18b2 543d 3cf4 a13d 787a c5bd
000003a0: e81b a6bd 68a5 ee3d 10d9 03bd 0025 ccbc
000003b0: d043 dbbc d8d5 5ebd 9816 c93c 509f 90bc
000003c0: eaf5 e13d c839 62bd 1026 613d f4b4 22bd
000003d0: 6021 72bc 6072 88bb 409e 0e3d 3cf7 48bd
000003e0: 4049 b8bc 343d d7bd 98fc 443d d293 973d
000003f0: ecd3 c43d 9a7a efbd a48f d7bd 7ae7 a7bd
-0.005871117 -0.06169173 0.07026428 0.051791996 -0.012133911 0.0710371 -0.05424872 -0.013129741
-0.07741316 -0.027830556 -0.026123509 0.09024322 0.05756387 -0.02620253 -0.07917054 -0.044695705
0.060450688 -0.035360575 -0.12323257 -0.041537046 -0.053299814 -0.0087699145 -0.07021758 -0.074751064
-0.07395059 -0.055238947 -0.051286474 -0.03068991 0.021851644 -0.030209303 -0.07243292 -0.10237421
0.12166418 -0.12476152 0.022622958 0.03980103 0.061063737 -0.040080667 -0.00023342669 -0.06988388
-0.113653794 0.0448194 -0.103403136 0.0076496303 -0.09335153 0.027951494 -0.003905341 0.11527817
0.12294383 0.067044616 0.024964392 -0.088864446 -0.03408985 -0.10486168 -0.08880164 0.021868423
0.10616009 0.011128858 0.08469485 -0.010644987 -0.014771178 0.04954143 -0.02010554 0.0389923
0.062884495 0.08354181 0.042601928 0.05333078 -0.12175602 -0.06733839 0.06765029 -0.035079688
-0.041084632 -0.10456364 0.087778255 -0.0055762827 0.005103335 -0.10504502 0.076930374 0.056476533
0.10228598 0.10937089 -0.08601384 -0.07338457 0.053749323 -0.05983551 0.054141223 -0.04432054
0.07548252 -0.00674735 0.07169762 -0.10839534 0.045808062 0.054847226 0.028401539 0.115462825
0.012728468 -0.06253311 -0.034339324 0.06891835 -0.026755363 0.045362458 -0.074707836 -0.060653105
0.1200666 -0.02238278 0.013169214 -0.03351569 0.08278343 -0.04329747 0.109920844 -0.109696776
-0.07390675 0.10203865 -0.051496044 0.046438053 -0.08344419 0.066860005 -0.06725721 -0.084270954
0.08572747 -0.10932028 0.07866362 -0.106352165 0.07793963 -0.025187612 0.057073683 0.05908726
0.07724665 -0.1022706 -0.05708556 0.09903306 0.06985302 -0.06409174 0.00906004 -0.07841477
0.005239889 0.09535064 0.0689898 0.08830169 0.06574562 0.086781606 -0.041994035 0.09811495
0.061304584 -0.11368403 -0.038606957 0.0024493635 0.08289456 0.045883894 0.06851749 0.090013295
-0.047603756 0.052592024 0.09312615 -0.06835641 0.059968963 -0.10438095 0.0894258 -0.055431306
-0.016695485 0.11034787 -0.067530125 -0.114250705 -0.022022188 -0.033455446 0.006471604 -0.019759834
-0.09655039 -0.09771885 -0.06504014 0.020302594 0.10464209 0.0508326 0.018731385 -0.026903257
-0.09847656 0.054528177 -0.0045776665 -0.12348467 -0.12285043 0.038861588 -0.06597865 -0.119532034
0.04417965 0.07699709 0.12401557 -0.104016215 -0.011664614 0.017456546 0.0028743 -0.123883724
0.025024861 -0.09633568 0.056573972 0.031888098 -0.0076442957 0.11714023 0.08354676 -0.08390233
0.04546514 0.06164755 0.030168533 -0.12388384 -0.028873488 0.10104425 -0.00858441 0.12325929
0.010871708 -0.06844531 -0.052844286 0.09050174 0.06993373 0.037000597 0.073269635 -0.04583268
0.06568721 -0.11168331 -0.085723594 0.059744433 -0.108261615 -0.017319828 0.08627826 -0.055548623
-0.11974326 0.014844835 -0.007477626 -0.06034872 0.031540945 0.051927656 0.07907912 -0.096425
-0.081107914 0.116526425 -0.03218943 -0.024919987 -0.026765734 -0.054403156 0.024546906 -0.017654091
0.110332325 -0.055230886 0.05496794 -0.03972335 -0.014778465 -0.004164025 0.034818888 -0.049063906
-0.022495866 -0.105097204 0.048092455 0.07401241 0.096107334 -0.11693306 -0.10525444 -0.081984475

net.4.bias f4 [7]
00000000: 4465 6a3d c4bf de3d 8013 4bbc 9089 55bd
00000010: 7673 b43d 74b8 4cbd c000 e9bc
0.05722548 0.1087642 -0.012394786 -0.052133143 0.08811085 -0.049980596 -0.02844274
